09-Autoencoders/lightning_logs/version_1/checkpoints/best_model_val_acc=0.ckpt (torch, 72488 bytes, 39 tensors)

model.encoder.conv1.weight f4 [16, 1, 3, 3]
00000000: e4ad 883e 71f2 52be d4ce 1fbf 3112 013f
00000010: 2fc0 a53e 0de1 f2be c4b3 7dbd f5ee 5dbe
00000020: 39c7 acbf ebd3 4e3e 6785 823e ad16 b43e
00000030: f882 ccbd 0002 14be 9345 87be 3c07 a03e
00000040: 6278 ca3c d2d8 8d3e 2493 3dbd 9254 a63d
00000050: 558d 1d3f 3a5f 2cbf 1858 0fbe e166 6d3d
00000060: 11df d3be 247f 7a3b 603e 8e3e 86ba a2be
00000070: 01f0 08bf a2a1 a4be a546 e03e 26b0 34be
00000080: dae9 393f 57f6 f33e 2387 10bf f98b 49bf
00000090: aa4d d73e 1985 8fbe ae6b 913d 6913 b33e
000000a0: 83a6 7abe c798 9a3e 23e0 a33d 2cae 0fbe
000000b0: f537 4a3e 8e97 b2be c2a6 15bf b6eb 5ebe
000000c0: c0fd 35be 68e4 22be d402 d03e e465 783e
000000d0: 5f9b a23e 6a54 273e 69ca 06be 8601 2bbe
000000e0: 7e0b b53c d233 a03e 01f2 ef3c b562 b23e
000000f0: 2817 3ebd 2d82 4fbd d298 ce3e 49e2 a23e
00000100: 9442 ef3e 7912 f13e d258 ec3d db4f efbe
00000110: 6641 623e 81b2 b0be 5732 11bf 8f95 fabe
00000120: 10d1 773e 0734 8bbe cb39 23bf 2c5a 943e
00000130: 4645 bb3d 2e71 84be 61da 573e 0ae4 093f
00000140: 13e8 193e 0f81 14bf 4c65 62be a696 81bd
00000150: 24a3 34be b510 943e dc15 b03e 5c01 d3bd
00000160: 0e05 433e 3f33 bf3e 9798 1bbf 4e94 9abe
00000170: 48c5 24be ef65 b3bd 102a 50be 0e93 063f
00000180: 5a9e 75be 7765 1abb aae2 f03e 4305 2b3e
00000190: 0393 fd3e 6e84 f4bd 0a14 873e 9586 9f3e
000001a0: 8b14 533e 85e9 31be 9c2e 303d 99f1 2cbd
000001b0: 90e2 fbbe 9ed9 56bf 9b0f 11be 6438 b7be
000001c0: b78e cebd 1fb9 48be 8b50 303e 732f 7abe
000001d0: 07c6 1f3f b24e 2dbb 7b6c 99be 05b5 d8bd
000001e0: be79 873e 0fce 123e 0ca1 3d3e a60f 31be
000001f0: 35f1 2ebe 8115 80be c68f 08bd 19e8 ca3e
00000200: e7f1 e83d aa9a e93b d303 243f 3505 803e
00000210: 0290 99bc 4547 883e 5567 90bd ac6e 043e
00000220: a982 343e f419 d03e d2d5 383d 854a 6fbe
00000230: 5ed1 0c3e 5a5d a33e 0a8a fabc 8a09 e73d
0.26695168 -0.20600297 -0.6242497 0.5041838 0.32373187 -0.47437325 -0.061939016 -0.21673186
-1.3498298 0.20198028 0.25492403 0.3517355 -0.09985918 -0.14453888 -0.26420268 0.3125552
0.024715606 0.27704483 -0.046282902 0.08121599 0.6154378 -0.67332804 -0.13998449 0.05795944
-0.41381124 0.0038222754 0.27781963 -0.3178293 -0.53491217 -0.32154566 0.43803898 -0.1764532
0.72622454 0.4764888 -0.564562 -0.78729206 0.4205144 -0.28031233 0.071006164 0.34975746
-0.24477582 0.30194685 0.08001735 -0.14031285 0.19747908 -0.34881252 -0.5845758 -0.21769604
-0.17772579 -0.15907443 0.40627158 0.24257618 0.31759164 0.16340795 -0.13163151 -0.166998
0.022100206 0.31289536 0.029290201 0.34840932 -0.046408802 -0.050661255 0.40350968 0.31813267
0.46730483 0.47084406 0.11540379 -0.46740612 0.2209526 -0.34511188 -0.5671744 -0.4894223
0.24200845 -0.2718813 -0.6376006 0.28975046 0.09144072 -0.258676 0.21079399 0.53863585
0.15029936 -0.5800943 -0.22108954 -0.06327562 -0.17640358 0.28918996 0.34391677 -0.10302994
0.19044897 0.37343785 -0.6077971 -0.30191272 -0.16090882 -0.08759677 -0.20328546 0.5256814
-0.23986188 -0.0023559013 0.4704793 0.16701226 0.49526224 -0.119393215 0.26382476 0.31157365
0.20613305 -0.17374237 0.0430132 -0.042222593 -0.4919629 -0.8392581 -0.1416611 -0.3578521
-0.100858144 -0.19601868 0.17218225 -0.24432163 0.6241154 -0.002644461 -0.29965577 -0.10581402
0.2646007 0.14336418 0.18518466 -0.17291126 -0.170842 -0.25016406 -0.033340238 0.396302
0.11374264 0.007129033 0.64068335 0.25003973 -0.018745426 0.26616874 -0.07050959 0.12932843
0.17627968 0.406448 0.04512579 -0.2336827 0.13751742 0.3190716 -0.0305834 0.11281116

model.encoder.conv1.bias f4 [16]
00000000: 4788 053a a489 9e3e 2fce 613e 6997 ff3a
00000010: d08d 8f3e cbe4 b53e 3941 323b f204 8e3e
00000020: 70c9 04ba 01c3 943c 859e f8b9 2ca2 8f3e
00000030: f942 293a 5009 d23e 8fd8 da3c ffcf 1a3d
0.0005093854 0.30964386 0.22051309 0.001950008 0.28037882 0.35526118 0.002719952 0.27738148
-0.0005065417 0.018159391 -0.00047420352 0.28053415 0.0006456818 0.4102273 0.026714591 0.037796017

model.encoder.conv2.weight f4 [8, 16, 3, 3]
00000000: 0144 adbd 6cb4 d03c 290d a2bd 51e7 61bd
00000010: 415d 083d 4087 f6bc 4427 3a3c 9822 3f3d
00000020: e148 0b3d 933c 65bd 59f4 0e3d 65d8 09bd
00000030: 51e8 47bd b139 31bd f924 c0bc 49f3 ab3c
00000040: 7603 3fbc 56b6 c9bd 0494 253d a6db 08bd
00000050: 06aa bdbb 71ad aabd 0692 443d dc9d f73c
00000060: f5e6 593c 79ee 6f3d c94d 99bb 4dc8 143c
00000070: 91ac 9dbd 259b 353c 081d 8f3d fdf0 7bbb
00000080: aa05 e93c a14f 03bd 1837 90bb 2346 bfbd
00000090: f898 81bd 9c38 34bd 5627 19bd 1079 4cbc
000000a0: 062f a1bd dd98 79bc 309f 93bd cfcb 613d
000000b0: f5fa e03c 8bcc 49bd f6a6 7e36 7906 603d
000000c0: d1b1 0a3c 8016 253d ca85 823d eae0 bd3c
000000d0: efee 6cbd edef 2c3d 10bb 7c3d ba65 ceba
000000e0: f3bf 9f3d 7277 1fbc 92ec 96bd 2e46 c5bd
000000f0: bf56 a7bc e742 a9bd 3f1a 513d 30a2 403d
00000100: cb60 30bd 05f8 9dbd 0870 87bd b0e7 c3bd
00000110: dd3b bdbd cc40 843d 2b57 1c3c fa3b 133d
00000120: 0860 833d ce45 88bd db64 97bc b1eb c8bd
00000130: fe3b b0bd ea76 48bd 0619 613c ba09 b1bd
00000140: b469 533c 0694 6ebd 45df 733d f100 0abd
00000150: 5657 14bd e95b 70bc ac81 463d cad8 673b
00000160: dd31 75bd d5a3 843d 7bbf a63c f680 5c3d
00000170: e982 c4bd 800a aa3b 9a9c 813d e5ae 05bd
00000180: 5de5 733c e891 22bd b8cb 1ebd b50a 1abd
00000190: 967b 493d 5500 bdbd ff9b 6e3d ad20 0d3b
000001a0: 5698 a8bd 2c1d 91bc 5d05 47bd 303b 723b
000001b0: 62a8 2a3d a1a8 b83b 8877 6f3d 842b 953c
000001c0: 1278 403d 4d6d 693b 3388 9cbc afc5 813c
000001d0: a25b b5bd b2ed bd3b 5452 5dbd 15e6 2c3d
000001e0: 3eb3 6f3d 857e 003d 5398 5b3d 9ab2 b33c
000001f0: f4c8 46bd 4f6b 58bd b250 ed3c 9212 8cbd
00000200: 18c3 0dbd 97ca a5bb 5855 9b3c dd50 29bd
00000210: 867b 8fbd 1433 2fbd 868f 4bbd ae49 01bd
00000220: 1b25 553d 4c99 253b fd9a 703d c517 993c
00000230: 1db7 2b3c e581 ccbd f9df b1bd 39c9 5d3c
00000240: 7ae3 d83d ebdc 75be d927 4bbe df9d 54bf
00000250: 2200 16bf 13ee 4bbd 2c5f 87be d355 03bc
00000260: 45b5 41be cde9 5f3d 07ea 8e3d f695 263d
00000270: e84f d1bc fe89 c9bd 9307 da3b 692f 1e3d
00000280: 9274 b43d e583 433d 0d10 babc 55b6 52bd
00000290: 1169 773d 276b 32be 709e 11be 6556 52bc
000002a0: 3240 4dbe 3e13 2bbd cbaa 89bd b497 ecbe
000002b0: 2308 dcbd 3663 e23e 85fe 75be c1b4 76bd
000002c0: a8d6 083f 29f4 c5bc d5e6 553d 3568 853e
000002d0: fc11 213e b06b 18bd 790c fe3a 2d0f f23d
000002e0: ef88 023d bb0c 693d 4693 153e 5dec cf3c
000002f0: f70c d93d e055 ed3d 6f32 dc3c 92c2 d93d
00000300: 2236 0f3e 71f8 ee3d a801 f53c ef8f 163e
00000310: 9d92 fb3d cc1d 003d c986 f3bd ba28 0dbe
00000320: 70d4 1ebd 27cc f63d 00f1 b53d 27c9 c73e
00000330: c707 ff3e c500 c73e fe33 0c3f db3d 173e
00000340: fbbb 433e 7334 123d 0b0f 3b3d f4d0 c9bd
00000350: f5dc 1bbe c806 943d ab2a 06be 63f7 3bbd
00000360: d6e8 08bc 7ac5 54be 151a 51be 3ab7 373e
00000370: 4de9 bc3d 21d4 4d3d 5c00 d73e 6465 5c3e
00000380: c00c 2b3e 6e13 743d c91f cd3c f1c4 b93d
00000390: 9de8 043d 9ef9 833d 1231 633d 9447 1cbc
000003a0: 2813 163d dd74 d53d 55c9 1ebd 8804 eebc
000003b0: eba1 be3d 7ed1 183a af4d 43bd 9321 003e
000003c0: 2499 4ebd 2be6 51bd 9094 053e af31 183e
000003d0: 57af b73d 9bdc a8bd 9119 de39 c0b5 7b3d
000003e0: 96c0 f3bc d898 133e 706e ccbc 9eb3 5b3d
000003f0: 0d58 1d3e 305b 603e f8e2 0c3e 433f 1b3e
-0.08460236 0.025476657 -0.07912666 -0.05515224 0.03329206 -0.03009379 0.011361901 0.04666385
0.03400505 -0.05596597 0.034900997 -0.033653636 -0.04880554 -0.04326791 -0.02345513 0.02099003
-0.01165854 -0.09849231 0.04042436 -0.033412598 -0.0057880906 -0.083338626 0.04799082 0.03022664
0.013299693 0.058577035 -0.004678462 0.009080959 -0.0769893 0.011084353 0.06987959 -0.00384432
0.028445084 -0.032058362 -0.004401099 -0.093395494 -0.063280046 -0.0439993 -0.03739103 -0.012480035
-0.07870297 -0.015234199 -0.07208097 0.055126008 0.027463416 -0.049267333 3.7946133e-06 0.054693673
0.008465246 0.04030466 0.063731745 0.023178536 -0.057845052 0.042221 0.061701834 -0.001574687
0.07800283 -0.009733068 -0.07369341 -0.09632526 -0.020427106 -0.08264714 0.05105042 0.047029674
-0.04306106 -0.077133216 -0.06613165 -0.09565675 -0.09239934 0.064576715 0.009542267 0.03594587
0.06414801 -0.06653939 -0.018480709 -0.098105796 -0.086051926 -0.04894153 0.013738876 -0.08644433
0.01290362 -0.058246635 0.0595391 -0.033692304 -0.036216103 -0.014670351 0.04846351 0.003537702
-0.059862006 0.06476561 0.020354977 0.053833924 -0.09595282 0.00518924 0.063286975 -0.032637496
0.014886227 -0.03968993 -0.0387685 -0.037607867 0.049190126 -0.09228579 0.05825424 0.002153437
-0.08232181 -0.017714106 -0.0485891 0.0036961548 0.04166449 0.0056353365 0.058463603 0.018209226
0.046989508 0.0035618127 -0.019107914 0.015841333 -0.08855368 0.0057961578 -0.054033592 0.04221161
0.058520548 0.03137066 0.053612065 0.02193575 -0.048531488 -0.052836712 0.028969143 -0.068394795
-0.034609884 -0.005059551 0.018961594 -0.041336883 -0.07005982 -0.04277332 -0.04969742 -0.031564407
0.05203734 0.0025268374 0.05874156 0.018688092 0.010480669 -0.09985713 -0.086852975 0.013536745
0.10590263 -0.24010055 -0.1983942 -0.8305339 -0.5859395 -0.049787592 -0.26439798 -0.008016068
-0.18916805 0.05466633 0.06978231 0.040670358 -0.025550798 -0.09840773 0.006653735 0.038619433
0.088112965 0.047733206 -0.022712732 -0.051443417 0.060402934 -0.17423688 -0.14220595 -0.012837981
-0.2004402 -0.041766398 -0.06722029 -0.4620949 -0.107437395 0.44216317 -0.24022873 -0.060230974
0.5345254 -0.024164276 0.05222209 0.26056066 0.15729517 -0.037212074 0.0019382379 0.11819301
0.03186887 0.056896906 0.14606962 0.025381261 0.10598176 0.11588645 0.026879517 0.106328145
0.13985494 0.1166848 0.029908016 0.14703344 0.12283824 0.031278417 -0.118909426 -0.13785067
-0.038776815 0.12050658 0.08883858 0.39020655 0.4981062 0.38867775 0.54766834 0.1476969
0.19114678 0.03569455 0.045668643 -0.09854308 -0.15221007 0.07227856 -0.13102214 -0.045890223
-0.008356294 -0.20778456 -0.20420106 0.17940989 0.09224186 0.05025113 0.41992462 0.21523052
0.16704082 0.059588842 0.02503957 0.09070767 0.0324484 0.06444095 0.05546672 -0.00953855
0.036639363 0.104226805 -0.038766224 -0.029054895 0.09308227 0.00058295566 -0.047681507 0.12512808
-0.050439015 -0.051244896 0.13044953 0.14862703 0.0896899 -0.08245202 0.00042362188 0.061452627
-0.029754918 0.14413774 -0.024955004 0.053638093 0.1536562 0.21909785 0.13758457 0.15160851

model.encoder.conv2.bias f4 [8]
00000000: 6d90 edbb bb75 91bd 3c70 c3bd 7aa5 7ebd
00000010: bb51 9fbc 1511 26bb 8eef 7f3d 9b79 9f3d
-0.007249883 -0.071025334 -0.095428914 -0.06216953 -0.019448152 -0.0025339772 0.062484317 0.07786866

model.encoder.conv3.weight f4 [8, 8, 3, 3]
00000000: ace9 6f3d f5c7 873d 373d 3cbd 1ca7 1f3d
00000010: 0292 a73c ae3b 8dbc 90d3 5f3d 2e80 d1bd
00000020: 6b24 dd3d ca49 91bd c98b f0bc a1a9 df3c
00000030: 07f8 453e 48b0 be3e 8c4c 0b3e aed1 a83d
00000040: b0eb 05be 8c84 173e bf32 d23d 9c4b d43d
00000050: 25fa da3d 8814 46bd bedb 80bd a4ad 6cbd
00000060: 67e5 cc3d e3b4 57bc 8745 2bbd af01 8cbd
00000070: 033f c3bd 7e35 8bbd f2bb 4ebc 1b5e a33e
00000080: fd96 47bd 74f1 c1bd 7d49 2c3e b1a9 353e
00000090: f462 b7bd b6b3 8d3c 6e24 3dbd ea03 6f3c
000000a0: 49c9 0e3e fb04 f1bd 7124 18bd ea1f 7d3e
000000b0: 80a2 4c3e 765d c1bd 69f6 71bc d81e 89bd
000000c0: c4b2 b03d dffe a338 d6d4 843a 2f32 82b8
000000d0: d332 21bd 06d7 b73d 984f 3e3d 002e d63c
000000e0: 8880 6b3d f46c a13d 6975 56bd 29e6 acbd
000000f0: e4b3 0ebe 1cb0 b33e 5a05 873e f45a f53d
00000100: b1f6 c93d a81f 743d 5ddf e8bd 8e17 a03d
00000110: 3987 fdbd e265 8c3e 92fb 4d3e 7a29 6abc
00000120: 9166 f03d 56ed 133d 273c c4bd 2da7 dd3d
00000130: b0d1 00bd 4fcc 50bd 1b85 87bc 9c58 cebb
00000140: daab 2abd 14a2 953d 93f4 0d3e dffd e3bc
00000150: cabc 6bbe 1fd4 d5bd f43a d4bd d786 503c
00000160: 6bf2 54be 3438 69be 3cf2 a5bd e7eb 90bd
00000170: c379 a2bd e9f3 e33d ffd1 a73d e838 a8bd
00000180: e032 9b3b 9d61 803d 4b12 f7bd 4fbd a03c
00000190: bcc7 ee3d d65a eebd f779 003b 20c8 883d
000001a0: 36d0 a5bd a6b7 60bc dd08 9ebd 31fa 37be
000001b0: 70b1 fd3d bd92 02bd aec1 c2bd a59f 8ebd
000001c0: bfe9 3e3e b59f 4b3e 6817 14bd 3e6d 81bd
000001d0: 1f2a 903d 331e 5fbd f101 a4bd 73e2 b03d
000001e0: 1458 72bd 7d3e 2f3d f175 b2bc bb34 dbbd
000001f0: 96ab b83d 4e92 503d c229 93bd 6e92 3e3c
00000200: f31d 043d 8cc1 39bd 5d78 083e f0f5 0c3e
00000210: 8046 083b 16f9 d03d bca6 093e 1303 3abe
00000220: ba8c 03be 2385 a93d fbbe cabc 9d3a 5f3d
00000230: b924 b53c 2683 2bbd 8f29 993d ad7c ff3d
00000240: fe6f 3cbc 093b a1bd 4e7e 96bc 761f 783d
00000250: 8b1c dd3d 4b0d edbd e4e0 dc3d 151e 6f3d
00000260: 6855 e2bb 5e98 8dbd 5822 b13c 2f82 e4bd
00000270: f1e5 253e 8f2f 08be 7a4e 383d c399 5dbb
00000280: 725f d0bd 3af8 b6bd 8a6f ebbd 6e59 e0bd
00000290: a8ea 733c b9fc e73b d0b6 ddbd e7e2 8a3c
000002a0: 2791 97bd 93cb 2ebd 0401 963c ad44 f7bc
000002b0: 29f9 f73d b8de d03c eefc 2b3e ab00 9d3c
000002c0: 7e7e 253a 81e5 273e 64ec 28bd 1708 0b3d
000002d0: ba8d 003c fae3 b3bd 1ace fcbc fc0a 523e
000002e0: 4442 0e3e 1168 bf3d 7bcb 903e 7aa6 b43c
000002f0: 14fc c6bc 46f9 6fbc 068e 923b dc02 3d3d
00000300: d3ec 1e3c 2c98 eabd 5f03 49bd a306 a33d
00000310: cbd9 bb3d 1a3f b2bc 6cd4 9abd f4df ac3c
00000320: e149 773c a573 863d 0ddf 2fbd d55e 15be
00000330: c8bb 513d 52ad 643e 0463 d73d ec21 10be
00000340: d797 35bd 92d5 e1bb 8667 e63b fea3 243e
00000350: 8475 853d 7e97 353e ed82 88bd 3b4b 9d3c
00000360: 2f9b 133d f8fc 44bd e409 2abd 16a5 a63d
00000370: dd63 733d e42f bbbd a97b 873d 66fc 3f3d
00000380: 1d82 aabc 6412 aebd 1c71 ac3e 58d6 923e
00000390: d58a 4b3d 1aa9 55bd c263 00be 2422 e0bd
000003a0: 3c21 0e3d 3d2b 003e 8fd0 37bd a8ed d9bd
000003b0: 3044 78bd 8d16 b43d ac2d 8dbd 4349 c0bd
000003c0: d1e0 2e3d 2d5a 97bd d2ba cf3c 077e 883d
000003d0: 014b 983d a567 5e3e 3927 30bc 2095 4fbe
000003e0: 5c83 c8bd 14c0 c3bb e9e6 39bd 6200 d6bd
000003f0: ff01 543d a1a1 713c 4dda 8c3e 599f 043d
0.058572456 0.06629936 -0.045956817 0.038977727 0.020455364 -0.017240372 0.05464512 -0.102295265
0.10797962 -0.07094152 -0.02936353 0.027302565 0.19332896 0.37243867 0.13603419 0.08243118
-0.13078189 0.14796656 0.10263585 0.10365984 0.106922425 -0.048359424 -0.062919125 -0.057782784
0.100046925 -0.013165685 -0.041814353 -0.068362586 -0.09533503 -0.06797312 -0.012618052 0.31907734
-0.048727978 -0.09469882 0.16824909 0.17740513 -0.08954421 0.017297607 -0.04617732 0.0145883355
0.13943972 -0.11768528 -0.03714413 0.24719205 0.19983864 -0.094416544 -0.014768221 -0.06695336
0.08627847 7.819919e-05 0.0010134231 -6.2082305e-05 -0.03935511 0.08976559 0.046462625 0.026144981
0.057495624 0.07882109 -0.052358065 -0.08442337 -0.1393581 0.35095298 0.2637127 0.119802386
0.09861506 0.059600502 -0.11370728 0.07816993 -0.12379307 0.2742148 0.20115498 -0.014292115
0.11738313 0.036115013 -0.09581786 0.10822902 -0.031449974 -0.050976094 -0.016542962 -0.006297184
-0.041667797 0.073063046 0.13862829 -0.027831016 -0.23021236 -0.104408495 -0.10362807 0.012727461
-0.207956 -0.22775346 -0.08102843 -0.07076245 -0.079333805 0.111305065 0.081943505 -0.08213979
0.0047362894 0.06268618 -0.12064036 0.01962152 0.1165919 -0.11638419 0.0019603947 0.06678796
-0.08096354 -0.01371566 -0.07716534 -0.17966534 0.12387359 -0.03187822 -0.09509598 -0.069640435
0.18643855 0.19885142 -0.036155134 -0.063196644 0.07039284 -0.05447216 -0.08008183 0.08636942
-0.05916603 0.042784203 -0.021784754 -0.10703417 0.090171024 0.050920777 -0.07185699 0.011631591
0.032255124 -0.045350596 0.13327165 0.13765693 0.0020793974 0.10203759 0.1344251 -0.18165235
-0.12846652 0.08277347 -0.02474927 0.054499257 0.022112237 -0.04187312 0.0747863 0.12474952
-0.01150131 -0.07872588 -0.018370774 0.06057688 0.1079646 -0.11574801 0.10785082 0.058378298
-0.006907154 -0.06913827 0.021622822 -0.11157643 0.16200997 -0.13299392 0.044996716 -0.0033813573
-0.10174455 -0.08934064 -0.11495884 -0.10954557 0.014887489 0.0070796874 -0.10825884 0.016953899
-0.074007325 -0.042674612 0.018311031 -0.030184114 0.121080704 0.025496826 0.16795704 0.019165358
0.00063130993 0.16396143 -0.041241065 0.033943262 0.00784629 -0.087837175 -0.030859996 0.20512003
0.13892466 0.09346021 0.28280243 0.022052038 -0.024290122 -0.014646834 0.004472497 0.046145305
0.009700018 -0.11454806 -0.04907548 0.0796025 0.091724 -0.021758605 -0.075600475 0.021102883
0.015093298 0.06565026 -0.042937327 -0.14586957 0.051204473 0.22331741 0.105169326 -0.1407544
-0.04433426 -0.0068919146 0.007031384 0.16078183 0.06516555 0.17733571 -0.06665597 0.019200912
0.036036666 -0.048092812 -0.04151334 0.081369564 0.05942141 -0.09139994 0.06615383 0.046871565
-0.020813996 -0.084996015 0.33680046 0.28679156 0.049692947 -0.05216322 -0.12538055 -0.10944012
0.034699664 0.12516494 -0.04487663 -0.106410325 -0.060611904 0.08793364 -0.06893477 -0.093889736
0.04269487 -0.073902465 0.025357638 0.06664663 0.07436181 0.21719225 -0.010751539 -0.2027173
-0.0979068 -0.005973825 -0.04538623 -0.10449292 0.051759716 0.014748008 0.275103 0.03237853

model.encoder.conv3.bias f4 [8]
00000000: 75d3 1ebe 0d40 883e c334 1fbe d91c 12be
00000010: 627c b53d a3c2 9bbd 5f6c 7f3e 9661 cabd
-0.15510352 0.26611367 -0.15547471 -0.14268817 0.08861615 -0.076054834 0.24943684 -0.09881894

model.decoder.conv1.weight f4 [8, 8, 3, 3]
00000000: c003 f73c 41e1 8f3d d35d 153d bdae b73d
00000010: ffd1 c3bd b818 373e b9dd 83bd ddeb 2c3e
00000020: 3e27 52bb 78c4 a6bd 7949 d43d c3f3 8c3e
00000030: 55a0 1f3e ef1a c2be 224e 1e3d aaa3 8dbe
00000040: 7d8b 8d3d 49af acbe 2e07 a53d 7f1b d43d
00000050: 3cf1 133e 6042 08bd 69cb 3dbe 1b55 9c3d
00000060: 2c5a bebe a00a d83d fd4f 2f3e f2e8 53bc
00000070: a3c1 ffbd d8fe cdbc ea8a 0dbb cc4a 2a3e
00000080: 6e73 36bd be94 36be 20da 13be 9e86 303c
00000090: 2f04 923c 61da 033e 88e8 52b9 541e 4e3e
000000a0: 9d46 e5bd fb0b e5bc 4c04 0f3b bf38 07be
000000b0: 20cd 393d 090d 84bd 5ee7 70bd de27 763d
000000c0: 12bb b33d 3551 cbbd 1b36 933d cd0c 69bd
000000d0: aa90 72be 8939 9bbc 9288 6f3c 708b 123e
000000e0: cc41 f63d 1104 4b3d de52 223e 98c4 123e
000000f0: f46c d03e 468a 5abe 432e 29be 081a 3cbc
00000100: 049d e83b 3d2d 0cbd 7d1d 23be 6bd9 ffbd
00000110: 39a0 d43d cc35 9bbd 6822 abbd 349a 23be
00000120: ffb0 183c 39a0 b93a 2e01 b73d 7ff1 383d
00000130: 5973 a93d 47f8 fb3c d3c8 773d 3b33 a2bd
00000140: 097d 1b3d ae8d 19bd f65b 523d 8743 213e
00000150: 1686 8f3d 41cb 05be 168a 70bd 4533 233e
00000160: 1455 68be 76a0 0b3e 0907 dabd 8694 2f3e
00000170: 3fee 143e 683e 49bd 0298 ff3c e700 0a3e
00000180: 0092 17bd b366 113d 715b 57be 62da 82bd
00000190: e57a babd 9875 823d 1272 183e cc64 56be
000001a0: 6fed 50bd f84e 923d 8ed7 8a3c 2409 13be
000001b0: 8e6b b63d d4ed fabc 4de4 b3bd bc95 d73d
000001c0: 2c6a 2b3e 9ad9 d83d c0c1 2bbb e38b e83d
000001d0: 80d7 053d d709 a93d 3313 943c 0bda 99bd
000001e0: a5bd 54bd 8955 49be 808e 393e 1b51 d5bd
000001f0: 393d 303e baeb c93d d569 e4bd 11e9 5e3d
00000200: 49ea ba3e 7cdb 3c3a f96c a93e a5b4 c1bd
00000210: cc03 b03d 7003 1a3e bc1e 7d3d 1073 99bd
00000220: 2561 99bd 2f81 b23d 71d6 94bd eda1 5cbe
00000230: 5382 8c3c 082f 13bd 3407 b2bd 6584 9abd
00000240: f0ba fbbc cf4c 11bc d06e 72bd 65ed 733e
00000250: 3d78 f8bc 6f5f 35bd 2277 99bc 9f2a bebd
00000260: afc6 343d a7b5 97be 8992 0d3f 7058 973c
00000270: 3a9a 083d a559 96be 8195 753d a4e1 12bd
00000280: a0cb 063d 97a8 49be 34c2 f13d 397e 523d
00000290: 28c2 1d3c 684d 113d 7856 b9bd 69d1 0abd
000002a0: a12d c5bc 9b43 b6bc 9538 02bb 926e f3bd
000002b0: 1090 e2bd 396f 103d 7f24 fa3d 4e4c afbe
000002c0: 7be3 a7bc dc00 403e 7806 8e3c f844 dd3d
000002d0: 46c4 a63d 50d6 58be 96c9 cebd de6b 75bd
000002e0: f109 973d db4a bb3d 4464 723d 4fac 173b
000002f0: cc65 5d3b 2e96 6e3d 9134 1ebe a9e0 9a3d
00000300: 4c2f 2dbe 2ee1 3cbd 3396 2c3e 0662 9f3d
00000310: f080 103e 97f7 ae3c ccf0 9cbf 5193 a5bd
00000320: f323 ffbd c6c4 e03d a36c 223e 8e30 993e
00000330: 708c 03bc fc95 2ebd eef9 0b3f 7c05 09bd
00000340: 6ee9 4c3e 8596 843d c921 c6bd 7f70 c8be
00000350: d544 58bb c5f5 9fbd ce37 1e3e fad6 8dbd
00000360: e110 913c 1e93 06be 8a44 963d 26b8 94bb
00000370: 764f 973e dc4e 6ebd a063 f1bc 2ce6 6ebc
00000380: 31eb 64bc fadf dcbc 62bd 27bd 3147 343d
00000390: 9bcc a2bc aa2d 1a3e e292 e5bb cc65 0fb9
000003a0: 0366 ddbd 5deb a03c df3f a63c b586 c8bc
000003b0: 53fe a2bd 284e 47bb 085a 9a3e 8a01 e83c
000003c0: 8fb9 e93b fcb5 32bd 9d6b cc3c ada9 d23d
000003d0: 00c8 83bd 746f 8b3b f0b3 c1bd 98d1 14be
000003e0: 80b2 a23c 747f 093d 42f3 4cbd 677d 2bbc
000003f0: db93 aabc d807 d63d dff9 cabc 5c88 cb3d
0.030153155 0.07025386 0.03646643 0.089688756 -0.09561538 0.17880523 -0.064387746 0.1688685
-0.0032066847 -0.08142942 0.10365576 0.27529725 0.15588506 -0.37911174 0.038648732 -0.27663928
0.06911371 -0.33727482 0.0805801 0.10356807 0.14447492 -0.033266425 -0.18534626 0.0763342
-0.3717817 0.105489016 0.17120357 -0.012933956 -0.12488105 -0.025145933 -0.0021597692 0.16630095
-0.044543676 -0.17830178 -0.14438677 0.010774283 0.01782426 0.12876274 -0.00020113785 0.20128757
-0.11195109 -0.027959814 0.002182263 -0.1320524 0.045361638 -0.06447799 -0.0588144 0.060096614
0.08775915 -0.099275984 0.07188054 -0.056896973 -0.23687997 -0.018948333 0.014619963 0.14311004
0.120242685 0.049564425 0.15851924 0.14332807 0.40708125 -0.2134181 -0.16521554 -0.011480816
0.007098796 -0.03422283 -0.15929218 -0.12492641 0.103821225 -0.0757862 -0.08356172 -0.15976793
0.009319543 0.001416213 0.08935772 0.045152184 0.08273954 0.030758036 0.060494255 -0.07919928
0.03796104 -0.037488632 0.051357232 0.15748416 0.07007997 -0.13065816 -0.05872544 0.15937527
-0.22688705 0.1363543 -0.10645873 0.17146501 0.14544009 -0.04913178 0.031200413 0.13476907
-0.03700447 0.035498332 -0.21030976 -0.063893095 -0.091054715 0.063700855 0.14887264 -0.20936888
-0.051007684 0.07143968 0.016948488 -0.14358956 0.08907233 -0.030630983 -0.08783779 0.105266064
0.1673972 0.10588379 -0.0026208013 0.11354806 0.03267622 0.0825383 0.018075561 -0.075122915
-0.05193867 -0.19661535 0.18120766 -0.1041586 0.17210855 0.098594144 -0.11152998 0.05442149
0.3650687 0.00072043366 0.33090952 -0.09458283 0.08594474 0.15040374 0.06179689 -0.074926496
-0.07489232 0.08716046 -0.07267464 -0.21546145 0.017151987 -0.035933524 -0.0869278 -0.075447835
-0.030728787 -0.00886841 -0.05918771 0.23821028 -0.030330772 -0.044280466 -0.018733565 -0.09285473
0.044134792 -0.29630777 0.5530172 0.018474787 0.033350207 -0.29365268 0.05995703 -0.03585972
0.032909036 -0.19693218 0.118046194 0.051389907 0.00962881 0.03547421 -0.09049696 -0.033891115
-0.02406961 -0.022249034 -0.0019870151 -0.11886324 -0.11062634 0.03526232 0.12213992 -0.34237903
-0.020494213 0.18750328 0.017337069 0.1080417 0.08142905 -0.21175504 -0.10097043 -0.059917323
0.07374943 0.09145137 0.059177652 0.0023143475 0.00337826 0.05824869 -0.1544974 0.07562382
-0.16912574 -0.046113186 0.16854171 0.07782368 0.14111686 0.021358294 -1.2260985 -0.08084739
-0.12458029 0.109750316 0.15861754 0.29919857 -0.008029088 -0.042623505 0.5467824 -0.033452496
0.20010921 0.06474022 -0.09674413 -0.39148328 -0.0033000011 -0.07810549 0.15450975 -0.06925769
0.017708244 -0.13142058 0.073372915 -0.0045385538 0.2955281 -0.058180675 -0.02946645 -0.014581244
-0.01397209 -0.02696227 -0.040952094 0.044013206 -0.019872954 0.15056482 -0.007006035 -0.00013675465
-0.10810473 0.01964348 0.020294128 -0.024478296 -0.07958665 -0.0030411575 0.30146813 0.028321046
0.007132716 -0.043630585 0.024953658 0.10286269 -0.06434631 0.0042552296 -0.094581485 -0.14533079
0.019860506 0.033568814 -0.050036676 -0.01046691 -0.020822456 0.10450715 -0.024777351 0.09938118

model.decoder.conv1.bias f4 [8]
00000000: 884d 863e 055d 0c3e 88ee 4c3e e269 d3bd
00000010: 5c2f 663e ea14 4e3e 3db2 be3e b1f6 52bd
0.26231027 0.13707359 0.20012867 -0.1032293 0.22479004 0.20125166 0.3724536 -0.051504795

model.decoder.conv2.weight f4 [8, 8, 3, 3]
00000000: 6730 413d 61b0 503d 1960 c93e b671 a73d
00000010: 909d 89bc 43ae 9cbd 52b1 0ebe f9ac ce3d
00000020: ee65 6dbc a309 c0bc 41db 7bbd 8030 31bc
00000030: def7 193e 5780 693e 5fa0 36bd 3ca2 04be
00000040: d8e4 673d 95aa 19be 495d 87bd 614c c23d
00000050: a4d8 1abd 9557 323e 9259 82bd 24f7 67bc
00000060: 10b3 d03d 71e3 05be 92c8 203e 9e90 0dbd
00000070: 932b 8bbd 3c85 9d3d 2da0 913d f799 0dbd
00000080: b332 80bd 02a9 37bc bb8b 113d 9916 233e
00000090: f37d 9abd cf5a d73c 121c c6bc 4766 a43d
000000a0: 4969 2abd 1153 9f3d 280b 3cbd 2240 093d
000000b0: 8238 0cbe fa2b 173c e36a 8a3b e8f6 363e
000000c0: 2329 be3e e163 313e 20dc 1dbd 22f5 2bbe
000000d0: 5b62 7bbd 2c89 62bd 2230 2dbd d860 373e
000000e0: 532a 6bbd 848a 113e e04c c83d 19fc a2bd
000000f0: 5b8f 61bd 95de 31bd 9062 9ebd 52fa f53d
00000100: 8d25 793d 79c0 31be 9f08 c33e 112f 4e3e
00000110: ff96 7bbd 442f 1abd 0f4c 873e 5b68 2fbe
00000120: 7cc1 ac3d 972d ec3d 472c 653e a062 b53a
00000130: 61a9 53bd 6532 6c3d d0a9 153e 0fd5 223e
00000140: 469b 85bb 5737 febb cbdb 373d 36f7 203c
00000150: c838 26be 563e a43d 73b8 8c3d a228 223e
00000160: 0377 853d 3e9e 93bd 337d 2fbe 2095 e3bb
00000170: 252a 10bb 4283 833d c1ee 28be 604e 40be
00000180: 8b89 2b3e ee32 b6bd f892 42be 62cf ce3d
00000190: 2843 85bc b220 0a3d e140 03be 2eb7 31be
000001a0: 5039 513d 55e1 8cbd 0763 a3bd 747f c23d
000001b0: 0db4 45be 912e 483c d6e6 d53d 96aa d0bd
000001c0: ee3f acba 717f 06bd 33e9 2d3e 4876 563c
000001d0: 83bc d23b 6648 013e 221f 4b3d 00ce 7f3e
000001e0: 8106 703e a8e4 16be 0216 a7be 96f7 293a
000001f0: 2702 45bd 0417 66bc 1a0f 943e abeb 5e3e
00000200: c467 42be ac60 cc3e 1525 9a3e 2f7f ab3d
00000210: 7451 0d3d 3599 1bbd 0fca a03d 5377 573d
00000220: 9237 a53d 9609 78bd fbb8 203e 5088 6a3d
00000230: d6b3 893d 4281 af3d 02ca 58be d150 3e3d
00000240: 8770 c73d c96b cfbd adb3 bb3c 607a 8f3c
00000250: 7ff0 1d3e 224a 2fbd 6ceb 583d 4f34 54be
00000260: 36df 703a 87c8 12be 5a48 b7bc f801 c73d
00000270: 4554 ce3d 1fe7 0a3e c5a0 b8bd 53d2 cbbd
00000280: cccd bbbc 1339 ca3d 0669 933d 8f21 a5bc
00000290: ff57 293d ed08 febd cb1e 783c 2428 343e
000002a0: 3de5 3dbd 36ce 33be cb3d adbe 31d7 b83c
000002b0: ab60 51bd 22aa aa3d 2900 ba3c d39c 953d
000002c0: 40aa 913d d32b bf3b 64bb fa3d 9896 ed3d
000002d0: f083 a03d e3e7 96bd ef89 a8bd d43a 6a3d
000002e0: 3497 1b3e ad26 af3a eb02 89bd 16a9 42bd
000002f0: 0e76 00bd 79c3 913d c0b3 4b3e 4783 a5bb
00000300: 4fe1 343e 0cf9 a7bd ecf5 d9bb babc c73d
00000310: 4e90 40bd 20c1 2a3e a6e2 8c3d 3b27 6fbe
00000320: b899 a43d 09ac 13bd a6e8 30be bbc3 323d
00000330: 9428 ba3d 5e61 da3c 1353 4dbc 1981 7a3d
00000340: 5612 613e fbba 36bd 09e1 33be 915b 44bc
00000350: e72f 8a3b 7ac5 393e f9e7 b43d 1098 843d
00000360: 5c7f 14be 70a6 afbe 0726 b53d b531 c63d
00000370: fd2f 243e 9218 cfbd 3d14 513d ef82 0d3e
00000380: 1f62 253b 21ac 653e 3416 25bd e942 50bd
00000390: 0250 cbbc 0ffc de3d 2943 f83c c1e7 a03d
000003a0: 6926 e43c ee18 e53d f800 9c3d e28c 59bd
000003b0: 2475 02bd ac83 403e 94d0 1cbd 2aa9 3c3c
000003c0: f4a2 27be a225 993b 1061 23bd 5859 adbd
000003d0: a0d8 15be a2ff 23bd 7625 17be a58b 71bd
000003e0: d830 523d f076 c93d 59d6 9f3d 5e7a 143c
000003f0: a203 8cbe 7013 cb3d 7ffa 9c3d 9a31 c53d
0.0471653 0.050949458 0.3933113 0.081759855 -0.016798764 -0.07650425 -0.1393483 0.10091586
-0.014489634 -0.023442095 -0.061488394 -0.010814786 0.1503596 0.22802864 -0.044586536 -0.12952513
0.056614727 -0.15006478 -0.066095896 0.09487224 -0.03780426 0.17416222 -0.063647404 -0.014158044
0.101904035 -0.13075043 0.15701512 -0.034561746 -0.067954205 0.07691428 0.07110629 -0.03457066
-0.0625967 -0.011209728 0.035533648 0.15926589 -0.07543554 0.026288418 -0.024183307 0.0802732
-0.041604314 0.077795155 -0.045909077 0.033508427 -0.13693431 0.009226793 0.0042241677 0.17867625
0.3714076 0.17323257 -0.038540006 -0.1679273 -0.061373096 -0.0553066 -0.04228223 0.17908037
-0.05741341 0.14212996 0.09780288 -0.0795824 -0.055068355 -0.04342516 -0.07733643 0.120106354
0.060826827 -0.17358579 0.38092515 0.20135142 -0.061423298 -0.037642732 0.26425216 -0.17129652
0.08435342 0.11532133 0.22380172 0.0013838597 -0.051675204 0.057665247 0.1461556 0.15901588
-0.004077348 -0.007758062 0.044887345 0.009824565 -0.16232598 0.08019702 0.068711184 0.15835813
0.0651684 -0.07207917 -0.17137603 -0.0069452673 -0.0021997776 0.0642152 -0.16497327 -0.18779898
0.16751687 -0.08896433 -0.19001377 0.10098149 -0.016267374 0.033722587 -0.12817718 -0.17355034
0.051080048 -0.06878916 -0.07977872 0.09496966 -0.19306965 0.012218134 0.10444419 -0.10188787
-0.0013141611 -0.03283638 0.1698349 0.013089724 0.0064311638 0.12625274 0.049590237 0.24980927
0.23439981 -0.14735663 -0.32633978 0.00064837316 -0.048097756 -0.014043573 0.28917772 0.21769588
-0.18984896 0.39917505 0.30106416 0.08373868 0.034501508 -0.037987906 0.078510396 0.05260403
0.0806724 -0.060556017 0.15695564 0.057258904 0.06723754 0.08569576 -0.2117081 0.04646379
0.0973826 -0.1012798 0.022912825 0.017514408 0.15423773 -0.042795308 0.05295889 -0.20723079
0.00091885345 -0.14334308 -0.022373367 0.097171724 0.10074667 0.13564728 -0.09015039 -0.099522255
-0.02292528 0.09874167 0.07197766 -0.020157604 0.041343685 -0.12404046 0.01514406 0.17593437
-0.046361197 -0.17559132 -0.33836207 0.022563549 -0.05111758 0.083332315 0.022705154 0.073053025
0.07112551 0.0058340817 0.12242773 0.11600989 0.07837665 -0.07368448 -0.08229434 0.05718501
0.15194398 0.0013362967 -0.0669001 -0.047524534 -0.031362586 0.071173616 0.19892788 -0.00505105
0.17664073 -0.08201799 -0.0066516306 0.097527936 -0.04701262 0.16675234 0.06879167 -0.23354809
0.08037132 -0.036052737 -0.17276248 0.043643694 0.09089771 0.026657756 -0.0125320135 0.061158273
0.21979651 -0.044611912 -0.17566313 -0.011984722 0.004217136 0.18141738 0.08833308 0.06474316
-0.14501709 -0.3430667 0.08845144 0.096774496 0.16033931 -0.10112108 0.05104469 0.13819478
0.0025235487 0.22428943 -0.040304378 -0.05084506 -0.024818424 0.1088792 0.030305462 0.078567035
0.027850347 0.111863956 0.07617372 -0.053112872 -0.031849995 0.18800229 -0.038284853 0.011514941
-0.16370755 0.0046736756 -0.039887488 -0.084643066 -0.14633417 -0.040038712 -0.14760384 -0.058971066
0.051316112 0.09837139 0.078045554 0.009062378 -0.27346522 0.09915817 0.07664966 0.09628601

model.decoder.conv2.bias f4 [8]
00000000: 4d41 1ebe 1679 2f3e 73f8 9ebe 96e9 3c3e
00000010: 87e7 0f3e 7ece 87be 473b 2c3d fcad 88bd
-0.15454598 0.17136034 -0.31048927 0.18448481 0.14053164 -0.2652473 0.04204872 -0.0667381

model.decoder.conv3.weight f4 [16, 8, 3, 3]
00000000: 1b68 d83d 1c08 143e bb7e 9d3e ec46 94bb
00000010: c8fa a5bd a1c4 d63d 9cdb 18be f986 2cbe
00000020: eb48 3f3d 5e6d 853e a9f3 053f 67cf 673f
00000030: 4c21 13be f1fa f63d e343 8c3e 003b b0be
00000040: 4ef8 85be 0593 893e fb20 cebb a35d 813d
00000050: db79 2e3d ad0e de3d a6ef 813d ba16 233e
00000060: 8884 c7bd 7c4c 23be e4bb 673d 3f31 cebd
00000070: fd85 6dbe 5954 8b3b 46b2 cebd ab44 babd
00000080: 74d1 d23d 7c50 2abd 9987 82bd c397 0c3e
00000090: e9b0 9f3d b9b9 0c3e 9675 d6bd 5810 36bd
000000a0: c86c 27be a7e0 a3be 9faa e13d aded 59bb
000000b0: cc38 fd3d dcf5 3fbe 4862 db3d 405f a33e
000000c0: a068 06bf d6af c1be 5978 bdbe b3c6 62bc
000000d0: 5a5c 20be 465d 25bf d1a9 213e cc98 8dbd
000000e0: 93c2 acbd f289 5b3e 561d afbe c487 e3be
000000f0: 4054 193e 2e27 38be cc24 3dbe ff6d 01be
00000100: d812 933e 6fd6 f83d 443d 383e d34b 413e
00000110: 4a2c 9cba 008f 62bf 70c8 58be 6bb3 bbbe
00000120: b5de 14be ba25 6dbc 0595 2fbb 0ee2 3f3e
00000130: 5489 fc3c fd48 3a3e 4444 6bbe 983f 28bd
00000140: c283 033e c8a2 963d 1033 853e 774a 643e
00000150: e3de 94be 4d12 25be b62a 75bd ebbf 42be
00000160: 614b b6be e4c0 e3be f311 0c3c 234f e7bd
00000170: 6c8a 8abe e1ae b5bd 4e66 c13d 4729 c73d
00000180: ee39 7f3d 053b 023e bbcd 593d ef98 223e
00000190: 1d79 373d 78cf 4e3d a538 963d 999e 953c
000001a0: e73d 953d 6b7b 99bd 68b3 3abe 0ac2 5dbe
000001b0: 2971 283e ca83 2a3e 54e4 223e a0b1 de3c
000001c0: f9ca ccbc 5dd7 f23d 60c1 8dbe 1e1e 15be
000001d0: 50b3 14be cb87 b2bc 28d9 863d db81 313d
000001e0: 0f42 813d 7095 673e 63de 5f3e cf65 c2bd
000001f0: 8477 103e 0be7 293e c339 083e 3e1b 9f3d
00000200: 16ee 373c 8d3f 7bbd 13c3 c93d 9f13 97bd
00000210: 860d 803c f44c 2a3d 418a 953d 82d5 1ebd
00000220: 3604 c53d b09a d53d 429c 9cbd bbfd 913e
00000230: d3e9 8a3e 3493 91be e620 783e 831d 8ebd
00000240: e766 6d3c c457 76be e2f4 423e e9cc 6ebe
00000250: 6b99 03be 0594 7f3e 6de2 283d 8f39 c73d
00000260: b8cb 5e3d 74e6 663e d492 c53e e4f7 513f
00000270: 00ee fdbe b30f d0be a64b f43e 0102 dbbe
00000280: 8093 0fbf 50f6 dbbe 83fe 373e 936b cbbc
00000290: 8d66 3b3e 93d9 aa3d bb49 f13d 27c1 7d3d
000002a0: f7ac da3c d69d c9bd 56c6 223c 1716 983b
000002b0: 23b6 95bd b09a a5bb aaab 6d3e 562f ccbd
000002c0: 4668 96bd 8848 773d 1596 96bc ecd0 1fbd
000002d0: a219 873c e8fe fd3d 94a5 0d3e e8ee 51be
000002e0: d4e4 bbbd 1a3f adbd 9338 4ebe e54e 03be
000002f0: df0a 9a3d 1953 7a3e 1a98 89be 93b9 823d
00000300: a093 2f3e 5256 91be 9dcf 19be 3a5a 913d
00000310: 1b31 2f3e 4920 f5bc 832c 0b3e 6c60 b03d
00000320: 25d6 21be c631 dbbe 8c50 9e3d b89d 0abe
00000330: f3d1 c63d 127d 033e d391 a13d 8106 59be
00000340: 1187 703d 34c1 b13c 24f6 a5be d335 eb3e
00000350: 5ad2 7a3e 1b98 6dbf e0a6 8dbc 1610 9ebe
00000360: 608c 28bd f037 073e fd40 c43c 6b11 1f3e
00000370: 1d47 e73c 8e6f 46bd 7a49 153d 96ec 5b3d
00000380: 2bf0 ac3d 124a 9b3e b1f8 673e f152 633d
00000390: 93c6 823e 6e86 8d3e d16f 153e ef4f a03d
000003a0: b931 4f3e 90f3 0e3d 0eee 5a3c 8251 4a3d
000003b0: 6feb babd 3f80 67bd 9e15 893d 1824 3ebd
000003c0: 0972 02bc bc32 533d 0bb5 f53c aea9 1abe
000003d0: 352d 2a3e 6ca4 99bc 5912 05be 0ed1 093d
000003e0: bc64 9c3d a282 2dbd 216e b63d 7523 853c
000003f0: bceb 1ebe 2914 c8bd 589f cbbd 3098 03be
0.105667315 0.14456218 0.3076075 -0.004525056 -0.08104473 0.10486723 -0.14927524 -0.16848363
0.0467004 0.26060003 0.5232492 0.90550846 -0.1436817 0.12059582 0.27395543 -0.34420013
-0.26166004 0.2686998 -0.0062905527 0.06316688 0.04259668 0.10842643 0.063445374 0.15926638
-0.09742075 -0.15947145 0.05657567 -0.10067987 -0.23195644 0.0042519984 -0.10092597 -0.090951286
0.10293856 -0.041580662 -0.063735195 0.13729768 0.07797415 0.13742723 -0.104716465 -0.04444918
-0.1635009 -0.32007334 0.110188715 -0.0033253238 0.12364349 -0.18746132 0.10712105 0.31908607
-0.52503395 -0.37829465 -0.3700588 -0.013841319 -0.1566023 -0.6459545 0.15787436 -0.06913909
-0.084355496 0.2143934 -0.3420207 -0.44439518 0.14973545 -0.17983696 -0.18471068 -0.12639616
0.28725314 0.12150275 0.17992121 0.18876581 -0.0011915055 -0.8849945 -0.21170211 -0.36660323
-0.14538081 -0.014474327 -0.0026791703 0.18738577 0.030827202 0.18191905 -0.2297526 -0.041076273
0.1284323 0.07355267 0.2601552 0.22294031 -0.290763 -0.16120262 -0.059855185 -0.19018523
-0.35604385 -0.444831 0.008549201 -0.11294391 -0.27058733 -0.08871246 0.09443341 0.0972467
0.062311105 0.12717827 0.053174715 0.15878652 0.044793237 0.050490826 0.07335023 0.018264102
0.072871976 -0.07494243 -0.182325 -0.21656051 0.16449417 0.16651836 0.15907413 0.027184308
-0.024999129 0.118574835 -0.27686596 -0.1456227 -0.14521527 -0.021793267 0.06584388 0.04333673
0.06311428 0.226156 0.21862178 -0.09492075 0.14108092 0.16592042 0.13303284 0.07768868
0.011226198 -0.061339904 0.098516606 -0.07376789 0.015631448 0.041577294 0.073017605 -0.038777836
0.09619944 0.10429895 -0.07646991 0.28513893 0.2713152 -0.2843262 0.242313 -0.06939223
0.014489866 -0.24056917 0.19038728 -0.23320355 -0.12851493 0.24958809 0.04123156 0.09727775
0.0543935 0.22548848 0.38588583 0.82018876 -0.49595642 -0.40636978 0.47713965 -0.42774966
-0.5608444 -0.4296136 0.17968182 -0.024831569 0.18300839 0.0834228 0.11781641 0.061951783
0.026693804 -0.09844558 0.009934982 0.004641305 -0.073101304 -0.0050538406 0.23210016 -0.09969966
-0.07344107 0.060371906 -0.018382112 -0.039017603 0.016491715 0.12402135 0.13832694 -0.20501292
-0.09174505 -0.08459301 -0.20138769 -0.12823065 0.07521605 0.24445762 -0.26873857 0.06383052
0.17146158 -0.2838617 -0.15020604 0.070972875 0.17108576 -0.029922621 0.13591199 0.08612141
-0.15804346 -0.42811412 0.07730207 -0.13536727 0.097080134 0.1284068 0.07889142 -0.21193887
0.05872256 0.021698572 -0.32414353 0.45939502 0.24494305 -0.9281022 -0.017291486 -0.30871648
-0.041149497 0.13204932 0.02395677 0.15533988 0.028232152 -0.04844623 0.036447026 0.053692423
0.08444246 0.3032995 0.22653462 0.05549902 0.25542125 0.27641624 0.14593436 0.07827746
0.20233811 0.034900248 0.013362421 0.04939414 -0.09126937 -0.05651879 0.06693576 -0.04642114
-0.007961758 0.051562056 0.029993555 -0.1510379 0.16618808 -0.01875516 -0.1299528 0.033646636
0.07636401 -0.04236091 0.08907724 0.016252259 -0.15519613 -0.0976947 -0.09942502 -0.12851024

model.decoder.conv3.bias f4 [16]
00000000: 3e00 263d d374 773d cce4 803e 3a22 893e
00000010: d4bb 2ebc c52c d4bd d3e6 133f 9304 b33d
00000020: 193c 09bf a8e7 0abf 3e92 953e 3857 d8be
00000030: 591d ca3e 2379 313d 5da5 893d af3f 423e
0.040527575 0.060414147 0.25174558 0.26783925 -0.010664899 -0.103601016 0.57774085 0.08741107
-0.53607327 -0.5425973 0.29213136 -0.42254043 0.39475515 0.043328416 0.06720994 0.18969606

model.decoder.conv4.weight f4 [1, 16, 3, 3]
00000000: 2fe6 9a3d aa7a 803e a534 893e 0829 033d
00000010: f2aa b03d a239 a93d dd9a 963e c79e 773e
00000020: dcfe bf3d cbe5 0fbe 00b9 aebd d876 c4bd
00000030: 8f0c 75be 606e b3be 7b26 21be 3a01 53bd
00000040: 7f1f dcbd cb75 46bd a728 00be 8bb2 96bd
00000050: d3b1 333c 4724 12be 47a6 0cbd be6d f23c
00000060: 1668 25be cc6a 8abe d6cc 6fbe 46d7 02bc
00000070: 03a0 75be 4bc2 83bd f4b7 d7bc 11c3 93be
00000080: 40ed b6ba 3db7 89bd 531f 0cbe 19b8 a4bd
00000090: 2ceb 023e 8686 d53d ed01 0ebd 305e 1dbd
000000a0: 97f6 13be e75b 25be 9ec7 4bbd 111d a0bd
000000b0: b14c 89bc eccd b13d f42b 913d a135 eebd
000000c0: 3292 533e 3f6c 5e3e b653 4c3e 1699 673e
000000d0: 2e4c 803e ff10 493e 2415 943c cba3 84be
000000e0: 81a7 59be 7f05 39be c0b8 febe cdaf ddbe
000000f0: ccc6 b2be 27d7 f6be 2cbf 52bd 840a 29be
00000100: 46ef 86be 7202 27be a707 eebc 7987 1abe
00000110: 3a71 4dbe 8797 a23d 7a31 f5bd 3b2d 82bc
00000120: fd24 413e 5b2e 863e 6b04 86bb 3496 883e
00000130: b0f2 a33e a386 8e3d 49c0 713e cd49 e63d
00000140: 2928 25be eb03 6e3e 7030 8d3e 2b38 693e
00000150: fad8 513e 8964 663e d0f4 653e ad86 863e
00000160: 2e2b 943e ae5f 883e 853c ce3d 5cff 84be
00000170: 1b94 bebe 28ee 36be e639 fcbe 3fe8 a4be
00000180: be95 07bf 5e27 03bf 7cb5 763d 617c 803e
00000190: 2d4d 0b3e 83ba 6e3d af69 5d3e 86c3 903d
000001a0: 49db 543d ac78 833e 5787 973d a345 ab3b
000001b0: 8b48 e33c 732d a0be f119 b8be de4c 88be
000001c0: 215c c9be ad49 85be 2b26 84be 5033 51be
000001d0: 31c3 83be b931 4ebe 1050 92be e351 53be
000001e0: 086d 9fbe c210 8ebe c3d8 9dbb 16be 74be
000001f0: 358c 42be 2691 27bd 2c4e 893d 3293 c4bd
00000200: 8ae2 40be 6419 963d 6ba9 f5bd 507c 80be
00000210: 18b2 ea3d 9132 02bd ddaa fbbd c793 6abe
00000220: fcd4 cbbe a86b 4dbe f63a 95be 644b a5be
00000230: 6dee 8fbe 0bc7 1cbe 8698 36bd dabe 89bc
0.07563435 0.25093585 0.26797977 0.032021552 0.08626355 0.08262946 0.29415026 0.24181662
0.093747824 -0.14052503 -0.0853138 -0.0959298 -0.23930572 -0.35045147 -0.15737335 -0.05151484
-0.10748195 -0.04845218 -0.12515508 -0.07358273 0.01096769 -0.14271651 -0.034338262 0.029593345
-0.16152987 -0.27034605 -0.23417982 -0.0079858955 -0.23986821 -0.06433543 -0.026332833 -0.2885976
-0.0013956204 -0.06724403 -0.13683824 -0.08042926 0.12785023 0.10426049 -0.034669805 -0.038419902
-0.14449535 -0.16148339 -0.049750917 -0.07818044 -0.016760202 0.086818546 0.070884615 -0.11631323
0.20661238 0.2172098 0.19953808 0.22616991 0.2505812 0.1963539 0.018076487 -0.25906214
-0.21255304 -0.18068503 -0.49750328 -0.43298188 -0.34917295 -0.48211023 -0.051451847 -0.16507918
-0.26354426 -0.16309527 -0.029056383 -0.15090741 -0.20062724 0.07939058 -0.119723275 -0.015890708
0.18861766 0.2620724 -0.004089882 0.26677096 0.32021093 0.06959274 0.23608507 0.11244545
-0.16128601 0.23243682 0.27576017 0.22775333 0.20492926 0.22499289 0.2245667 0.26274624
0.28939193 0.26635498 0.10070137 -0.25976074 -0.3722237 -0.17864287 -0.49262923 -0.3220844
-0.52962863 -0.51231945 0.06023167 0.25094894 0.13603659 0.05828334 0.21622346 0.07068543
0.05196694 0.25678003 0.07398861 0.005226807 0.027744552 -0.31284675 -0.35957292 -0.26621145
-0.393281 -0.26032773 -0.2581037 -0.2042973 -0.25734857 -0.20136155 -0.28576708 -0.20636706
-0.31137872 -0.2774716 -0.0048171 -0.23900637 -0.18998797 -0.04090991 0.06704363 -0.09598388
-0.18836418 0.073290616 -0.119952045 -0.25094843 0.1145975 -0.031786505 -0.12288449 -0.22907935
-0.39810932 -0.20060599 -0.29146546 -0.3228408 -0.28111592 -0.15310304 -0.04457905 -0.016814638

exp_avg f4 [16, 1, 3, 3]
00000000: 3fac 45b8 5f88 cab8 6b07 fbb7 faf2 3cb8
00000010: 2d66 ccb7 d28a ee36 d56c a8b7 ea2c 3037
00000020: ff82 1f35 1493 bbb8 030c 9cb8 8f75 6fb8
00000030: 0682 89b8 7e86 30b8 928b 88b8 dc68 60b8
00000040: 858f 22b8 9a85 67b8 0568 b4b6 ec46 2f38
00000050: 136b 0838 8a62 9e37 f41a 5b38 bda9 7238
00000060: 0cb9 e837 16f6 fb37 8b4c 1438 60b3 39b8
00000070: c121 33b8 f1cc 00b8 f355 f7b6 2310 0cb6
00000080: 7f33 16b8 dbf5 0838 199f 9837 141d ce36
00000090: 1f1a adb8 a47a 2cb8 7c66 f3b7 d71e 20b8
000000a0: 7d2e 7eb7 3f4f 05b7 7658 0337 50cb 9b37
000000b0: 32d5 0836 f8bf aa37 c0b3 3338 1fe7 c637
000000c0: 9f42 d237 a4f7 5eb7 c074 b9b7 0e18 97b6
000000d0: a44d 17b8 f9e5 12b8 b053 42b9 12f8 37b9
000000e0: f17c 15b9 0698 84b7 9825 d2b8 d444 bfb8
000000f0: 7f2e bdb7 279e 54b8 eb8d 94b7 5a0f 18b8
00000100: deeb b8b7 b559 f536 83af c736 c463 1538
00000110: 035f 5338 248e ce37 9126 0638 da1f 5138
00000120: 457d a3b5 f1c3 8ab6 a5bb 3f36 ada7 a337
00000130: 7acf 5d38 d820 b338 07cd a138 465f 6038
00000140: 8497 9a38 351a 8136 436f 6ab6 5c1f c136
00000150: 9443 9937 2557 8a34 d1b4 5936 52cc 6b36
00000160: c7d3 edb7 ffcd db36 64a4 dc36 2176 8037
00000170: 868f 6bb6 6c31 cb37 1580 f7b4 3a88 c7b6
00000180: 7e4e c537 c9dd 23b7 f8ca cab5 2151 02b9
00000190: cb30 f9b8 64fa 7fb8 2387 81b8 620a 4bb8
000001a0: ecdb 8cb7 bc56 24b8 bea7 b4b6 fec2 74b5
000001b0: d8fa 5736 c183 89b6 3798 2cb8 7ef1 fc36
000001c0: e6cc e535 de53 e6b6 4947 9138 9782 3238
000001d0: ed4b 9936 42a3 9438 7e84 8a38 f3a3 e037
000001e0: 279f 1638 29dd 0f38 d369 c637 40de b637
000001f0: 4fa5 1e38 5048 7d37 527c 94b8 c749 87b8
00000200: e909 5db8 c02d 53b6 00d3 f1b8 02d8 be37
00000210: e73e 2ab8 6959 2237 ed1d cf38 094c 04b9
00000220: 9f86 f5b8 721e 07b9 81ec d1b8 f972 f5b8
00000230: ff14 d4b8 95db deb8 7f59 9fb8 8f93 4fb8
-4.7128877e-05 -9.657512e-05 -2.9924986e-05 -4.5048982e-05 -2.4366274e-05 7.1091135e-06 -2.007784e-05 1.0500875e-05
5.942274e-07 -8.94425e-05 -7.440897e-05 -5.7091525e-05 -6.556888e-05 -4.2086926e-05 -6.510982e-05 -5.350342e-05
-3.8757473e-05 -5.5199118e-05 -5.3765275e-06 4.1789302e-05 3.2524647e-05 1.8880954e-05 5.223877e-05 5.7855377e-05
2.7742724e-05 3.0036124e-05 3.5357236e-05 -4.4274493e-05 -4.270836e-05 -3.0708445e-05 -7.3711794e-06 -2.0871018e-06
-3.5810746e-05 3.2653898e-05 1.8193898e-05 6.1426636e-06 -8.254148e-05 -4.1122214e-05 -2.901558e-05 -3.8175694e-05
-1.5150404e-05 -7.945869e-06 7.828805e-06 1.8572115e-05 2.0389675e-06 2.0354972e-05 4.284433e-05 2.3711063e-05
2.5064974e-05 -1.32898895e-05 -2.2108085e-05 -4.502951e-06 -3.6073514e-05 -3.502329e-05 -0.00018532458 -0.00017544653
-0.00014256292 -1.5806418e-05 -0.00010020583 -9.12041e-05 -2.2552207e-05 -5.069203e-05 -1.770906e-05 -3.625392e-05
-2.2044343e-05 7.3120123e-06 5.9510944e-06 3.5617282e-05 5.0394807e-05 2.4623303e-05 3.1984007e-05 4.9859147e-05
-1.2180905e-06 -4.135531e-06 2.8570441e-06 1.9509194e-05 5.2883734e-05 8.541503e-05 7.7152676e-05 5.3494492e-05
7.371514e-05 3.8475505e-06 -3.493348e-06 5.755499e-06 1.827049e-05 2.576791e-07 3.2440769e-06 3.513666e-06
-2.8351218e-05 6.5506897e-06 6.5756485e-06 1.5313797e-05 -3.510127e-06 2.42225e-05 -4.6100527e-07 -5.946521e-06
2.352078e-05 -9.7671955e-06 -1.5109244e-06 -0.00012427989 -0.00011882334 -6.1029932e-05 -6.1763705e-05 -4.840864e-05
-1.679171e-05 -3.9181425e-05 -5.383946e-06 -9.1180834e-07 3.2183507e-06 -4.0982563e-06 -4.1149757e-05 7.5382986e-06
1.7121463e-06 -6.8642976e-06 6.927417e-05 4.256013e-05 4.5685942e-06 7.087599e-05 6.6050314e-05 2.6779226e-05
3.591101e-05 3.429983e-05 2.3652718e-05 2.1799584e-05 3.782409e-05 1.5096812e-05 -7.0803464e-05 -6.451044e-05
-5.2699736e-05 -3.146808e-06 -0.00011531077 2.2750351e-05 -4.058974e-05 9.67677e-06 9.876103e-05 -0.00012616826
-0.000117075855 -0.00012885945 -0.00010009949 -0.00011703926 -0.000101128586 -0.00010626685 -7.598381e-05 -4.949007e-05

exp_avg_sq f4 [16, 1, 3, 3]
00000000: 9b36 7735 122e 9134 d4ac 4133 4ad0 4535
00000010: 56d9 1e34 4dae 4032 c3d7 b834 1716 7233
00000020: edcc a230 aedf 0736 f65c 1b36 9bd4 0936
00000030: 575c ea35 a275 e135 8b07 a935 fac6 0436
00000040: 3915 e535 f93d d335 9221 1f34 1a5b 9f34
00000050: e00b 1535 16e6 9433 44ce 7334 e52c 0635
00000060: bc7c bd33 ffff 9334 2ac6 0735 188e ed34
00000070: cedf 7633 13ad f533 3dda 7435 9905 1134
00000080: c39c 5c34 21ee 8435 f70e d033 6361 f832
00000090: c28a 0635 c36a 8e34 4bf2 a334 abd4 e234
000000a0: 52a7 7434 db88 c734 9a6c 9234 5f0e 6834
000000b0: 1fe1 bb34 ec39 4434 960b 5c34 a608 3135
000000c0: 2d09 f034 d81f 3735 b918 c635 b877 9435
000000d0: dfb6 ca35 d853 ef35 fd52 4336 cccc 5436
000000e0: 04fd ae36 d8ce a736 09b8 b036 bbfb 0037
000000f0: 2106 8d36 cbd4 b036 2965 0137 1de7 fb33
00000100: b4c4 cc33 4c21 b333 964b b233 3ff8 4433
00000110: a890 5d33 52eb 1533 a625 ac32 450e f232
00000120: 549f 2d35 88ed c434 0aad 2934 803f 4135
00000130: 8b3a 0a35 d1a4 ca34 6b72 5035 227b 4835
00000140: 7dfd 3235 228b 3a32 e3ae ce32 cd48 4333
00000150: 6c48 be32 27eb 4533 e645 7833 bf8d 0833
00000160: 20bd 4533 8808 6933 9252 6731 2677 1632
00000170: 274b 0f33 6731 4532 3423 af32 f6ee 8233
00000180: 5c1a cd32 667f 3433 590e d433 ebe9 7f36
00000190: 5244 9036 0a72 6236 4699 8336 0947 8d36
000001a0: 8eba 6e36 2361 2836 459c 3936 79aa 1836
000001b0: 6fa5 2831 3377 8b2f 69cc 3733 8cfe 4e32
000001c0: 9003 8232 6ed2 5f34 f496 3234 5975 6f34
000001d0: a695 9c35 b47f 0235 38b5 9934 805e 9634
000001e0: cacc 1735 fea4 d234 2a79 b734 8c2f a434
000001f0: 3aaa 7234 8407 4c34 e18d b036 b5a2 0937
00000200: 3bc0 0c37 dbdb cd36 ff9f 0e37 ed1c 0f37
00000210: 2321 b836 4d25 f036 334a d536 bb0d 0236
00000220: 63cc 2436 1459 2f36 7c7f 0936 64d2 0536
00000230: d170 1136 8898 1136 a8d3 f035 85b3 da35
9.209413e-07 2.7041875e-07 4.50935e-08 7.369132e-07 1.4793963e-07 1.1215502e-08 3.4429658e-07 5.6365106e-08
1.1845295e-09 2.0246766e-06 2.315091e-06 2.0538344e-06 1.7461233e-06 1.6798042e-06 1.2593677e-06 1.9785352e-06
1.7068006e-06 1.5738761e-06 1.4820242e-07 2.9682343e-07 5.5524106e-07 6.9336394e-08 2.2706178e-07 4.998422e-07
8.8236874e-08 2.7567145e-07 5.0579786e-07 4.4248077e-07 5.7479888e-08 1.14401836e-07 9.121466e-07 1.3506214e-07
2.0546126e-07 9.904071e-07 9.688477e-08 2.8915286e-08 5.012081e-07 2.652724e-07 3.0537407e-07 4.2250517e-07
2.2785142e-07 3.7166214e-07 2.7273637e-07 2.1611912e-07 3.4995261e-07 1.8274994e-07 2.0493312e-07 6.5950223e-07
4.471016e-07 6.821915e-07 1.4759345e-06 1.1061702e-06 1.5103395e-06 1.7831289e-06 2.910557e-06 3.170967e-06
5.215059e-06 5.0010676e-06 5.2666333e-06 7.688005e-06 4.202841e-06 5.269981e-06 7.712552e-06 1.17301376e-07
9.53527e-08 8.341394e-08 8.30252e-08 4.5860585e-08 5.1587136e-08 3.490579e-08 2.0040556e-08 2.8178997e-08
6.4679375e-07 3.6680672e-07 1.5802303e-07 7.199051e-07 5.14942e-07 3.7745352e-07 7.765254e-07 7.468499e-07
6.667904e-07 1.085826e-08 2.4061086e-08 4.5468187e-08 2.2151845e-08 4.6081507e-08 5.7805572e-08 3.1793885e-08
4.6039645e-08 5.42573e-08 3.366186e-09 8.75824e-09 3.3363133e-08 1.1478142e-08 2.038869e-08 6.0970635e-08
2.3877128e-08 4.2025384e-08 9.874629e-08 3.813412e-06 4.299488e-06 3.3743004e-06 3.9219476e-06 4.210397e-06
3.5573353e-06 2.5090492e-06 2.765811e-06 2.2748993e-06 2.4541256e-09 2.536865e-10 4.2793918e-08 1.2048655e-08
1.5135612e-08 2.0845047e-07 1.6632458e-07 2.23013e-07 1.1666459e-06 4.8614606e-07 2.8630325e-07 2.8008435e-07
5.654989e-07 3.9235596e-07 3.4174565e-07 3.0581975e-07 2.2599934e-07 1.9001715e-07 5.2617256e-06 8.2037195e-06
8.389407e-06 6.1350706e-06 8.501112e-06 8.530199e-06 5.487485e-06 7.1568998e-06 6.3565326e-06 1.9379502e-06
2.4556873e-06 2.6128882e-06 2.0488797e-06 1.9941008e-06 2.1672352e-06 2.1695469e-06 1.7942994e-06 1.6294513e-06

exp_avg f4 [16]
00000000: d68b 9238 7d05 7839 61cd 7bb8 c894 643a
00000010: d15f 5c39 971f 5ab9 ac15 113a 67d0 c937
00000020: 16f7 eeb8 deab 2439 55ed 6138 abdf c239
00000030: 8cab 3d3a dbc1 06b9 f355 1c3a bdb4 6c39
6.987869e-05 0.00023653168 -6.0034337e-05 0.000871968 0.0002101653 -0.00020801868 0.00055345404 2.4058112e-05
-0.00011394748 0.00015704284 5.3865213e-05 0.0003716921 0.00072353403 -0.00012851453 0.0005963735 0.00022574044

exp_avg_sq f4 [16]
00000000: 17e4 3c36 4209 9e37 7082 8b36 a68d 6838
00000010: 0ae1 0e37 1cc3 6737 eda4 bc38 a814 d934
00000020: e954 2637 97a3 0835 3066 2935 2120 2a38
00000030: 63e6 6537 5f21 a736 37d6 c338 497a 8e37
2.8146949e-06 1.8839379e-05 4.1577077e-06 5.544503e-05 8.516256e-06 1.38141e-05 8.9952584e-05 4.043443e-07
9.914141e-06 5.0902e-07 6.310611e-07 4.056108e-05 1.3703105e-05 4.9808727e-06 9.338225e-05 1.6984663e-05
