09-Autoencoders/lightning_logs/version_4/checkpoints/best_model_val_loss=0.18697035312652588.ckpt (torch, 72488 bytes, 39 tensors)

model.encoder.conv1.weight f4 [16, 1, 3, 3]
-0.32359037 -0.021777334 0.15742183 -0.33316416 -0.005420609 -0.05832161 0.17048717 -0.066347934
-0.25393772 -0.08521988 0.30779094 -0.23318389 -0.007209613 0.035762884 -0.07579011 -0.07155967
0.17177974 -0.26262853 -0.3052769 -0.191429 -0.28877205 0.07786837 -0.23055755 0.15103407
0.2964332 0.19448675 0.012710852 0.2610331 -0.17875184 -0.10162999 -0.042787317 0.07303035
0.34827015 0.08213999 -0.07819545 0.043391675 0.017770238 0.14152305 -0.09052869 0.11564541
0.06687215 0.14338548 -0.23141642 -0.094615914 0.3248183 -0.12687261 0.17580095 0.33518374
0.015500379 -0.054152973 -0.033528898 0.2503723 0.19140626 -0.1923765 -0.15373342 -0.07129355
0.0073470613 0.039191093 0.13493392 -0.18284155 0.28383964 0.1738911 0.11084646 0.047743775
0.28485128 0.32383582 -0.00745851 -0.21900482 -0.20761947 -0.026513405 0.084775575 0.34370637
0.23016676 0.34833202 0.31536415 -0.048651032 0.23795934 -0.17318465 -0.1590527 0.024328135
0.0388602 0.06538884 0.38513196 0.116254285 -0.20271903 0.3104104 0.22374319 -0.09370923
0.30139786 -0.0115690585 0.049155034 0.14662297 -0.04846375 0.21651863 -0.26876715 -0.25058696
0.25206763 0.22759949 0.14662838 -0.19890757 0.15742424 -0.0129881045 -0.09258325 -0.08749667
0.21666826 0.24522094 0.37103003 -0.059406154 -0.24291013 0.25854442 -0.06997149 -0.10177314
0.33767745 0.18799469 0.27501422 0.0602245 -0.08887064 -0.05480017 0.05543053 -0.18177824
0.33166692 -0.19080146 -0.10678251 0.07041476 0.08916025 0.02270735 0.09805805 -0.24140745
0.16519952 0.3428811 -0.20397334 -0.36029667 0.24938622 0.02703592 -0.13749802 0.21734647
-0.18939596 0.32670978 -0.16340227 0.1073928 -0.04866366 0.033562724 -0.008356273 -0.22556846
00000000: a3ad a5be 6166 b2bc 3033 213e 7e94 aabe
00000010: 5d9f b1bb a4e2 6ebd 3094 2e3e 6de1 87bd
00000020: 2004 82be c387 aebd c696 9d3e c2c7 6ebe
00000030: 9e3e ecbb 1a7c 123d d837 9bbd e08d 92bd
00000040: 07e7 2f3e 3f77 86be 414d 9cbe f705 44be
00000050: eed9 93be 7479 9f3d 4717 6cbe ada8 1a3e
00000060: 18c6 973e 8927 473e 2d41 503c 21a6 853e
00000070: b90a 37be 6223 d0bd c141 2fbd f090 953d
00000080: 7750 b23e 0339 a83d f024 a0bd 78bb 313d
00000090: e492 913c 6beb 103e 1b67 b9bd 80d7 ec3d
000000a0: 44f4 883d a5d3 123e 6df8 6cbe fdc5 c1bd
000000b0: 964e a63e e5ea 01be 2a05 343e 349d ab3e
000000c0: 4df5 7d3c 82cf 5dbd 9955 09bd cc30 803e
000000d0: 0100 443e 58fe 44be 4b6c 1dbe 5a02 92bd
000000e0: 9ebf f03b d786 203d 1e2c 0a3e d13a 3bbe
000000f0: 6e53 913e 8210 323e 7803 e33d fa8e 433d
00000100: 07d8 913e cfcd a53e 8466 f4bb cd42 60be
00000110: 339a 54be a432 d9bc d19e ad3d 48fa af3e
00000120: d6b0 6b3e 9358 b23e 6977 a13e 4e46 47bd
00000130: 9dab 733e 5157 31be b6de 22be cc4b c73c
00000140: e02b 1f3d 96ea 853d 0430 c53e ba16 ee3d
00000150: 9495 4fbe 1dee 9e3e ef1c 653e a0ea bfbd
00000160: d250 9a3e 268c 3dbc ca56 493d 5524 163e
00000170: ed81 46bd 0fb7 5d3e d99b 89be ef4c 80be
00000180: 020f 813e d70f 693e c025 163e 6dae 4bbe
00000190: d233 213e 0fcc 54bc 499c bdbd 7431 b3bd
000001a0: 49de 5d3e 331b 7b3e a6f7 bd3e de53 73bd
000001b0: 6fbd 78be ef5f 843e 364d 8fbd 706e d0bd
000001c0: 0fe4 ac3e ae81 403e aace 8c3e f7ad 763d
000001d0: cf01 b6bd 2576 60bd 200b 633d 1324 3abe
000001e0: 3fd0 a93e 7561 43be cab0 dabd 9d35 903d
000001f0: a699 b63d c404 ba3c a9d2 c83d 8433 77be
00000200: 102a 293e 1d8e af3e 63de 50be ce78 b8be
00000210: 1a5f 7f3e 6f7a dd3c 48cc 0cbe 1390 5e3e
00000220: 04f1 41be 8146 a73e ed52 27be c2f0 db3d
00000230: 8c53 47bd 1179 093d c0e8 08bc 6bfb 66be

model.encoder.conv1.bias f4 [16]
-0.2738438 0.16862345 0.31300512 -0.10128011 -0.036954034 0.007023869 0.021524893 -0.25607112
-0.13046136 0.0011404877 -0.0061657047 0.00023201948 0.04102234 -0.037035476 -0.22796679 -0.14133586
00000000: 4135 8cbe a0ab 2c3e 3542 a03e f26b cfbd
00000010: 1d5d 17bd 7c28 e63b f954 b03c c11b 83be
00000020: aa97 05be 6b7c 953a ae09 cabb 414a 7339
00000030: 0b07 283d 83b2 17bd 2070 69be 59ba 10be

model.encoder.conv2.weight f4 [8, 16, 3, 3]
-0.030094815 0.07924778 0.023131685 0.05918815 -0.04078612 0.05539175 -0.016124923 0.015347952
-0.062899485 0.07538573 -0.003553809 0.011965546 0.043568656 0.05410641 0.07650851 -0.0009654037
0.020827852 -0.0282338 0.061348714 -0.061743267 -0.022326319 -0.019282347 -0.0078303935 0.044878244
-0.04324248 0.039132908 -0.047373146 -0.035641033 0.08268773 -0.03428612 0.015391149 0.028893286
0.06441111 0.03014658 -0.0009255077 0.124094754 0.10988389 -0.0100164795 0.050044 0.10241676
0.04808545 0.09485804 0.07270733 0.13370436 -0.036098804 -0.11165992 -0.019345403 0.009957865
0.14467925 0.08687103 0.09925125 0.14587107 0.076985136 0.11586089 -0.036433347 0.09672906
-0.027280074 0.109550804 0.069623314 0.029275479 0.07252588 0.14104658 0.07048184 0.076125145
0.081714354 0.013677137 0.047593284 0.059729397 0.030403461 0.07377752 -0.017310578 0.10987859
0.0210217 0.081445485 -0.011539019 -0.019338788 0.08301823 -0.04590828 0.005748735 0.009914711
0.12168651 0.014131777 0.05935464 -0.023694482 -0.011215278 0.1295988 0.078550816 0.15005736
0.1533418 0.09796639 0.06433855 0.09422919 0.09715073 0.10273202 0.031314082 0.1346999
0.0667388 0.10758112 0.031196503 0.008483732 0.03893389 0.09167687 0.008100668 0.07783736
0.030576337 -0.0066274586 0.14554852 -0.03030464 0.08544802 0.1197873 0.09533894 0.032146864
0.14277011 0.11794494 0.13588238 0.009820213 0.06846208 -0.0018421024 0.10646386 0.14545391
0.13593844 0.028142473 0.11493197 0.09701497 0.050374653 0.09493402 0.030392349 0.060166776
0.037538983 -0.046002224 0.14650464 0.0489025 0.0898762 0.079651564 -0.0074166986 -0.04633935
0.016089462 -0.062603444 0.115808055 0.108309366 -0.035761595 0.00882546 0.11212626 0.029878646
0.065490946 0.064835936 0.006484171 -0.00920408 -0.0338525 -0.044586986 -0.079357736 0.042342603
-0.029914102 -0.044251226 0.051473163 -0.07789791 -0.023358593 0.042032775 -0.05028887 -0.07356303
-0.03736896 0.07501676 -0.03250769 -0.07278583 -0.027755905 -0.06887762 0.016442396 0.01915001
-0.032513343 -0.06843316 -0.07834078 -0.058752455 0.046938937 0.0063250232 -0.065225534 -0.072683044
-0.06414773 0.005435114 0.057371993 0.0025632211 0.0038722665 0.0576709 -0.08674085 0.012216985
-0.022225447 -0.025752831 0.03181755 0.026224613 0.055623684 0.054407492 0.060708784 -0.003187239
0.05561283 0.030511552 -0.025882317 -0.059407916 0.052657425 0.01946632 -0.0027978208 0.010056181
-0.07890464 -0.08453992 -0.06979553 -0.038547873 -0.004409576 0.036454733 0.07189122 0.043105528
-0.07926957 -0.004960274 -0.08934928 -0.035975598 -0.046257418 0.01823574 -0.042595107 -0.04756773
0.054587495 -0.013548474 -0.047381096 -0.04315725 -0.013292288 -0.03835504 0.07125309 -0.035292394
0.03909228 0.017238107 -0.03322056 0.059285287 0.04401746 0.026232552 -0.07708636 -0.04749154
-0.03357732 -0.06406296 -0.02295988 0.0093732 0.023283932 0.012752905 0.07171243 0.053040117
0.016851965 -0.031903945 -0.076251455 -0.016791292 -0.051245075 -0.09780544 -0.062188596 0.030244276
-0.03790981 -0.00583282 -0.0035579437 0.019709822 -0.092234 0.017071832 -0.089406736 -0.07548742
00000000: 6789 f6bc a94c a23d a97e bd3c 466f 723d
00000010: 590f 27bd 76e2 623d 6a18 84bc fa75 7b3c
00000020: 72d1 80bd d563 9a3d 05e7 68bb 230b 443c
00000030: 0c75 323d af9e 5d3d 7eb0 9c3d 2513 7dba
00000040: 2c9f aa3c 924a e7bc ca48 7b3d 82e6 7cbd
00000050: afe5 b6bc 03f6 9dbc 0d4b 00bc 40d2 373d
00000060: 071f 31bd d449 203d 580a 42bd 55fc 11bd
00000070: 2f58 a93d 9a6f 0cbd 282b 7c3c 9db1 ec3c
00000080: f9e9 833d f6f5 f63c c59d 72ba 6425 fe3d
00000090: ce0a e13d 291c 24bc f0fa 4c3d e1bf d13d
000000a0: 40f5 443d ef44 c23d 95e7 943d cce9 083e
000000b0: 57dc 13bd f5ad e4bd 407a 9ebc 5026 233c
000000c0: cc26 143e 70e9 b13d 3d44 cb3d 3a5f 153e
000000d0: 62aa 9d3d 7948 ed3d 223b 15bd e319 c63d
000000e0: 767a dfbc 2c5c e03d ab96 8e3d 21d3 ef3c
000000f0: 7388 943d 846e 103e c858 903d 80e7 9b3d
00000100: db59 a73d 1216 603c 2df1 423d d0a6 743d
00000110: ae10 f93c ab18 973d eace 8dbc 0708 e13d
00000120: b335 ac3c e4cc a63d 270e 3dbc 616c 9ebc
00000130: 7605 aa3d 520a 3cbd e25f bc3b 5071 223c
00000140: c736 f93d f888 673c da1d 733d ee1a c2bc
00000150: 49c0 37bc 8cb5 043e 40df a03d a3a8 193e
00000160: a205 1d3e 9aa2 c83d eec3 833d 3cfb c03d
00000170: f6f6 c63d 2a65 d23d 3243 003d c5ee 093e
00000180: 5aae 883d 7e53 dc3d cf8f ff3c 5aff 0a3c
00000190: 2579 1f3d 15c1 bb3d aab8 043c 3269 9f3d
000001a0: 3a7b fa3c 272b d9bb ac0a 153e 7041 f8bc
000001b0: 5fff ae3d 0b53 f53d 1041 c33d 6eac 033d
000001c0: 5432 123e 1e8d f13d c024 0b3e f5e4 203c
000001d0: d935 8c3d b372 f1ba b909 da3d dff1 143e
000001e0: 7233 0b3e 0b8b e63c 7461 eb3d c9af c63d
000001f0: a755 4e3d c46c c23d 60f9 f83c 7071 763d
00000200: 7ac2 193d d46c 3cbd 5005 163e fd4d 483d
00000210: 0311 b83d 5c20 a33d c707 f3bb 55ce 3dbd
00000220: 0cce 833c 3c36 80bd c62c ed3d 4dd1 dd3d
00000230: c07a 12bd aa98 103c 74a2 e53d 10c4 f43c
00000240: 1e20 863d b4c8 843d 2b79 d43b b6cc 16bc
00000250: eba8 0abd d8a0 36bd 4f86 a2bd 706f 2d3d
00000260: 6b0e f5bc c640 35bd 86d5 523d f088 9fbd
00000270: 855a bfbc 8f2a 2c3d b4fb 4dbd 37a8 96bd
00000280: 3210 19bd 63a2 993d c926 05bd bd10 95bd
00000290: 5a60 e3bc b60f 8dbd 34b2 863c 7be0 9c3c
000002a0: b62c 05bd af26 8cbd 2271 a0bd 6aa6 70bd
000002b0: 0b43 403d 2442 cf3b f794 85bd d9da 94bd
000002c0: e35f 83bd 0a19 b23b e5fe 6a3d b7fb 273b
000002d0: dac5 7d3b 5238 6c3d 30a5 b1bd c029 483c
000002e0: 2412 b6bc 9af7 d2bc 1f53 023d 00d5 d63c
000002f0: a9d5 633d 64da 5e3d c6a9 783d ffe0 50bb
00000300: 47ca 633d 5df3 f93c 2707 d4bc b755 73bd
00000310: 50af 573d d577 9f3c a55b 37bb aec2 243c
00000320: c298 a1bd 4423 adbd f5f0 8ebd 60e4 1dbd
00000330: 347e 90bb 8f51 153d b43b 933d 6c8f 303d
00000340: 1658 a2bd cb89 a2bb c1fc b6bd 265b 13bd
00000350: 6b78 3dbd 1e63 953c 3578 2ebd 61d6 42bd
00000360: 2397 5f3d 6bfa 5dbc ae12 42bd a8c5 30bd
00000370: e6c7 59bc 2d1a 1dbd 24ed 913d c28e 10bd
00000380: 3a1f 203d ee36 8d3c 4812 08bd 21d5 723d
00000390: a74b 343d a6e5 d63c 74df 9dbd 7d86 42bd
000003a0: 5f88 09bd 7133 83bd 5c16 bcbc 0d92 193c
000003b0: f2bd be3c 8ff1 503c f7dd 923d 9840 593d
000003c0: 220d 8a3c b6ad 02bd b929 9cbd e48d 89bc
000003d0: 5be6 51bd 384e c8bd 78b9 7ebd d8c2 f73c
000003e0: 5147 1bbd 3e21 bfbb 642c 69bb 7e76 a13c
000003f0: 2ee5 bcbd 3ada 8b3c e11a b7bd 2699 9abd

model.encoder.conv2.bias f4 [8]
-0.0678753 -0.055867326 -0.030160677 -0.0075406386 0.044257354 -0.009894262 0.01993817 -0.04562897
00000000: 3502 8bbd 23d5 64bd 8613 f7bc 7617 f7bb
00000010: 3347 353d 8b1b 22bc 6055 a33c 71e5 3abd

model.encoder.conv3.weight f4 [8, 8, 3, 3]
-0.021780146 -0.04400761 0.07411784 -0.11314472 -0.11950092 -0.12423693 -0.03691672 0.027650855
0.10777561 -0.0776531 0.023319563 0.00025709998 0.061259337 0.02369335 0.092059426 0.053348977
0.07127542 0.07757507 -0.03059844 0.05504558 0.09789686 0.09890037 -0.014834254 -0.083793655
0.12993765 -0.056441605 0.071489744 0.007713768 -0.12147941 0.06996853 0.10207135 -0.004389528
0.09862672 0.077779196 0.032206852 0.11119012 0.0059446506 0.0343468 0.13120371 0.10253819
0.08025105 0.022226823 -0.036937974 0.047484823 -0.078551225 0.031008637 -0.124279484 -0.11138045
-0.02193364 -0.05643265 -0.11739122 -0.06389884 0.08876432 0.10996494 -0.031097556 -0.0517938
-0.008017625 0.070834465 0.10546333 -0.0047447286 -0.0043325373 -0.013362115 0.0015386522 0.040817514
-0.026172485 -0.14818823 0.0145737585 0.006809159 -0.049997278 -0.093956634 -0.06929609 -0.021600477
0.08056053 -0.17771314 0.062478654 -0.029826844 0.09282226 -0.057537667 0.134367 0.19288617
0.11693262 -0.061559554 0.050971985 -0.07723153 0.07773973 -0.088955164 0.0010578246 -0.08852453
-0.09006354 0.079486236 0.03184771 -0.080972776 0.069796145 -0.042349365 -0.052933183 0.028194088
-0.004377117 0.095827855 0.06389007 0.1176874 -0.08644808 -0.045449216 0.0044567115 0.13033856
-0.01893057 0.06601871 0.15922262 -0.07974223 -0.10592829 -0.09250302 0.08498409 0.006854476
-0.06432452 -0.08031167 -0.0028420778 0.0150477635 -0.085832775 0.022148933 -0.07720545 -0.12475746
-0.090167865 -0.010155652 0.0879429 0.1154485 0.13545373 -0.011094096 0.14110722 -0.13785003
0.037401076 -0.047084432 -0.033226065 -0.027912425 0.050529815 0.023570912 0.040973075 0.043871727
-0.15168628 0.02275348 -0.11706821 0.050708316 0.08329209 0.077356674 0.20594536 0.1500528
0.04221834 -0.10616592 0.03848223 -0.11347197 -0.046926398 -0.022453178 -0.052055128 -0.032477
0.058671463 0.070576765 -0.062004175 0.07707114 0.047305692 -0.07567561 0.022599813 0.07870651
-0.052064642 0.04836234 0.0044026794 0.013891619 -0.05314694 0.08643323 -0.09065224 -0.002940469
0.09176366 0.07802968 0.058235116 0.0807487 0.067191966 0.13056743 -0.07477967 -0.033675704
0.10090061 0.08405062 -0.07478173 0.04385372 -0.0048906333 0.03503527 -0.07387925 0.08018005
-0.023046158 -0.053580485 -0.011530665 0.12452685 -0.08341837 -0.053163823 -0.036577683 -0.09989162
0.0035332027 -0.063168146 -0.009641365 -0.02513089 0.12627074 0.016674738 0.0016261196 0.081707
0.14536235 0.07111436 -0.05218492 0.08334274 0.042522512 -0.07500031 -0.048016805 -0.06288612
-0.15425219 -0.029762276 -0.13901435 -0.0771462 0.19728874 -0.0577246 0.12277896 -0.010285117
-0.054250114 0.11935258 0.13524516 0.024054201 0.10389808 0.19222215 -0.05526434 0.049405485
0.06963087 0.010769791 -0.005658853 0.11458989 0.09100277 -0.006720428 -0.089787215 -0.061185993
0.1154666 0.021480493 0.034340657 0.01670583 0.08043076 -0.08795442 -0.086386316 0.057476282
0.0065530194 0.10558616 0.03548892 0.08440627 0.12775752 -0.009883257 -0.048049606 0.05083735
-0.047921807 -0.06289785 0.072673626 -0.07344595 -0.03413625 -0.102439664 0.010039868 -0.08336868
00000000: 476c b2bc 5341 34bd 18cb 973d 6bb8 e7bd
00000010: e6bc f4bd ee6f febd fd35 17bd 0c84 e23c
00000020: 76b9 dc3d 9708 9fbd ab08 bf3c 60cb 8639
00000030: 12eb 7a3d 8e18 c23c a789 bc3d 7584 5a3d
00000040: d9f8 913d aedf 9e3d 94a9 fabc 7977 613d
00000050: 267e c83d 478c ca3d 5f0b 73bc 029c abbd
00000060: 600e 053e 502f 67bd 3769 923d c7c3 fc3b
00000070: 32ca f8bd a94b 8f3d c90a d13d 08d6 8fbb
00000080: cefc c93d b34a 9f3d 55eb 033d a5b7 e33d
00000090: 58cb c23b 3baf 0c3d 445a 063e 8bff d13d
000000a0: aa5a a43d 0715 b63c 464c 17bd 727f 423d
000000b0: 77df a0bd d305 fe3c 3e86 febd 6f1b e4bd
000000c0: 2dae b3bc ec25 67bd cf6a f0bd 65dd 82bd
000000d0: 11ca b53d 4c35 e13d 4dc0 febc bc25 54bd
000000e0: 5b5c 03bc a911 913d 29fd d73d ab79 9bbb
000000f0: f5f7 8dbb c6ec 5abc 9aac c93a 4430 273d
00000100: ae67 d6bc a8be 17be c6c6 6e3c 5e1f df3b
00000110: f2c9 4cbd 566c c0bd 1ceb 8dbd 7cf3 b0bc
00000120: ebfc a43d 6ffa 35be 9ee9 7f3d 6d57 f4bc
00000130: 9919 be3d 9eac 6bbd 8197 093e f483 453e
00000140: 5f7a ef3d df25 7cbd 00c8 503d 902b 9ebd
00000150: 0236 9f3d 202e b6bd b4a6 8a3a 594c b5bd
00000160: 3c73 b8bd aec9 a23d bf72 023d 0ed5 a5bd
00000170: 48f1 8e3d 8776 2dbd 77d0 58bd 4af7 e63c
00000180: eb6d 8fbb 6541 c43d ccd8 823d 1706 f13d
00000190: b10b b1bd f528 3abd 9b09 923b 7977 053e
000001a0: 4814 9bbc d134 873d 410b 233e e54f a3bd
000001b0: eef0 d8bd 3972 bdbd 230c ae3d 839b e03b
000001c0: 93bc 83bd 727a a4bd 2742 3abb e58a 763c
000001d0: 18c9 afbd ae71 b53c e41d 9ebd d780 ffbd
000001e0: eea9 b8bd e463 26bc 681b b43d 4370 ec3d
000001f0: 62b4 0a3e 03c4 35bc 697e 103e 8f28 0dbe
00000200: df31 193d 9bdb 40bd 0e18 08bd 99a8 e4bc
00000210: 5af8 4e3d c917 c13c 62d3 273d d7b2 333d
00000220: a653 1bbe 8265 ba3c 75c1 efbd 86b3 4f3d
00000230: 0b95 aa3d 2d6d 9e3d 57e3 523e 71a7 193e
00000240: 23ed 2c3d 856d d9bd 8b9f 1d3d fe63 e8bd
00000250: e535 40bd baef b7bc c237 55bd 9a06 05bd
00000260: 7d51 703d 8d8a 903d 17f8 7dbd 79d7 9d3d
00000270: 9dc3 413d d0fb 9abd 3e23 b93c e130 a13d
00000280: bc41 55bd 9717 463d 5a44 903b ac99 633c
00000290: 9bb0 59bd e803 b13d e2a7 b9bd e2b4 40bb
000002a0: 96ee bb3d 06ce 9f3d f287 6e3d 935f a53d
000002b0: f19b 893d 78b3 053e 1526 99bd 89ef 09bd
000002c0: fba4 ce3d bb22 ac3d 2a27 99bd f59f 333d
000002d0: 9b41 a0bb 2581 0f3d 014e 97bd 7035 a43d
000002e0: 4ccb bcbc 3677 5bbd 1deb 3cbc ef07 ff3d
000002f0: 40d7 aabd 4fc2 59bd 7bd2 15bd fa93 ccbd
00000300: 4e8d 673b 4d5e 81bd d1f6 1dbc 4cdf cdbc
00000310: 1e4d 013e 7699 883c 8523 d53a 0056 a73d
00000320: ded9 143e 68a4 913d dbbf 55bd 99af aa3d
00000330: 162c 2e3d c399 99bd 45ad 44bd 70ca 80bd
00000340: 49f4 1dbe 04d0 f3bc c759 0ebe d4fe 9dbd
00000350: 0f06 4a3e a170 6cbd 8973 fb3d e882 28bc
00000360: 5e35 5ebd 206f f43d b57d 0a3e 510d c53c
00000370: 84c8 d43d e2d5 443e dc5c 62bd 685d 4a3d
00000380: a19a 8e3d c773 303c e66d b9bb 1bae ea3d
00000390: a95f ba3d 0937 dcbb 5ce2 b7bd 2a9e 7abd
000003a0: c179 ec3d dcf7 af3c caa8 0c3d aada 883c
000003b0: e2b8 a43d 7221 b4bd 4feb b0bd 406c 6b3d
000003c0: b6ba d63b 8f3d d83d d45c 113d 32dd ac3d
000003d0: ded2 023e 62ed 21bc aacf 44bd d33a 503d
000003e0: a849 44bd 97d0 80bd e9d5 943d d56a 96bd
000003f0: 74d2 0bbd e3cb d1bd 427e 243c 33bd aabd

model.encoder.conv3.bias f4 [8]
-0.013115115 -0.0030855848 0.1409488 -0.14346418 0.18031125 -0.06685786 -0.033689156 0.12709329
00000000: c8e0 56bc 8637 4abb e254 103e 46e8 12be
00000010: 83a3 383e c6ec 88bd a4fd 09bd be24 023e

model.decoder.conv1.weight f4 [8, 8, 3, 3]
0.06769316 0.11517992 0.022326175 -0.0068296785 -0.02477601 -0.05207292 -0.06939286 -0.008808494
0.11359539 0.02853927 0.12575154 0.1052162 0.013675403 0.04031972 -0.04644569 0.119418375
0.059792507 0.11050911 -0.09758333 -0.12487307 0.0015072174 -0.02873159 0.018473106 -0.20122755
-0.0038287959 -0.012671966 0.20376183 -0.06017459 0.08948044 0.04454521 0.015291759 0.08635469
0.03710912 -0.038852174 -0.090200074 0.0049157054 -0.14307101 -0.10636954 -0.13440464 0.114474155
0.1281411 0.04787754 -0.15946473 0.109998204 -0.09282574 0.031809352 0.099467516 -0.113146044
-0.07157785 -0.10821737 -0.01002046 -0.063640624 0.07799027 -0.056608845 -0.1264988 -0.048496358
-0.09798643 0.044592634 0.1018671 0.06448484 0.04926627 -0.03807521 0.032072786 -0.027218688
-0.014461205 0.10958124 0.08830404 -0.08764367 -0.07629481 0.10780923 0.042851806 0.0064679836
-0.021519573 0.02725633 -0.08392735 -0.054534506 0.007044185 0.032499894 -0.029160809 0.03783153
-0.037732076 -0.036711685 0.15688469 0.01437485 0.0025422552 -0.0510028 -0.12532358 0.07053892
0.043473624 -0.019145882 -0.085456915 0.09017712 -0.12994218 -0.056038916 0.05435984 -0.09136161
0.022200866 0.060577583 -0.1273024 0.0815933 0.07439917 -0.019692214 0.03093977 -0.15368865
-0.044946298 0.059351712 0.0015530728 -0.08845757 -0.024211444 -0.02635616 0.0369158 0.11592167
0.077746354 -0.12145076 0.03740367 0.046245035 -0.1938562 -0.06522249 -0.07924455 -0.095286734
0.05964529 -0.048436817 0.11283403 0.009616801 -0.0030930308 0.06087348 0.02275268 0.04002593
-0.118483536 0.1119923 -0.12600629 -0.09133118 0.04984468 -0.17526643 -0.06305305 -0.107771695
0.07741264 -0.034580853 0.10861848 0.055145558 -0.11690652 -0.052299164 -0.06915731 -0.19185194
0.013226579 0.00096956216 0.012246479 0.0808091 0.06289522 -0.0014974995 0.032425415 0.09243919
0.11622887 -0.023376677 -0.05957288 -0.09134788 0.057976183 0.0051266784 0.15000714 0.123487055
0.058674607 -0.1557212 0.10960488 -0.026098551 0.07721696 -0.065534666 0.06067347 0.11333517
-0.06670084 0.0065905084 -0.079912014 0.063618794 -0.1445115 0.11174302 0.041250866 -0.1713674
-0.0065727867 -0.11647749 -0.06277566 0.12080776 0.05044038 0.20549731 -0.1324002 0.10565213
0.09029377 -0.02000611 -0.07693592 -0.07746807 -0.062192988 -0.053203553 -0.059673432 0.047985386
0.0419026 -0.06568771 -0.028761998 0.09963595 0.045066975 0.0041261436 0.010720869 -0.02796692
0.12227569 0.05353115 0.014213746 0.10046463 0.0062368503 -0.040807765 0.12538265 -0.0026089237
-0.13059324 -0.08618781 0.067383446 0.060307488 0.018588169 0.1098597 0.077066444 0.10155384
0.099873 0.06355841 -0.08833557 0.09868709 0.05620809 0.04137372 0.014650877 -0.008822497
0.08635942 0.010339519 -0.06700847 -0.012115436 0.07775913 -0.103824995 0.18381667 0.013138279
0.15690713 0.08587618 0.08711391 -0.0500881 -0.047103737 0.09451235 -0.031355273 0.0027374239
0.10700725 -0.031150386 0.022716185 0.051355943 -0.14390914 -0.078494176 -0.08900415 -0.031478543
-0.113817796 0.060960025 -0.06682654 0.020756263 0.11195762 0.033562038 0.010920243 0.11041552
00000000: b6a2 8a3d 73e3 eb3d 62e5 b63c 7fcb dfbb
00000010: 0ff7 cabc 6a4a 55bd d81d 8ebd 8051 10bc
00000020: b3a4 e83d 30cb e93c 03c5 003e 977b d73d
00000030: cc0e 603c 4a26 253d d63d 3ebd 9f91 f43d
00000040: fde8 743d 9a52 e23d c5d9 c7bd 74bd ffbd
00000050: d38d c53a 835e ebbc e954 973c 980e 4ebe
00000060: 89ec 7abb 149e 4fbc f1a6 503e a279 76bd
00000070: 8541 b73d 0a75 363d 498a 7a3c bada b03d
00000080: bcff 173d 7523 1fbd d1ba b8bd ed13 a13b
00000090: 3581 12be 46d8 d9bd 5fa1 09be 6d71 ea3d
000000a0: 6c37 033e 3d1b 443d b94a 23be bd46 e13d
000000b0: 6c1b bebd 864a 023d a0b5 cb3d 1db9 e7bd
000000c0: 6897 92bd 12a1 ddbd db2c 24bc 0456 82bd
000000d0: 5db9 9f3d adde 67bd e788 01be 1ea4 46bd
000000e0: 1cad c8bd c4a6 363d b39f d03d a110 843d
000000f0: 6ecb 493d c0f4 1bbd c15e 033d baf9 debc
00000100: b1ee 6cbc 216c e03d c0d8 b43d 867e b3bd
00000110: 7440 9cbd 16cb dc3d 6085 2f3d 61f1 d33b
00000120: d149 b0bc ab48 df3c 1ae2 abbd 935f 5fbd
00000130: e8d2 e63b 9c1e 053d a6e2 eebc 3cf5 1a3d
00000140: f38c 1abd fe5e 16bd 61a6 203e 7e84 6b3c
00000150: f79b 263b 50e8 50bd d354 00be b676 903d
00000160: 6611 323d d3d7 9cbc 0904 afbd c8ae b83d
00000170: 900f 05be 1089 65bd 6ca8 5e3d cc1b bbbd
00000180: 97de b53c 3320 783d 8f5b 02be 631a a73d
00000190: 985e 983d 9151 a1bc 6775 fd3c 8f60 1dbe
000001a0: 9c19 38bd c81a 733d 7a90 cb3a 3e29 b5bd
000001b0: 1457 c6bc e0e8 d7bc 0635 173d 5768 ed3d
000001c0: 7b39 9f3d 2dbb f8bd 9734 193d 6f6b 3d3d
000001d0: 3d82 46be 5e93 85bd f74a a2bd b125 c3bd
000001e0: 9f4e 743d af65 46bd 8715 e73d c98f 1d3c
000001f0: 72b4 4abb 7856 793d d463 ba3c 3bf2 233d
00000200: 7fa7 f2bd 385c e53d cb07 01be d70b bbbd
00000210: ef29 4c3d 0b79 33be f521 81bd 68b7 dcbd
00000220: 858a 9e3d a7a4 0dbd 5e73 de3d 4fe0 613d
00000230: b06c efbd a637 56bd 59a2 8dbd d674 44be
00000240: 4bb4 583c 372a 7e3a 75a5 483c 3e7f a53d
00000250: 36cf 803d bf47 c4ba 83d0 043d c250 bd3d
00000260: 6709 ee3d 7280 bfbc b102 74bd 9914 bbbd
00000270: 6f78 6d3d b2fd a73b 799b 193e c8e6 fc3d
00000280: c954 703d 6175 1fbe 8678 e03d a1cc d5bc
00000290: ed23 9e3d 0a37 86bd bf84 783d 451c e83d
000002a0: 739a 88bd 31f5 d73b e9a8 a3bd 924a 823d
000002b0: d3fa 13be 86d9 e43d abf6 283d f07a 2fbe
000002c0: 8860 d7bb c08b eebd 8690 80bd 0f6a f73d
000002d0: 929a 4e3d e36d 523e eb93 07be 2560 d83d
000002e0: f1eb b83d dbe3 a3bc 9490 9dbd 94a7 9ebd
000002f0: 13be 7ebd f8eb 59bd 216c 74bd 538c 443d
00000300: 10a2 2b3d 4787 86bd 489e ebbc ef0d cc3d
00000310: 2698 383d 9a34 873b 95a6 2f3c e21a e5bc
00000320: ad6b fa3d 7b43 5b3d c6e0 683c 66c0 cd3d
00000330: 7e5e cc3b 0b26 27bd 4f64 003e 7afa 2abb
00000340: 3cba 05be 3c83 b0bd 5500 8a3d fc04 773d
00000350: 3746 983c 1ffe e03d 03d5 9d3d 76fb cf3d
00000360: 378a cc3d e92a 823d 48e9 b4bd 751c ca3d
00000370: 743a 663d 7d77 293d 3b0a 703c 3c8c 10bc
00000380: 35dd b03d 1667 293c bd3b 89bd d27f 46bc
00000390: 2e40 9f3d 33a2 d4bd 703a 3c3e f041 573c
000003a0: 43ac 203e dadf af3d c768 b23d 2e29 4dbd
000003b0: d9ef 40bd b18f c13d 636e 00bd 5a66 333b
000003c0: 9e26 db3d 182f ffbc 4b17 ba3c 9c5a 523d
000003d0: eb5c 13be 8ec1 a0bd cf47 b6bd a5ef 00bd
000003e0: 4e19 e9bd 38b1 793d 5adc 88bd 0a09 aa3c
000003f0: 094a e53d 5978 093d d2ea 323c 8821 e23d

model.decoder.conv1.bias f4 [8]
0.033412408 -0.01713816 0.16845891 0.14732757 -0.026457923 0.046443284 0.09937844 0.067629166
00000000: 73db 083d 5465 8cbc 7e80 2c3e 0add 163e
00000010: 49be d8bc 503b 3e3d ec86 cb3d 2981 8a3d

model.decoder.conv2.weight f4 [8, 8, 3, 3]
0.2016096 0.19884531 0.05914425 0.0457632 -0.0883243 0.00048392173 0.06697424 0.06889869
-0.05190231 0.04389416 -0.05606645 -0.09485448 0.17090437 -0.09305087 -0.060688358 0.166918
-0.15186983 -0.010183306 0.11258165 -0.01696712 0.083848484 0.1350428 0.10213038 0.012974711
0.07734959 0.09977854 0.055293284 0.068394385 0.06729804 -0.050567206 0.16676974 0.13713595
0.085422486 0.007826675 0.085768 -0.026289148 0.16175337 0.13259527 0.07256918 0.07304088
-0.038544312 0.08733947 0.043771703 -0.04508866 -0.019570597 0.01179799 0.11263787 -0.10408984
0.00084970484 0.01579657 -0.07578624 -0.00835303 -0.059998855 0.022570547 -0.07667664 -0.1703746
-0.0014848006 0.026004924 0.14928737 0.110407725 0.008573379 0.039958484 0.07229344 -0.012125758
-0.036344748 0.07970137 0.07162859 0.0870548 0.06859264 0.03683814 -0.04034101 -0.009671027
0.036736697 0.072746895 0.002870297 -0.10940069 -0.026632117 -0.04008056 -0.1181515 -0.019711815
0.068392456 0.17652382 0.17520759 0.0072732316 0.14967792 0.056719296 0.037513368 0.16847348
0.15395908 -0.12865299 -0.1120005 0.02759445 0.09423584 -0.01507951 0.073566355 0.07070839
-0.10679621 0.104808524 0.13105197 -0.01775858 0.060672674 -0.10902512 -0.0052909264 0.02793664
0.041224044 8.468807e-05 0.19189972 0.1228071 0.05114139 0.018286617 0.097111076 0.17735715
0.069782525 0.08735164 0.090382814 0.15386085 0.13496031 0.1505515 0.09770685 0.017965285
0.13254642 0.18259259 -0.0004916398 0.007499103 0.07412892 0.06863864 0.1453979 0.00025535934
-0.048081793 0.07607294 -0.06843176 -0.079716735 -0.023033943 0.05804883 0.054119505 -0.0514586
0.15650314 0.07323583 0.07970375 0.14279376 0.15477198 -0.1682286 -0.094837636 0.007929493
0.029035734 0.09259895 -0.010039212 0.016249869 0.032014556 0.01888228 -0.123643994 -0.10825713
-0.008576475 0.10020623 -0.026712282 0.07030591 0.1503208 0.18415727 -0.043294758 0.1537204
0.15124506 0.028239848 0.0041103614 0.015520787 -0.097696684 0.042406686 -0.0009945208 -0.031488452
0.12094812 0.020948488 0.06641622 0.067766264 -0.056493647 0.028972302 0.14166945 -0.045488052
-0.115495786 0.07805662 0.051791765 -0.006900217 -0.03495416 0.13295937 0.22450581 0.14161085
0.05095618 0.20535131 0.089232005 0.04999177 0.0011081345 0.018958362 0.15283996 0.0888558
0.12846911 0.08048425 0.0363553 0.16727643 0.09695327 0.08449795 0.26179543 0.0644409
-0.035288412 0.17708789 0.03355586 -0.07794077 -0.056348577 -0.012029566 -0.12978835 -0.096910335
-0.05438933 -0.05286154 0.04106081 0.09299482 0.0467578 -0.09872061 0.06047857 0.05691487
0.1050136 -0.08492281 0.02716263 0.05375824 -0.05207652 -0.065446585 -0.14438307 0.0027754242
-0.06457741 0.017220573 0.022081282 0.08619276 0.175948 0.073434405 -0.08051856 0.0628835
0.004393796 0.024204763 0.0775758 0.113424316 0.1148862 0.11218826 0.09339278 0.112378314
0.121525705 -0.020708686 0.100221075 0.12694097 0.048614416 -0.07649395 0.051979866 -0.04129556
-0.08157836 0.13432187 0.14012836 -0.06027694 0.05917533 0.06281403 -0.029380303 -0.03380787
00000000: bf72 4e3e 1b9e 4b3e 3e41 723d 3172 3b3d
00000010: 5fe3 b4bd e0b6 fd39 ca29 893d c21a 8d3d
00000020: 8497 54bd 5dca 333d efa5 65bd 1143 c2bd
00000030: 8e01 2f3e 7491 bebd 5b94 78bd 8dec 2a3e
00000040: c483 1bbe e2d7 26bc 3591 e63d a1fe 8abc
00000050: c1b8 ab3d a948 0a3e bc29 d13d e293 543c
00000060: 7669 9e3d b158 cc3d 367b 623d 5b12 8c3d
00000070: 8ed3 893d 8f1f 4fbd b0c5 2a3e 5e6d 0c3e
00000080: fcf1 ae3d 743b 003c 22a7 af3d 575c d7bc
00000090: ada2 253e 0ec7 073e 269f 943d 7596 953d
000000a0: a4e0 1dbd 09df b23d f549 333d e3ae 38bd
000000b0: 8452 a0bc 5b4c 413c afae e63d 0e2d d5bd
000000c0: babe 5e3a cf67 813c d135 9bbd 26db 08bc
000000d0: 5cc1 75bd dee5 b83c a408 9dbd ae76 2ebe
000000e0: a49d c2ba 4708 d53c cade 183e 721d e23d
000000f0: 5c77 0c3c 82ab 233d 950e 943d 1eab 46bc
00000100: 3bde 14bd 793a a33d 03b2 923d c949 b23d
00000110: 4c7a 8c3d 97e3 163d 9d3c 25bd 3a73 1ebc
00000120: 3879 163d 53fc 943d 981b 3c3b 780d e0bd
00000130: 992b dabc 832b 24bd 6af9 f1bd ac7a a1bc
00000140: 5811 8c3d a9c2 343e 9e69 333e 4a54 ee3b
00000150: 2b45 193e 7e52 683d 9ea7 193d 5084 2c3e
00000160: 73a7 1d3e 9cbd 03be 8560 e5bd c20d e23c
00000170: b8fe c03d 0d10 77bc f5a9 963d 8fcf 903d
00000180: f9b7 dabd daa5 d63d 7d32 063e 717a 91bc
00000190: e983 783d 9048 dfbd 825f adbb 61db e43c
000001a0: 8bda 283d 909a b138 5c81 443e 4a82 fb3d
000001b0: a279 513d d1cd 953c 2ce2 c63d 1d9d 353e
000001c0: 24ea 8e3d 6be5 b23d a01a b93d b38d 1d3e
000001d0: 0933 0a3e 2c2a 1a3e 871a c83d ef2b 933c
000001e0: 40ba 073e 8df9 3a3e 63e1 00ba 09bb f53b
000001f0: e7d0 973d 6a92 8c3d 30e3 143e c0e1 8539
00000200: 6af1 44bd 21cc 9b3d f325 8cbd 8742 a3bd
00000210: aeb1 bcbc 9cc4 6d3d 6aac 5d3d 41c6 52bd
00000220: 5c42 203e abfc 953d b83b a33d 8738 123e
00000230: 8c7c 1e3e 1e44 2cbe 3c3a c2bd b4ea 013c
00000240: 59dc ed3c 85a4 bd3d 827b 24bc 721e 853c
00000250: b221 033d 03af 9a3c 1039 fdbd eab5 ddbd
00000260: 5884 0cbc ed38 cd3d b7d3 dabc 8cfc 8f3d
00000270: b2ed 193e b993 3c3e d855 31bd e168 1d3e
00000280: fcdf 1a3e 4157 e73c 36b0 863b e64a 7e3c
00000290: 3315 c8bd a2b2 2d3d 955a 82ba 09fa 00bd
000002a0: a6b3 f73d 2a9c ab3c 3a05 883d 0ac9 8a3d
000002b0: e265 67bd 5257 ed3c cc11 113e ae51 3abd
000002c0: 0e89 ecbd 26dc 9f3d 9a23 543d 371b e2bb
000002d0: 182c 0fbd 8026 083e dae4 653e 6f02 113e
000002e0: 6db7 503d 9d47 523e 45bf b63d 2cc4 4c3d
000002f0: d33e 913a 914e 9b3c 1482 1c3e 08fa b53d
00000300: 688d 033e edd4 a43d 4ce9 143d 834a 2b3e
00000310: 708f c63d 430d ad3d 0d0a 863e 97f9 833d
00000320: 958a 10bd 8756 353e df71 093d 699f 9fbd
00000330: c4cd 66bd a817 45bc 3de7 04be ed78 c6bd
00000340: 59c7 5ebd 5885 58bd 612f 283d 1174 be3d
00000350: 1b85 3f3d 082e cabd 61b8 773d 911f 693d
00000360: 5f11 d73d 03ec adbd 2a84 de3c 9a31 5c3d
00000370: 304e 55bd dc08 86bd 28d9 13be e4e3 353b
00000380: 2941 84bd 2912 8d3c cee3 b43c d485 b03d
00000390: b62b 343e c764 963d eae6 a4bd 10c9 803d
000003a0: d5f9 8f3b 1149 c63c 10e0 9e3d 024b e83d
000003b0: 7549 eb3d f5c2 e53d b744 bf3d 9a26 e63d
000003c0: 78e2 f83d 43a5 a9bc b540 cd3d d0fc 013e
000003d0: e91f 473d dca8 9cbd d7e8 543d 8825 29bd
000003e0: 8e12 a7bd ac8b 093e cf7d 0f3e f4e4 76bd
000003f0: d561 723d a4a4 803d f6ae f0bc 1f7a 0abd

model.decoder.conv2.bias f4 [8]
-0.045499176 0.05514635 -0.057569817 0.052652515 0.031041944 0.0040224944 0.14979394 0.018145926
00000000: 585d 3abd 24e1 613d 54ce 6bbd 2aaa 573d
00000010: ad4b fe3c 21cf 833b 9563 193e c4a6 943c

model.decoder.conv3.weight f4 [16, 8, 3, 3]
-0.08797951 -0.06260674 -0.10873239 0.117722645 -0.041407045 0.016397854 0.123699315 0.08951953
-0.08077647 0.04581984 0.06284301 0.07963312 0.17860393 0.03534713 0.041219182 0.048904333
0.1942365 0.21418358 0.078651175 0.111509964 0.12057694 -0.035851434 -0.032248452 0.013622463
0.097491615 0.108305044 0.03742468 0.06812789 0.078069724 0.10243943 -0.054744158 0.0047591687
0.056611475 0.028797597 -0.05821685 0.1407651 0.07243192 0.11875859 0.002778438 0.05437667
0.22270563 -0.018576931 0.010177106 0.17090665 0.119864784 -0.0019354302 -0.0043935427 0.114964835
0.090716735 0.026178114 0.055770002 0.044505604 -0.013533389 0.067202486 0.0032261575 0.12655255
0.058194775 0.050252963 0.12128511 0.051587492 0.093017265 0.06556143 0.012123035 0.15908532
0.17816919 0.009567782 0.13356724 0.06284394 0.17630668 0.1822595 0.071528494 0.04307218
-0.12795633 0.061560802 0.038379375 -0.06831321 -0.1112538 -0.060101595 0.045755457 -0.07463815
0.085258804 0.03354429 0.083967276 0.17822477 0.1461238 0.21550602 0.16241968 0.17767017
0.04058682 -0.016358757 -0.041027762 0.01947516 0.052577104 -0.07640092 -0.08893315 0.029540645
-0.06681829 0.065827936 -0.120884 0.0007645294 -0.009417863 -0.012361784 -0.042048085 0.07979822
0.09509666 -0.005514079 0.040972512 -0.0363563 0.07061645 0.026748411 0.006377643 -0.011411879
0.09064272 0.10246116 0.15353115 0.07048204 0.11894603 -0.03287054 0.0923896 -0.07157357
-0.007967053 -0.026671799 0.076640934 -0.06682592 -0.07584403 0.01891661 0.015169817 -0.059658416
-0.07984794 0.10127712 -0.03854421 0.01236546 0.13582738 0.06541975 -0.053908657 0.0033930142
0.04258038 0.0294064 0.2398067 0.21863876 0.17806378 0.043738108 0.1285763 0.09985775
0.054061007 -0.021397017 -0.05724311 -0.00043214735 0.11248474 0.06685644 0.040466383 -0.04225919
0.09488098 0.1363308 0.08150437 0.119807355 0.016619517 0.21476895 0.082492374 0.031245602
0.19796298 -0.012484907 0.13575956 -0.070401445 0.12172684 -0.100523315 0.055863325 0.08151096
-0.024912521 0.0043262006 0.1112246 -0.063197576 0.098551154 -0.06504119 0.03524608 0.032424018
0.067984484 -0.06460003 -0.01788834 0.05496185 0.19232546 0.18143111 0.08414225 0.22523378
0.10467715 0.086573094 0.16156133 0.012721792 0.017233212 0.012012432 0.07366653 0.012247488
0.10192516 0.14137049 0.10078987 -0.0016359765 0.007787668 0.023185667 0.09769648 -0.04108485
0.041961163 0.056372352 0.11391547 -0.011791456 -0.03753933 -0.044596862 0.08234768 0.16846661
0.09795105 0.010093971 0.16464128 0.081408635 0.22661969 0.13738175 0.06022231 0.00047052233
0.09113622 0.010718322 -0.08474195 0.0052738525 -0.06871069 0.12860051 0.009171893 -0.05266282
0.10049445 0.20541315 0.07427781 -0.012023116 0.008531906 0.20667666 0.078199305 0.14914097
0.195408 -0.017554417 0.03322792 -0.048863657 0.013886932 -0.0030800218 0.12864345 0.035957526
-0.033829194 0.12124729 -0.07910369 0.071901195 -0.048599422 -0.014907533 0.04137039 0.049872883
0.049761757 -0.036481522 0.019865392 0.07598755 0.18407197 0.07057983 0.01936578 0.014037419
00000000: 9a2e b4bd f637 80bd 16af debd 9218 f13d
00000010: 6f9a 29bd cb54 863c 1156 fd3d 0456 b73d
00000020: 226e a5bd 96ad 3b3d d6b3 803d b016 a33d
00000030: f3e3 363e 27c8 103d 72d5 283d e94f 483d
00000040: efe5 463e f152 5b3e de13 a13d 565f e43d
00000050: 0bf1 f63d f4d8 12bd f416 04bd c030 5f3c
00000060: afa9 c73d 09cf dd3d 9f4a 193d a386 8b3d
00000070: 05e3 9f3d c4cb d13d 693b 60bd cdf2 9b3b
00000080: 6fe1 673d f0e8 eb3c cb74 6ebd ba24 103e
00000090: 3057 943d b437 f33d 7416 363b 12ba 5e3d
000000a0: f20c 643e a62e 98bc e0bd 263c 2702 2f3e
000000b0: ab7b f53d 43ae fdba b5f7 8fbb af72 eb3d
000000c0: b2c9 b93d 7c73 d63c 166f 643d 824b 363d
000000d0: 26bb 5dbc 75a1 893d f16d 533b fe96 013e
000000e0: a55d 6e3d 0dd6 4d3d 5464 f83d 684d 533d
000000f0: d67f be3d 1245 863d b29f 463c 43e7 223e
00000100: fc71 363e 30c2 1c3c dac5 083e 53b4 803d
00000110: bd89 343e 3ca2 3a3e 887d 923d 746c 303d
00000120: fc06 03be 2e27 7c3d b133 1d3d cce7 8bbd
00000130: 08d9 e3bd 172d 76bd 136a 3b3d e3db 98bd
00000140: 2b9c ae3d bd65 093d 09f7 ab3d 8e80 363e
00000150: 7aa1 153e 9cad 5c3e 5851 263e 2bef 353e
00000160: 5e3e 263d cd02 86bc ba0c 28bd 5f8a 9f3c
00000170: 175b 573d 1678 9cbd 9522 b6bd 39ff f13c
00000180: 07d8 88bd ccd0 863d 0892 f7bd b36a 483a
00000190: 614d 1abc 1589 4abc 9d3a 2cbd 406d a33d
000001a0: 0ac2 c23d 72af b4bb cbd2 273d 58ea 14bd
000001b0: 5b9f 903d 7c1f db3c 8cfb d03b e4f8 3abc
000001c0: e4a2 b93d 28d7 d13d 4537 1d3e e358 903d
000001d0: fa99 f33d 42a3 06bd c236 bd3d 2a95 92bd
000001e0: 3e88 02bc d17e dabc ecf5 9c3d 07dc 88bd
000001f0: 1d54 9bbd 02f7 9a3c d38a 783c 625c 74bd
00000200: 5187 a3bd 616a cf3d 89e0 1dbd 8098 4a3c
00000210: 5516 0b3e cafa 853d 53cf 5cbd 555d 5e3b
00000220: c468 2e3d b1e5 f03c e38f 753e d7e2 5f3e
00000230: 5a56 363e bb26 333d 81a9 033e 3882 cc3d
00000240: 136f 5d3d cc48 afbc c077 6abd d691 e2b9
00000250: 665e e63d 07ec 883d 14c0 253d f917 2dbd
00000260: f650 c23d 4d9a 0b3e c3eb a63d 8f5d f53d
00000270: a725 883c 64ec 5b3e c3f1 a83d c7f6 ff3c
00000280: cfb6 4a3e 7f8d 4cbc 8e04 0b3e a22e 90bd
00000290: ec4b f93d 2bdf cdbd f1d0 643d 38ef a63d
000002a0: 5815 ccbc cdc2 8d3b b9c9 e33d bb6d 81bd
000002b0: 30d5 c93d 5134 85bd 325e 103d 0ccf 043d
000002c0: 733b 8b3d 054d 84bd 918a 92bc ad1f 613d
000002d0: f7f0 443e 14c9 393e c652 ac3d afa3 663e
000002e0: f960 d63d 3c4d b13d 5570 253e 106f 503c
000002f0: aa2c 8d3c cbcf 443c 7ade 963d b0a9 483c
00000300: 23be d03d 6dc3 103e eb6a ce3d 436e d6ba
00000310: b22f ff3b deef bd3c 1815 c83d 9648 28bd
00000320: 78df 2b3d b2e6 663d 844c e93d f330 41bc
00000330: d7c2 19bd 33ab 36bd e7a5 a83d 8382 2c3e
00000340: 8f9a c83d 2f61 253c b997 283e 92b9 a63d
00000350: fe0e 683e cdad 0c3e abab 763d 70b0 f639
00000360: a0a5 ba3d e79b 2f3c 308d adbd 48d0 ac3b
00000370: 31b8 8cbd daaf 033e b545 163c f8b4 57bd
00000380: 09d0 cd3d d357 523e f71e 983d 9bfc 44bc
00000390: 68c9 0b3c 0ca3 533e f526 a03d 69b8 183e
000003a0: 0919 483e 48ce 8fbc 001a 083d 4225 48bd
000003b0: 0486 633c 31da 49bb 1cbb 033e 3348 133d
000003c0: 7b90 0abd 8050 f83d 1e01 a2bd ef40 933d
000003d0: 3010 47bd ba3e 74bc 0074 293d 8247 4c3d
000003e0: fcd2 4b3d a66d 15bd bfbc a23c 5c9f 9b3d
000003f0: 5d7d 3c3e 288c 903d fca4 9e3c 34fd 653c

model.decoder.conv3.bias f4 [16]
0.07938824 0.071376234 0.0980671 0.10656187 0.05325985 0.05336784 0.040509287 -0.054048553
0.10779536 0.041090038 -0.07636492 -0.086884126 -0.045914732 0.061721753 -0.08058121 -0.08661031
00000000: 4d96 a23d b42d 923d 67d7 c83d 1c3d da3d
00000010: 0027 5a3d 3c98 5a3d 11ed 253d 0462 5dbd
00000020: d0c3 dc3d 074e 283d 3665 9cbd 4ef0 b1bd
00000030: 1611 3cbd f3cf 7c3d c307 a5bd bf60 b1bd

model.decoder.conv4.weight f4 [1, 16, 3, 3]
-0.09651217 -0.09063143 -0.06466936 -0.050559647 -0.10679432 -0.0025260942 0.046612334 0.008176886
0.021326602 0.0015898462 0.011411723 -0.05943655 -0.08843876 -0.0063256263 -0.035903897 -0.0554434
0.002926243 -0.1030112 0.00198648 -0.06559063 0.044962388 -0.029352816 -0.13080588 -0.023144428
-0.10811946 -0.04487535 -0.055037946 -0.07898052 -0.046001516 0.024054155 -0.08190566 -0.097249724
0.02719984 0.020683963 -0.037689503 -0.10499421 -0.039372783 -0.00910625 0.027387926 -0.038431663
-0.017442698 0.01594266 -0.037487503 -0.10463978 -0.031975325 -0.0971227 -0.020784037 0.012717649
-0.10530258 -0.04854302 -0.029715406 -0.08567328 -0.080462106 -0.0024894227 -0.057083763 0.053951964
-0.019678855 -0.069844685 0.040839538 -0.014349822 0.02321277 0.018898707 0.044369347 -0.056742985
-0.071203165 0.03351647 -0.1042855 0.046035163 -0.101173274 -0.0711924 -0.01875348 -0.05476668
0.021578021 -0.046092965 -0.091845326 0.009758553 -0.08637969 -0.051928353 0.018206848 -0.0453679
-0.072519094 0.12830734 0.06335883 0.19401151 0.11176656 0.080186576 0.08116946 0.146583
0.10969699 0.10345922 -0.09505271 -0.16343875 -0.12065885 -0.12908635 -0.18386124 -0.17732202
0.027567374 -0.10382796 -0.12024422 0.007431154 -0.029324781 0.050999336 -0.037990306 -0.063775316
-0.014506058 0.029059697 -0.0626954 -0.0030635505 -0.1242964 -0.14630593 -0.12098714 -0.16275431
-0.14053096 -0.106800705 -0.080180466 -0.1489139 -0.044249542 0.0338199 0.169524 0.1695794
0.14964758 0.076235846 0.1593732 0.1624729 0.1639757 0.16019787 -0.064602196 -0.08585353
-0.17945454 -0.19845048 -0.14065836 -0.17074604 -0.18315922 -0.086674094 -0.15626788 0.072200686
-0.021329535 0.060230665 -0.080965206 0.039230496 0.025545113 0.019388227 0.0032412393 -0.0016295748
00000000: 2ca8 c5bd f99c b9bd 5f71 84bd a217 4fbd
00000010: fbb6 dabd d48c 25bb 93ec 3e3d 58f8 053c
00000020: 20b5 ae3c 6362 d03a 3cf8 3a3c bd73 73bd
00000030: 611f b5bd 3347 cfbb f70f 13bd 9e18 63bd
00000040: 36c6 3f3b 89f7 d2bd 9b2f 023b 6154 86bd
00000050: 7b2a 383d 5175 f0bc faf1 05be 6299 bdbc
00000060: bc6d ddbd 37cf 37bd 786f 61bd 8ac0 a1bd
00000070: 166c 3cbd 380d c53c 28be a7bd dd2a c7bd
00000080: 33d2 de3c 6a71 a93c 4f60 1abd 3407 d7bd
00000090: 5b45 21bd 6132 15bc a55c e03c 856a 1dbd
000000a0: fde3 8ebc 2e9a 823c 7f8c 19bd 624d d6bd
000000b0: 8ff8 02bd 44e8 c6bd 4943 aabc b05d 503c
000000c0: e1a8 d7bd 0cd5 46bd b96d f3bc 7975 afbd
000000d0: 51c9 a4bd 9525 23bb aad0 69bd bcfc 5c3d
000000e0: 8d35 a1bc bb0a 8fbd 5c47 273d 841b 6bbc
000000f0: b528 be3c 76d1 9a3c a2bc 353d 556b 68bd
00000100: f7d2 91bd 9148 093d a393 d5bd 5e8f 3c3d
00000110: ef33 cfbd 52cd 91bd e6a0 99bc 0753 60bd
00000120: 64c4 b03c facb 3cbd 6719 bcbd 56e2 1f3c
00000130: d6e7 b0bd d3b2 54bd 8726 953c b1d3 39bd
00000140: e484 94bd 0063 033e 46c2 813d f4aa 463e
00000150: dee5 e43d dc38 a43d 2d3c a63d db19 163e
00000160: d1a8 e03d 6de2 d33d ffaa c2bd 7d5c 27be
00000170: fd1b f7bd 362f 04be 1f46 3cbe e793 35be
00000180: f9d4 e13c c1a3 d4bd 9a42 f6bd 0a81 f33b
00000190: 863a f0bc aee4 503d b99b 1bbd a29c 82bd
000001a0: d1aa 6dbc 9a0e ee3c 7266 80bd d9c5 48bb
000001b0: 1c8f febd 39d1 15be 1bc8 f7bd 11a9 26be
000001c0: 59e7 0fbe 54ba dabd a835 a4bd e37c 18be
000001d0: 023f 35bd bc86 0a3d b397 2d3e 39a6 2d3e
000001e0: 373d 193e 8a21 9c3d ba32 233e 4c5f 263e
000001f0: 3fe9 273e e90a 243e 284e 84bd fad3 afbd
00000200: eec2 37be 9a36 4bbe bf08 10be 0dd8 2ebe
00000210: 178e 3bbe 3082 b1bd b004 20be f4dd 933d
00000220: 47bb aebc 6eb4 763d 16d1 a5bd 28b0 203d
00000230: fc43 d13c 0fd4 9e3c f96a 543b 7597 d5ba

exp_avg f4 [16, 1, 3, 3]
2.8522806e-11 7.305722e-09 4.30449e-09 7.73525e-11 8.650355e-09 2.5819118e-09 2.112803e-09 3.0262e-09
1.5738941e-11 -0.00011063043 -0.00022152 -3.5618745e-05 -0.00011226279 -0.00021816354 -6.9291473e-06 -0.0001587199
-0.00021785095 -2.167632e-05 -6.909677e-05 3.2126827e-05 6.433238e-05 -6.719691e-05 4.500628e-05 2.3018192e-05
-5.5539243e-05 5.9132617e-05 6.272004e-05 -0.0002467154 -0.00018466647 -0.0002931904 -0.0005353809 -0.00043591752
-0.00052884786 -0.00018438832 9.351123e-05 -5.1615712e-05 0.00017560576 -0.0002692957 -0.0005910871 -0.0002361743
-0.0008394566 -0.0009680341 -4.9036822e-05 -0.00037236424 -0.0006128234 -0.0007602736 -0.0007932456 -0.00088168145
-0.00036548387 -0.00040588834 -0.000503831 -0.00026875807 -0.00043648362 -0.00045811245 -5.5526954e-05 0.00016742923
0.00042570406 -0.00021864197 -0.00018177311 3.8428407e-05 -0.00033368106 -0.00044885481 -0.00029719772 -6.4310036e-05
-8.381906e-05 -0.00010739092 0.00018659541 0.00014727491 8.089564e-05 0.00022608196 4.21022e-05 -9.181789e-05
-0.00045664507 -0.00054860715 -0.0004718101 -0.00017997902 -0.0003004156 -0.00031535045 0.00032414641 0.00011913653
6.137295e-05 -0.00031046628 -0.00037481263 -0.0004614082 -0.0006368973 -0.00087313727 -0.0010279337 -0.00020740894
-0.00047654062 -0.0006638562 -0.00019724679 -3.0842817e-05 0.00013041397 -0.000102979444 -3.1731237e-05 0.00014417374
-0.0005144906 -0.0006412724 -0.00033500118 -0.00014501096 -5.3882413e-05 2.4007479e-05 -0.00018428171 -0.00034402576
-0.00052512804 -0.000118466094 -0.00044791464 -0.0005113374 -0.0003088078 -0.00021162831 -0.00011828892 -0.00053525943
-0.00069513085 -0.0006975415 -0.00022725019 -0.00035137977 -0.00043916848 0.00014360165 0.00036375687 0.00028413284
-0.00019155299 -9.325558e-05 -1.77362e-05 -0.00044922056 -0.00043437092 -0.00026862166 0.00013152855 0.0003285988
0.00028662174 -4.0269326e-05 8.113665e-05 4.9470647e-05 -8.971217e-05 -3.3408855e-05 6.579561e-05 -3.0595118e-05
-4.2561955e-05 -0.00029096482 0.00029196925 0.00026195645 -1.6623297e-06 0.00052275456 0.0003527942 8.9181915e-05
00000000: a6e3 fa2d cf05 fb31 b2e6 9331 9619 aa2e
00000010: aa9c 1432 796d 3131 d330 1131 79f5 4f31
00000020: f270 8a2d 4302 e8b8 d247 68b9 5665 15b8
00000030: a06e ebb8 d4c2 64b9 ec80 e8b6 0c6e 26b9
00000040: eb6e 64b9 8bd5 b5b7 0ce8 90b8 ebbf 0638
00000050: 2fea 8638 11ec 8cb8 20c5 3c38 3117 c137
00000060: cff2 68b8 2a05 7838 9188 8338 9559 81b9
00000070: 07a3 41b9 59b7 99b9 ce58 0cba dc8b e4b9
00000080: 61a2 0aba 5d58 41b9 761b c438 f37d 58b8
00000090: d022 3839 4230 8db9 2ff3 1aba 8ea5 77b9
000000a0: fb0e 5cba abc3 7dba e3ac 4db8 e239 c3b9
000000b0: e2a5 20ba 194d 47ba d0f1 4fba a420 67ba
000000c0: 6a9e bfb9 69cd d4b9 8713 04ba 19e8 8cb9
000000d0: d7d7 e4b9 d02e f0b9 9de5 68b8 f18f 2f39
000000e0: 0831 df39 4243 65b9 599a 3eb9 302e 2138
000000f0: eaf1 aeb9 4654 ebb9 34d1 9bb9 30de 86b8
00000100: 04c8 afb8 1037 e1b8 d3a8 4339 cf6d 1a39
00000110: 84a6 a938 6a10 6d39 e596 3038 5b8e c0b8
00000120: dd69 efb9 67d0 0fba 485d f7b9 c0b8 3cb9
00000130: 1981 9db9 9f55 a5b9 32f2 a939 f0d8 f938
00000140: 5ab5 8038 14c6 a2b9 8082 c4b9 29e9 f1b9
00000150: 74f5 26ba 40e3 64ba bbbb 86ba ea7b 59b9
00000160: 33d8 f9b9 a306 2eba 08d4 4eb9 395d 01b8
00000170: bcbf 0839 abf6 d7b8 2817 05b8 582d 1739
00000180: e1de 06ba 101b 28ba 19a3 afb9 150e 18b9
00000190: cdff 61b8 ab63 c937 bf3b 41b9 5b5e b4b9
000001a0: bfa8 09ba 0071 f8b8 16d6 eab9 460b 06ba
000001b0: 7be7 a1b9 8be8 5db9 e111 f8b8 a750 0cba
000001c0: 7139 36ba 38db 36ba 024a 6eb9 6539 b8b9
000001d0: 3240 e6b9 c693 1639 9fb6 be39 aaf7 9439
000001e0: 9ddb 48b9 3592 c3b8 33c8 94b7 5d85 ebb9
000001f0: 47bc e3b9 cad5 8cb9 edea 0939 c947 ac39
00000200: b845 9639 dce6 28b8 e827 aa38 b47e 4f38
00000210: db23 bcb8 7c20 0cb8 c0fb 8938 4253 00b8
00000220: 8d84 32b8 a38c 98b9 7313 9939 3357 8939
00000230: 371d dfb5 7709 093a 3cf7 b839 2d07 bb38

exp_avg_sq f4 [16, 1, 3, 3]
8.590703e-22 2.9793828e-17 1.883047e-16 8.055775e-21 3.015017e-17 3.3033593e-17 1.6742314e-16 8.0887345e-18
7.7417204e-22 5.7738913e-07 5.515046e-07 7.208348e-08 4.456811e-07 2.3408552e-07 1.0244458e-08 3.9514018e-07
2.039541e-07 1.707387e-08 4.3678452e-07 3.4654525e-07 4.3121062e-07 1.3557789e-06 1.0620494e-06 1.2654392e-06
2.8201514e-06 2.502711e-06 1.9373795e-06 3.1539819e-06 2.0325385e-06 2.0931793e-06 3.1000511e-06 3.5249323e-06
4.300659e-06 3.0521746e-06 3.2428861e-06 3.3897168e-06 6.9721443e-07 8.211772e-07 7.355383e-07 6.9930184e-07
9.146332e-07 1.4019279e-06 3.3281063e-07 8.392912e-07 1.8278005e-06 9.3375085e-08 3.233043e-07 3.8358075e-07
1.6097471e-07 2.6781092e-07 1.6285821e-07 3.2454852e-07 2.7808747e-07 6.6454696e-08 7.2610055e-07 1.2180236e-06
1.4769813e-06 2.0231764e-06 2.727342e-06 1.8792496e-06 3.326073e-06 3.4728191e-06 2.41248e-06 6.6071885e-07
1.05997e-06 1.0799555e-06 5.798976e-07 7.3635084e-07 7.69912e-07 5.5315274e-07 8.585362e-07 1.0230468e-06
1.1044162e-06 1.6471218e-06 1.3012202e-06 8.6192324e-07 1.228763e-06 7.036255e-07 4.871287e-07 5.815156e-07
3.9705756e-07 8.9822277e-07 1.6914437e-06 1.7226852e-06 9.3835683e-07 1.8486179e-06 1.7079493e-06 1.0069471e-06
1.52565e-06 1.0945905e-06 2.15061e-06 1.8021233e-06 8.750735e-07 2.7508286e-06 1.5334716e-06 8.786775e-07
3.3419174e-06 2.7447884e-06 2.0799105e-06 7.15407e-07 2.123296e-06 2.811931e-06 1.710669e-06 3.4209527e-06
4.031663e-06 3.8012208e-06 4.9114497e-06 3.553224e-06 1.2466459e-06 3.1833126e-06 3.333033e-06 2.8321151e-06
4.8352904e-06 4.416312e-06 4.1540748e-06 4.4062144e-06 3.112365e-06 6.913749e-07 3.8088677e-07 1.0397209e-07
1.3406038e-06 4.4887506e-07 1.6375343e-07 1.3384405e-06 8.275134e-07 4.7460773e-07 1.070578e-07 4.122147e-08
1.5348807e-08 1.6579018e-07 2.7229476e-08 6.745035e-10 1.5839485e-07 3.822687e-08 2.7516098e-09 6.9126224e-07
7.5421735e-07 9.463952e-07 4.2774988e-07 4.9016586e-07 3.1711923e-07 2.7667386e-07 1.5133426e-07 2.5706633e-08
00000000: acd1 811c 5866 0924 bd19 5925 562b 181e
00000010: 0a0b 0b24 2f57 1824 9706 4125 f835 1523
00000020: a9fa 691c e1fd 1a35 1c0b 1435 50cc 9a33
00000030: f245 ef34 f058 7b34 9aff 2f32 a723 d434
00000040: 7afe 5a34 d6a9 9232 357f ea34 d10c ba34
00000050: 2381 e734 35f8 b535 bd8b 8e35 29d8 a935
00000060: d541 3d36 3ff4 2736 ed03 0236 ffa8 5336
00000070: bf66 0836 8c78 0c36 790a 5036 e08d 6c36
00000080: 614e 9036 f6d3 4c36 5ca0 5936 e47a 6336
00000090: 3628 3b35 de6e 5c35 cf71 4535 a8b7 3b35
000000a0: 1d85 7535 e029 bc35 25ad b234 a74b 6135
000000b0: bf52 f535 7f85 c833 9b92 ad34 f0ee cd34
000000c0: 64d8 2c34 a7c7 8f34 20de 2e34 9c3d ae34
000000d0: 0d4c 9534 dbb5 8e33 40e9 4235 f97a a335
000000e0: b13c c635 e8c5 0736 6107 3736 863a fc35
000000f0: 8035 5f36 940e 6936 17e6 2136 415c 3135
00000100: 4b44 8e35 fdf2 9035 42aa 1b35 a5a9 4535
00000110: f3ab 4e35 5e7c 1435 2976 6635 9f4f 8935
00000120: 743b 9435 ad12 dd35 96a5 ae35 ea5e 6735
00000130: faeb a435 c7e0 3c35 3bc3 0235 7319 1c35
00000140: 2d2b d534 661d 7135 9005 e335 0337 e735
00000150: 64e3 7b35 071e f835 b13c e535 7026 8735
00000160: efc4 cc35 d8e9 9235 3353 1036 7ce0 f135
00000170: 98e6 6a35 e09a 3836 afd1 cd35 42de 6b35
00000180: b445 6036 1b33 3836 9794 0b36 650a 4035
00000190: f37d 0e36 9bb4 3c36 249a e535 8593 6536
000001a0: b947 8736 7a18 7f36 08cd a436 ec73 6e36
000001b0: 6d52 a735 e5a0 5536 12ad 5f36 5e0f 3e36
000001c0: d43e a236 d52f 9436 3b63 8b36 18d9 9336
000001d0: 06de 5036 ec96 3935 ae7c cc34 4347 df33
000001e0: ccee b335 ebfc f034 33d4 2f34 77a4 b335
000001f0: 4a22 5e35 97cd fe34 a6e7 e533 7c0b 3133
00000200: 62d8 8332 0f04 3234 40e6 e932 f767 3930
00000210: 3f13 2a34 e32e 2433 d516 3d31 2e8f 3935
00000220: 6c75 4a35 c80b 7e35 7fa5 e534 f193 0335
00000230: 8940 aa34 c489 9434 727e 2234 7cd1 dc32

exp_avg f4 [16]
4.693811e-09 -0.0005500012 -0.0003689365 -0.0012094683 -0.001564498 -0.00076284254 0.0007877647 -0.00055462704
-0.001052514 0.00034066048 -0.0019656194 0.00031213748 0.00046078605 -0.0008570841 -0.00013786116 -0.00041625556
00000000: 3347 a131 f52d 10ba d26d c1b9 0687 9eba
00000010: d70f cdba 7ff9 47ba fe81 4e3a 6464 11ba
00000020: 82f4 89ba ad9a b239 9fd1 00bb 62a6 a339
00000030: a895 f139 f1ad 60ba d38e 10b9 e03c dab9

exp_avg_sq f4 [16]
1.9322864e-16 1.1645442e-05 1.4368582e-05 8.0274385e-06 2.989049e-06 1.4176508e-06 1.2280479e-05 1.9198142e-06
1.9710583e-06 4.545877e-06 7.150978e-06 1.545079e-05 1.7762943e-05 2.1254727e-06 2.0727691e-07 1.1816819e-06
00000000: 07c7 5e25 cb60 4337 9710 7137 96ad 0637
00000010: 7997 4836 1c46 be35 4108 4e37 28d6 0036
00000020: 8646 0436 c988 9836 6ff2 ef36 529c 8137
00000030: a101 9537 58a3 0e36 d88f 5e34 489a 9e35
