09-Autoencoders/lightning_logs/version_3/checkpoints/best_model_val_loss=0.1074119359254837.ckpt (torch, 72488 bytes, 39 tensors)

model.encoder.conv1.weight f4 [16, 1, 3, 3]
0	0x3d82d0e9	0.06387503
1	0x3ea5b70e	0.32366222
2	0x3e35e156	0.1776174
3	0x3ec0bd7f	0.37644574
4	0xbe618db4	-0.22026712
5	0x3e39102a	0.18072572
6	0x3e08f704	0.13375479
7	0x3e9eaca6	0.30991095
8	0x3ef9c126	0.48780173
9	0x3e406a4f	0.18790554
10	0x3e2c1c7f	0.16807745
11	0x3dbdc69b	0.092663966
12	0x3ee1bd2a	0.44089633
13	0xbdeb08ba	-0.11476274
14	0x3f33afcd	0.70190126
15	0xbbaedced	-0.005336395
16	0xbe561bb0	-0.20909
17	0x3e9a488b	0.3013347
18	0x3e36ceac	0.17852277
19	0x3e8e39dd	0.2777852
20	0x3e86ddf6	0.26341218
21	0x3e76b79f	0.24093483
22	0xbe957d37	-0.29197094
23	0xbcb5e622	-0.022204462
24	0x3ea56655	0.32304636
25	0x3eb20890	0.34772158
26	0x3e232389	0.15931524
27	0xbe5484e5	-0.2075382
28	0x3eb06404	0.34451306
29	0x3d68cfeb	0.05683891
30	0x3e6d93ae	0.23200867
31	0x3f71ee22	0.94503987
32	0x3ed8f0b2	0.42371136
33	0x3e06ef28	0.13177168
34	0x3eaff1df	0.3436422
35	0xbdc73eda	-0.09728785
36	0xbc91b3fb	-0.017786017
37	0xbdfea525	-0.124338426
38	0xbc23c652	-0.009996014
39	0x3eac362c	0.3363508
40	0xbe0e7ac2	-0.13914016
41	0x3d7acd4c	0.061230943
42	0x3e323723	0.17403845
43	0x3d9a1be5	0.07524852
44	0x3e0f1fc3	0.1397696
45	0x3ec6b5df	0.38810632
46	0x3ec42fdb	0.3831776
47	0x3e5322d1	0.2061875
48	0x3eb90fd4	0.36144888
49	0x3e0a04f6	0.13478455
50	0xbdab1315	-0.08353249
51	0xbd5d1150	-0.05397159
52	0x3ee7ee93	0.45299205
53	0xbe8119a1	-0.25214866
54	0x3d6f06eb	0.058356207
55	0x3e59dc18	0.21275365
56	0x3e200d52	0.15630081
57	0x3ea6f677	0.32609913
58	0x3ce4cd9a	0.02793007
59	0x3e2b3f07	0.16723262
60	0x3e46e304	0.19422537
61	0x3e270092	0.16308811
62	0x3e69c44a	0.22828785
63	0x3e12cea8	0.14336646
64	0x3ec3401b	0.38134846
65	0xbed3580e	-0.41278118
66	0x3e4aa519	0.19789542
67	0xbe2c855b	-0.16847746
68	0xbecab468	-0.39590764
69	0x3f26b175	0.6511453
70	0x3e606d46	0.21916685
71	0x3da64464	0.08118513
72	0x3e9c6144	0.30542958
73	0x3e336eca	0.17522731
74	0xbcae10d2	-0.021248255
75	0x3d9e94b3	0.07743206
76	0x3e99992e	0.2999968
77	0x3e9dff33	0.30858764
78	0xbd2779ea	-0.04088775
79	0x3cafdd7a	0.021467913
80	0x3ec3857f	0.38187787
81	0xbeadc98c	-0.3394283
82	0xbe2801fa	-0.16407004
83	0x3e9c5788	0.3053553
84	0x3d117b58	0.03551802
85	0xbe9833b2	-0.2972694
86	0xbe69039c	-0.22755283
87	0xbebd5859	-0.36981466
88	0x3d5fa05d	0.054596294
89	0x3e46adab	0.19402187
90	0x3efb2c4f	0.49057242
91	0x3df9a39a	0.12189408
92	0xbecaaefa	-0.39586622
93	0x3e547164	0.2074638
94	0x3e1ffc93	0.15623693
95	0xbf07a05a	-0.5297905
96	0x3bf6741a	0.0075211646
97	0xbe889805	-0.26678482
98	0xbf82d5f9	-1.0221549
99	0xbe86d740	-0.26336098
100	0x3d38f4a3	0.04515518
101	0xbe8e9d20	-0.27854252
102	0x3dfb701b	0.12277242
103	0x3ed85194	0.4224974
104	0xbc78fc5a	-0.015196884
105	0xbd61ffc0	-0.055175543
106	0x3f0735f8	0.52816725
107	0x3ec428e5	0.3831245
108	0xbeda3a16	-0.4262244
109	0xbda16b4e	-0.07881795
110	0x3de7a82a	0.113113716
111	0xbede5a3d	-0.4342822
112	0x3dccfff9	0.100097604
113	0x3eb513ad	0.35366574
114	0xbf06dc2a	-0.52679694
115	0xbec9b6b6	-0.3939721
116	0x3e9e15cc	0.30876005
117	0x3e96abee	0.29428047
118	0x3ee1008c	0.4394573
119	0x3d1d4cbc	0.038403258
120	0xbe90538b	-0.28188738
121	0x3e4ebee0	0.2019
122	0x3eb8819f	0.36036393
123	0xbe9bfe9b	-0.30467686
124	0xbe587465	-0.21138151
125	0xbe4cf0fa	-0.200138
126	0x3e12127c	0.14264864
127	0x3e8ff72f	0.28118274
128	0xbe746931	-0.23868252
129	0x3dbb653a	0.09150167
130	0x3ef975e5	0.4872276
131	0x3e8ec7cc	0.27886808
132	0xbd8f12b4	-0.06985989
133	0xbc4fe868	-0.012689687
134	0x3e3104a2	0.17286924
135	0x3d8b54e6	0.068033025
136	0x3ebe8c76	0.37216538
137	0x3e54d498	0.20784223
138	0x3e94d411	0.29068044
139	0x3f4d2f10	0.80149937
140	0x3cbd93ee	0.023141827
141	0xbcfb989f	-0.030712424
142	0x3e270228	0.16309416
143	0x3edced93	0.43150005

model.encoder.conv1.bias f4 [16]
0	0xbeab56ed	-0.33464757
1	0x3bdd9a20	0.006762758
2	0x3c024d88	0.007953055
3	0x3cd286cd	0.025699044
4	0x3ed1357f	0.40861127
5	0xb9dcb892	-0.00042099186
6	0xbe9b46ea	-0.3032754
7	0xba41d651	-0.00073943014
8	0xbee3ac31	-0.4446731
9	0x3edb8c32	0.42880398
10	0xba63b107	-0.0008685742
11	0x3c3d40d3	0.0115511
12	0x3ecb48fd	0.39704123
13	0x3ee5bc20	0.4487009
14	0x3ddec8cd	0.108781435
15	0x3c688a2c	0.014193099

model.encoder.conv2.weight f4 [8, 16, 3, 3]
0	0xbd0d0dde	-0.034437053
1	0xbbbfdfd5	-0.0058555403
2	0x3d777dc7	0.060422685
3	0x3cdeb7d0	0.027187258
4	0xbdcd688c	-0.10029706
5	0xbd485638	-0.04891035
6	0xbd80971a	-0.0627882
7	0xbe172017	-0.14758335
8	0xbe3d08a0	-0.18460321
9	0x3dc675de	0.0969045
10	0x3dfc7035	0.12326089
11	0xbd1d7df1	-0.038450185
12	0x3de86d93	0.113490246
13	0x3e3b1807	0.18270884
14	0x3e84e95b	0.25959286
15	0x3e10d4f2	0.14143732
16	0x3df8e748	0.121534884
17	0x3d84b27e	0.06479357
18	0x3d5408ab	0.05176608
19	0x3dbd9153	0.09256234
20	0x3de61cde	0.11235975
21	0x3d2290b7	0.039688792
22	0x3c7409f8	0.014894955
23	0x3d402940	0.04691434
24	0x3d3dff2b	0.046385925
25	0x3dd386b6	0.103284284
26	0xbcd0bf34	-0.025481798
27	0x3e4dcd47	0.20097838
28	0x3e2e50fc	0.1702308
29	0xbba5584b	-0.0050459257
30	0x3e14c989	0.14530005
31	0x3e9788d7	0.29596588
32	0x3e51f7fa	0.20504752
33	0x3d259127	0.04042163
34	0x3e305fa6	0.17223987
35	0x3dcc97fc	0.09989926
36	0x3bf95148	0.0076085664
37	0xbc8ae7d1	-0.016956242
38	0x3de60c0c	0.112327665
39	0x3d1ba4b2	0.037998863
40	0x3d4652ae	0.048418693
41	0x3d86c235	0.06580011
42	0x3d9c9b2a	0.07646783
43	0x3b8490ab	0.004045566
44	0xbc522479	-0.012826079
45	0x3cdd6143	0.027023917
46	0x3e340bb6	0.17582592
47	0x3dc7ec5f	0.09761881
48	0x3dd14946	0.10219054
49	0x3d9e2661	0.07722164
50	0x3dae9566	0.08524589
51	0x3d7d39c7	0.06182268
52	0x3dd10720	0.10206437
53	0x3db6fc91	0.08934892
54	0x3c8c97db	0.017162254
55	0xbd9af9ea	-0.075671986
56	0xbcedcc33	-0.029028034
57	0x3cd89657	0.026438875
58	0xbdd803a4	-0.105475694
59	0x3d5a4b11	0.053294245
60	0x3afee549	0.0019446994
61	0x3c1ec999	0.009691619
62	0xbcb157df	-0.021648346
63	0x3cfb5890	0.030681878
64	0x3e6e9c08	0.23301709
65	0x3df7e33f	0.12103891
66	0x3da41509	0.08011825
67	0x3e23f439	0.16011132
68	0x3d928b51	0.07155479
69	0x3d4b4fbc	0.049636588
70	0x3d4b8dd5	0.04969581
71	0x37acc537	2.0595833e-05
72	0xbdbe86f2	-0.093030825
73	0xbdc6c94c	-0.09706363
74	0xbd759ee7	-0.059965994
75	0xbd84a6b6	-0.0647711
76	0xbd9043e8	-0.07044202
77	0xbc879ff5	-0.016555766
78	0xbe20afd0	-0.15692067
79	0xbdd82cc7	-0.105554156
80	0xbe36545d	-0.1780562
81	0x3ceeb182	0.029137377
82	0xbd4ebeb6	-0.050474845
83	0xbc15a231	-0.009132908
84	0xbd8c1665	-0.06840209
85	0xbc15bbd9	-0.009139025
86	0x3d2c623a	0.042085864
87	0xbc1031f0	-0.0088009685
88	0x3c794e0f	0.0152163645
89	0xbc8a815d	-0.016907388
90	0xbe8121e8	-0.2522118
91	0x3e33b67c	0.17550081
92	0x3e013935	0.12619479
93	0x3d32478c	0.043525264
94	0x3e8b1569	0.27164772
95	0xbdcbaee6	-0.099454686
96	0x3de0ac7c	0.10970399
97	0x3dd2d6dd	0.10294888
98	0x3cb17f7b	0.021667233
99	0x3db1cd18	0.08681697
100	0x3dc81feb	0.09771713
101	0xbd4a932a	-0.049456753
102	0x3cf273e3	0.029596275
103	0x3d5bb821	0.053642396
104	0x3dbc345a	0.09189673
105	0xbd6112bb	-0.054949503
106	0x3bb79c39	0.00560334
107	0xbdf39b57	-0.11894863
108	0x3da7b131	0.081880935
109	0xbd0aeb75	-0.033915956
110	0xbd5ab70d	-0.053397227
111	0x3caa886f	0.02081701
112	0xbd2c4537	-0.042058196
113	0x3cfdd24a	0.030984063
114	0xbd27509a	-0.040848352
115	0xbd0c37d4	-0.03423293
116	0x3dab05e7	0.08350735
117	0x3da382ed	0.079839565
118	0x3e09b1bf	0.13446711
119	0xbd4f21a9	-0.05056921
120	0x3da9388d	0.08262739
121	0x3dd6af4a	0.104826525
122	0x3d761ac4	0.06008412
123	0x3d47a911	0.04874522
124	0x3c87a252	0.016556893
125	0x3df44193	0.1192657
126	0x3c943ae5	0.01809449
127	0x3e00daca	0.12583461
128	0xbc51409f	-0.0127717545
129	0x3e27a81e	0.16372725
130	0x3dc62653	0.096752785
131	0x3d7db5da	0.061941005
132	0x3d9cc0be	0.0765395
133	0x3de8f6cd	0.113751985
134	0xba33e472	-0.0006862349
135	0x3e098116	0.13428149
136	0x3ea82615	0.32841554
137	0x3e498c1c	0.19682354
138	0x3e4f183f	0.20224093
139	0x3e96369a	0.29338533
140	0x3e5fc4d4	0.21852428
141	0x3dce86a0	0.100842714
142	0x3e8499fa	0.25898725
143	0x3e3a8b9d	0.1821732
144	0xbe9d57d4	-0.3073107
145	0xbe9f25d1	-0.3108354
146	0xbe24f3ca	-0.16108623
147	0xbdc4d48f	-0.09610855
148	0xbe714658	-0.2356199
149	0xbe2162e2	-0.15760377
150	0xbe8a4cb0	-0.27011633
151	0xbe3ae903	-0.1825295
152	0xbed43358	-0.41445422
153	0x3dad4a76	0.08461468
154	0xbc0da87d	-0.008646128
155	0x3d5f0c9c	0.054455385
156	0x3d627797	0.05528983
157	0x3df29466	0.11844711
158	0x3e057b43	0.13035302
159	0xbd28bf8d	-0.041198302
160	0x3dd9de4b	0.10638102
161	0x3d86737b	0.06564995
162	0xbdeb7fa1	-0.11498953
163	0xbdb5d9b4	-0.08879414
164	0xbd7d5619	-0.061849687
165	0xbce92f9f	-0.02846509
166	0xbda36c16	-0.079796
167	0x3c9e98bd	0.01935994
168	0xbddaf525	-0.10691289
169	0xbda00079	-0.0781259
170	0xbd95f2c1	-0.07321692
171	0x3e20a13b	0.15686505
172	0x3e336241	0.1751795
173	0x3dd707c4	0.10499528
174	0x3e247a4f	0.16062282
175	0x3e477870	0.19479537
176	0x3e5a074e	0.21291849
177	0xbc8e185f	-0.017345605
178	0x3de50e9f	0.111844294
179	0x3dbbdf8a	0.09173496
180	0x3d9a6fff	0.07540893
181	0x3e16cfaa	0.14727655
182	0x3e08f40a	0.13374344
183	0x3e2d369b	0.16915362
184	0x3e29573e	0.16537187
185	0x3e01e639	0.12685479
186	0x3cfac1ee	0.030610051
187	0x3d6cef72	0.05784554
188	0x3c82fc27	0.015989376
189	0xbd8b8107	-0.068117194
190	0x3d9f1eae	0.077695236
191	0xbd31c2d7	-0.043398704
192	0x3d646090	0.05575615
193	0xbd13ee60	-0.036116004
194	0xbdcf0575	-0.10108463
195	0xbd015ea2	-0.03158439
196	0xbd37c7b9	-0.044868205
197	0x3cbbd724	0.022929735
198	0xbdcc655f	-0.099802725
199	0xbe176ec1	-0.14788343
200	0xbe3bf7ee	-0.18356296
201	0xbdeb4fc1	-0.11489821
202	0xbd90358e	-0.07041465
203	0xbde85338	-0.11343998
204	0xbda7de1c	-0.08196661
205	0xbe54e25e	-0.20789477
206	0xbe5d412e	-0.21606895
207	0x3eacf086	0.33777255
208	0x3defb21a	0.11703892
209	0x3df48699	0.11939735
210	0x3e5d7957	0.21628319
211	0x3e008d78	0.12553966
212	0x3e1d36e9	0.15352978
213	0xbe5e7239	-0.2172326
214	0xbd0ccfab	-0.034377735
215	0xbb107c6a	-0.0022046813
216	0xbdc425f4	-0.095775515
217	0xbe4e1a27	-0.20127164
218	0xbe544c5f	-0.20732258
219	0xbd5325ff	-0.051549908
220	0xbe397fb3	-0.1811512
221	0xbe219e17	-0.15782963
222	0xbe6988f8	-0.22806156
223	0xbe1289e1	-0.14310409
224	0xbea27b82	-0.31734854
225	0x3e023a28	0.12717497
226	0x3d86c913	0.065813206
227	0x3df57da8	0.11986858
228	0xbd3d79e2	-0.046258815
229	0x3d3dee6f	0.046369966
230	0x3d15f1ed	0.03660767
231	0x3c7d9d7d	0.015479443
232	0x3dcd0fb9	0.100127645
233	0xbc333793	-0.010938543
234	0xbcb0c961	-0.0215804
235	0x3cd7e677	0.026355011
236	0x3e7beae9	0.2460133
237	0x3dfc1194	0.1230804
238	0x3c97405c	0.018463306
239	0x3c8a352d	0.01687106
240	0x3e703c88	0.23460591
241	0x3e37bc33	0.17942886
242	0x3e6dd801	0.2322693
243	0x3e0877ea	0.13326994
244	0x3da37db4	0.0798296
245	0xbbe8329f	-0.0070861126
246	0x3cbec3e3	0.023286765
247	0x3dff629d	0.12469981
248	0x3e88dae6	0.26729506
249	0x3d85c8b2	0.0653242
250	0x3ce5cfb3	0.02805314
251	0xbd4e51d3	-0.050371002
252	0x3d4c4428	0.049869686
253	0x3e1e62ad	0.1546733
254	0x3d4f6760	0.050635695
255	0xbe2910bb	-0.16510288

model.encoder.conv2.bias f4 [8]
0	0xbd1b245d	-0.037876476
1	0x3e101f9c	0.14074558
2	0x3e225b66	0.15855178
3	0x3dd416f5	0.10355941
4	0x3e1bad40	0.15202808
5	0xbc617783	-0.013761404
6	0x3d8e4ecb	0.06948622
7	0xbdc6ef2e	-0.09713589

model.encoder.conv3.weight f4 [8, 8, 3, 3]
0	0xbdd5cefc	-0.1043987
1	0xbde87e77	-0.11352246
2	0xbcace37e	-0.02110457
3	0x3d9ce80a	0.076614454
4	0xbd8597d1	-0.06523097
5	0xbd83051f	-0.06397461
6	0xbdc8d18b	-0.09805592
7	0xbda90078	-0.082520425
8	0xbd6f79ff	-0.058465954
9	0xbde3b7fc	-0.111190766
10	0xbd7f9ebb	-0.062407237
11	0xbde1191c	-0.10991117
12	0xbd4456dc	-0.047934398
13	0x3d3a2462	0.045444854
14	0xbdeb9791	-0.115035184
15	0x3d971fe0	0.073791265
16	0xbddc708b	-0.10763653
17	0xbbce87e4	-0.0063028205
18	0xbdab43d9	-0.0836255
19	0xbdc90e25	-0.09817151
20	0x3d82f885	0.063950576
21	0x3cb7a7ea	0.022418935
22	0xbe023e37	-0.12719046
23	0x3d1fd7ed	0.039024282
24	0x3d2b2867	0.041786578
25	0x3d8950a3	0.06704833
26	0x3d5180de	0.051148288
27	0xbd7878f8	-0.06066224
28	0x3da0273f	0.078199856
29	0xbc87c424	-0.01657302
30	0x3c185167	0.009296752
31	0xbe00fceb	-0.1259648
32	0xbcca6af3	-0.0247092
33	0xbdc2c475	-0.095101275
34	0xbd5ed738	-0.054404467
35	0x3d39268d	0.04520278
36	0xbdc6e622	-0.09711863
37	0x3d8bdea8	0.06829578
38	0x3c98c7be	0.018649932
39	0xbbc1d93a	-0.005915788
40	0xbcdadf6d	-0.026717866
41	0xbcd6f814	-0.02624134
42	0xbddc7f0a	-0.10766418
43	0xbd278e8c	-0.040907428
44	0xbe036ca8	-0.12834418
45	0x3d335d9d	0.04379045
46	0xbd5c3c59	-0.05376849
47	0xbdd33cb7	-0.10314315
48	0xbdac546a	-0.08414538
49	0x3ddd5d58	0.108088195
50	0xbdc5dfcc	-0.096618265
51	0x3ddec23a	0.108768895
52	0x3dd702f2	0.10498609
53	0x3d8863eb	0.06659683
54	0xbd92c008	-0.07165533
55	0x3b58c19d	0.0033074387
56	0xbd86a3ee	-0.06574236
57	0x3d4dc424	0.050235882
58	0xbde52d09	-0.111902304
59	0xbd61f240	-0.05516267
60	0x3db35066	0.08755569
61	0xbd93f4c3	-0.07224419
62	0x3cc08c29	0.023504334
63	0xbafad27b	-0.0019136214
64	0xbd0c36a0	-0.034231782
65	0xbc9e155f	-0.0192973
66	0xbbc88ac8	-0.0061200596
67	0xbd718934	-0.058968738
68	0xbddaa0c7	-0.10675197
69	0xbd9282b6	-0.071538374
70	0xbdcd24f0	-0.10016811
71	0xbcaa7be6	-0.020811033
72	0xbe17eac1	-0.14835645
73	0x3c640e98	0.013919495
74	0x3cb27192	0.02178267
75	0x3c530a4a	0.012880871
76	0xbde5798a	-0.11204822
77	0xbde937b6	-0.11387579
78	0x3c84e97b	0.016224613
79	0xbce458c2	-0.027874354
80	0xbd98745e	-0.0744407
81	0xbbbfa4ca	-0.005848502
82	0x3d0cca6c	0.034372732
83	0xbd620456	-0.055179916
84	0xbdb7311d	-0.089449145
85	0x3dad3449	0.08457238
86	0xbdc10a6e	-0.094258174
87	0xbd8b38c9	-0.0679794
88	0x3cdcd95f	0.02695912
89	0x3af2b686	0.0018517531
90	0x3cc9d1a2	0.024636094
91	0xbdab2e26	-0.083584115
92	0x3c69eba5	0.014277373
93	0x3b759ae0	0.0037476346
94	0xbe2a0570	-0.16603637
95	0x3d9d117d	0.07669351
96	0xbb9e6eb4	-0.004834974
97	0xbe01966d	-0.12655039
98	0xbdee881a	-0.11647053
99	0xbcc9de65	-0.024642179
100	0xbdf1b3cf	-0.11801874
101	0xbd7cd5ed	-0.061727453
102	0x3c5bd9b8	0.013418607
103	0x3da0d4d7	0.07853096
104	0x3d18a330	0.037265003
105	0xbd8a69c1	-0.06758452
106	0xba7c3e14	-0.00096222875
107	0x3d392bf9	0.04520795
108	0xbd864c0c	-0.065574735
109	0xbd470de9	-0.04859725
110	0xbd847508	-0.064676344
111	0xba153e15	-0.000569315
112	0xbda99a63	-0.082814
113	0xbd737fdd	-0.05944811
114	0xbd7a6f55	-0.06114133
115	0xbcd9944f	-0.026559977
116	0x3d64dea5	0.055876393
117	0x3d692e3a	0.05692885
118	0xbdac1a7e	-0.084034905
119	0xbd8213da	-0.06351443
120	0x3dc7242d	0.09723697
121	0x3d6c0dd1	0.057630364
122	0x3d459e06	0.048246406
123	0x3c582b0c	0.013193857
124	0x3d35f6fb	0.044424992
125	0xbd9c3814	-0.076278836
126	0x3d43647a	0.047703244
127	0x3ca22532	0.019793127
128	0xbd0ee668	-0.0348877
129	0xbdb3a725	-0.08772115
130	0x3d04df2a	0.03243939
131	0x3928c92d	0.00016096672
132	0x3ad2a948	0.0016072178
133	0xbd19195f	-0.03737771
134	0x3d86a13f	0.06573724
135	0x3d1e5837	0.038658347
136	0x3d99457c	0.07483956
137	0x3dd12980	0.102129936
138	0x3d977185	0.07394699
139	0xbda64433	-0.08118477
140	0xbcc89c1a	-0.024488498
141	0xbbff2137	-0.007785942
142	0x3c48ce8c	0.012256276
143	0xbde167a4	-0.11006096
144	0xbc653de0	-0.013991803
145	0x3ca61a8b	0.020276329
146	0x3c5ae365	0.013359879
147	0x3c9bbfba	0.01901232
148	0xbc0c4828	-0.008562125
149	0xbe5729d4	-0.2101205
150	0xbdc7187e	-0.097214684
151	0x3e09fe3a	0.13475886
152	0x3de02e4d	0.10946331
153	0x3cde411c	0.027130656
154	0x3e519695	0.20467599
155	0x3de14c99	0.11000938
156	0xbc02723b	-0.007961805
157	0x3dac98da	0.084275916
158	0xbd01d301	-0.03169537
159	0x3dc62a5a	0.09676047
160	0x3eac3a0b	0.33638033
161	0x3e0772ac	0.13227338
162	0x3e26aa0b	0.16275804
163	0x3e1ef340	0.1552248
164	0x3e10b9b6	0.14133343
165	0xbe14c21f	-0.14527176
166	0x3e078a68	0.13236392
167	0xbe1e0af0	-0.1543386
168	0xbdff22aa	-0.124577835
169	0x3e9c51a8	0.3053105
170	0x3bf375d6	0.0074298186
171	0x3d40867a	0.047003247
172	0x3e2c17ff	0.16806029
173	0x3d216fb9	0.039413188
174	0xbd80fa38	-0.062977254
175	0xbc6b9740	-0.0143793225
176	0xb91fba77	-0.00015232885
177	0xbe395715	-0.18099625
178	0x3e435b7f	0.19077872
179	0x3d93af2e	0.07211147
180	0x3d9b198f	0.07573234
181	0xbd615ed2	-0.05502207
182	0xbdabcd3a	-0.08388753
183	0xbe1d1c4e	-0.15342829
184	0x3e2e1495	0.17000039
185	0x3dfb4bf6	0.12270348
186	0x3dd2490e	0.1026784
187	0xbe6b4103	-0.22974019
188	0x3d817715	0.06321541
189	0x3db81ead	0.08990226
190	0xbcfedc5f	-0.03111094
191	0xbd5d5d42	-0.054044016
192	0x3ce3b0a1	0.027794184
193	0x3b06d07b	0.0020571041
194	0x3d6b2a55	0.057413418
195	0xbd4f9331	-0.050677482
196	0xbdac2911	-0.0840627
197	0xbd9256e0	-0.07145476
198	0x3d8e0275	0.069340624
199	0x3d04f6fd	0.03246211
200	0x3d822c62	0.063561216
201	0xbd46a045	-0.04849269
202	0x3c9390a5	0.018013308
203	0xbe0d4ade	-0.13798091
204	0x3e987811	0.29779103
205	0x3e275bab	0.16343562
206	0x3e07cec6	0.13262472
207	0x3de0ae17	0.10970705
208	0xbd24038b	-0.04004244
209	0x3d609f0b	0.054839175
210	0x3ccc23e4	0.024919458
211	0xbcb7f7ef	-0.022457091
212	0x3dbd65d4	0.09247938
213	0x3db519d7	0.08842819
214	0x3d03c277	0.032167878
215	0xbcfed285	-0.031106243
216	0x3d8bd229	0.06827194
217	0x3d724bc9	0.059154306
218	0x3cb4c05b	0.022064378
219	0x3dcdec86	0.10054879
220	0x3e923413	0.28555354
221	0x3dfae804	0.12251285
222	0xbd9b11fe	-0.07571791
223	0x3e371e9b	0.17882769
224	0x3da50bee	0.08058916
225	0xbdd725a4	-0.10505226
226	0xbd585e7b	-0.05282448
227	0xbdb5ed57	-0.088831596
228	0xbd08515e	-0.033280723
229	0x3e337231	0.1752403
230	0x3e020b5a	0.12699643
231	0xbe4843e9	-0.19557156
232	0xbe4c887a	-0.19973937
233	0xbe0fe12a	-0.14050737
234	0x3e66b8c1	0.22531416
235	0xbe29e136	-0.16589817
236	0x3e1dbf87	0.15405093
237	0x3dc77ba9	0.09740383
238	0xbdc72575	-0.09723941
239	0x3df35877	0.11882108
240	0x3dff9913	0.124803685
241	0x3e85bd68	0.26121068
242	0x3e96f086	0.2948038
243	0xbe22aab7	-0.15885435
244	0x3c887520	0.016657412
245	0xbe3a4456	-0.1819013
246	0x3da3f6f8	0.0800609
247	0xbd1a7b58	-0.037715286
248	0x3b570de8	0.0032814685
249	0x3d04c467	0.032413866
250	0xbcedbd89	-0.029021041
251	0xbc7b73f7	-0.015347472
252	0x3b8eba60	0.0043557137
253	0xbc1c7183	-0.009548548
254	0x3d648469	0.05579034
255	0x3daaebb3	0.08345737

model.encoder.conv3.bias f4 [8]
0	0xbde93b8c	-0.11388311
1	0xbd88ef24	-0.066862375
2	0xbd9773dc	-0.07395145
3	0x3d8cd68f	0.06876861
4	0xbd966946	-0.07344298
5	0xbc89d74a	-0.01682629
6	0xbd82c56f	-0.06385314
7	0x3e097324	0.13422829

model.decoder.conv1.weight f4 [8, 8, 3, 3]
0	0xbc8a4784	-0.016879804
1	0x3ca825ea	0.020525891
2	0x3d401b1a	0.046900846
3	0x3d3d6a28	0.046243817
4	0xbcca95cd	-0.024729634
5	0xbd9617a1	-0.073287256
6	0x3ba0de74	0.004909331
7	0x3b9bece9	0.0047584665
8	0x3d8ffac6	0.07030253
9	0x3cb22b96	0.021749299
10	0xbbad85c2	-0.005295486
11	0xbd978e4b	-0.07400187
12	0x3dbb36bf	0.09141301
13	0xbb244417	-0.0025064999
14	0x3d70f115	0.058823664
15	0xbb8f2791	-0.0043687304
16	0x3dbb3074	0.09140101
17	0x3d7bb815	0.06145485
18	0xbcb901b5	-0.022583822
19	0x3d6b8a48	0.057504922
20	0xbd5096bc	-0.050925
21	0xbd391588	-0.04518655
22	0xbc8e1dda	-0.017348219
23	0xba5fcdce	-0.0008537442
24	0x3cb52a47	0.022114886
25	0xbc0651f2	-0.008198248
26	0xbd70df8e	-0.05880695
27	0xbdf71df3	-0.12066259
28	0x3d57d90b	0.052697223
29	0x3dc08f64	0.094023496
30	0x3df78c10	0.12087262
31	0x3d83a943	0.064287685
32	0x3c2cb3f6	0.010540953
33	0x3e286ebb	0.1644849
34	0xbd471c58	-0.048611015
35	0xbd0477f9	-0.032340977
36	0x3d0baf53	0.03410275
37	0xbe284857	-0.16433845
38	0x3d6346bd	0.055487383
39	0xbdc3aa5a	-0.09553976
40	0x3d7e4cb2	0.06208486
41	0xbdd07f77	-0.10180562
42	0xbd472b06	-0.048625015
43	0xbe2c2484	-0.16810805
44	0xbd46e796	-0.0485607
45	0x3d2c95df	0.042135116
46	0xbc4b1f5f	-0.012397616
47	0xbd449ffe	-0.048004143
48	0xbdfd304e	-0.12362729
49	0x3df1f545	0.118143596
50	0x3d5ed95f	0.05440652
51	0xbd8732d9	-0.06601495
52	0xbd880990	-0.06642449
53	0x3cd2dd9b	0.025740435
54	0x3e31a9ee	0.1734998
55	0x3d886c3a	0.066612676
56	0xbc60a0a4	-0.013710175
57	0x3b06feec	0.0020598723
58	0x3ec1b349	0.37832096
59	0xbdb013fd	-0.085975625
60	0xbb9ba415	-0.0047497847
61	0x3d9fd0f0	0.078035235
62	0x3e2e3d54	0.17015582
63	0xbd9d5a24	-0.076832086
64	0x3e4ef81d	0.20211835
65	0x3d80605b	0.06268378
66	0xbcf6480f	-0.030063657
67	0xbe05a48b	-0.1305105
68	0xbde7241e	-0.11286186
69	0xbdaf17ba	-0.08549447
70	0x3d60b214	0.05485733
71	0x3e157cf9	0.14598455
72	0xbe09118e	-0.13385603
73	0x3d89b25c	0.067234725
74	0x3dcb5a9a	0.0992939
75	0x3d946c0d	0.072471716
76	0xbd1b0d65	-0.03785457
77	0xbdb56a80	-0.08858204
78	0xbdd5fe88	-0.104489386
79	0xbd1678f4	-0.036736444
80	0xbd99a18d	-0.075015165
81	0x3d6e1298	0.0581232
82	0xbd2d3feb	-0.042297285
83	0xbda66c71	-0.08126152
84	0xbdb67f05	-0.08910946
85	0xbc777776	-0.015104165
86	0x3d078ba3	0.033092152
87	0xbdba63fe	-0.09101103
88	0xbd1b1a1d	-0.0378667
89	0x3c842e6b	0.016135415
90	0x3c53ede5	0.012935136
91	0x3e46a216	0.19397768
92	0x3db4cee7	0.08828526
93	0xbdb6cc7b	-0.0892572
94	0xbe8dd90b	-0.27704653
95	0xbd927552	-0.07151283
96	0x3c209105	0.0098002
97	0xbd3a3a4c	-0.045465752
98	0xbe709fe9	-0.23498501
99	0x3d631f66	0.055449866
100	0x3db63f0d	0.08898745
101	0x3d83c87a	0.06434722
102	0x3dcfe59c	0.101512164
103	0xbd252e20	-0.04032719
104	0x3e5537ff	0.20822142
105	0x3bc86030	0.006114982
106	0x3e3cba90	0.18430543
107	0xbb6b371b	-0.0035891
108	0xbd5696c1	-0.052389864
109	0xbdf02df4	-0.11727515
110	0xbd20ccc3	-0.039257776
111	0x3d31deaa	0.04342524
112	0x3e393b0b	0.1808893
113	0xbd8e8fe2	-0.06961037
114	0x3bbd574a	0.005778228
115	0xbe77ed5f	-0.24211644
116	0xbd8c426b	-0.06848606
117	0x3d991ec5	0.07476572
118	0x3dafacb9	0.08577866
119	0x3c8ea8ef	0.017414538
120	0xbc384fea	-0.011249522
121	0xbe8b8226	-0.27247733
122	0x3d083ae1	0.033259276
123	0x3e06244f	0.13099788
124	0xbdb96adb	-0.09053584
125	0xbcfae6f7	-0.03062771
126	0x3b9cbf24	0.004783528
127	0xbc8102f8	-0.015748486
128	0x3dca1f8c	0.09869298
129	0xbc58ef77	-0.013240687
130	0xbcd90a13	-0.026494062
131	0xbebc52d5	-0.36781946
132	0x3bf82dc4	0.007573815
133	0x3d71491e	0.05890762
134	0xbd8aaa2b	-0.06770738
135	0x3d0f25b8	0.03494808
136	0x3e04d749	0.1297275
137	0x3ddc3368	0.107519925
138	0xbdcddb48	-0.1005159
139	0x3dabede9	0.08394987
140	0x3d7f89ba	0.062387206
141	0x3de929cd	0.11384926
142	0x3c69bb93	0.014265913
143	0xbe48726b	-0.19574897
144	0xbdf16696	-0.11787145
145	0xbd55ed6f	-0.052228387
146	0x3d80ddf5	0.06292335
147	0x3c5342f0	0.012894377
148	0xbd33c34e	-0.04388743
149	0xbd0f317e	-0.03495931
150	0x3da83aa0	0.08214307
151	0xbd8d3560	-0.06894946
152	0xbcb486e9	-0.022036986
153	0x3dd48d8a	0.10378559
154	0xbdb95b7e	-0.09050654
155	0xbd042c6d	-0.03226893
156	0x3d007632	0.03136272
157	0x3d32a89a	0.043617822
158	0x3dd62dd0	0.10457957
159	0x3cff2942	0.031147603
160	0x3c8fc814	0.01755146
161	0xbde05736	-0.10954134
162	0x3d473cb3	0.04864187
163	0x3c2c041e	0.0104990285
164	0xbd207573	-0.03917451
165	0xbe220ebc	-0.15825933
166	0xbd55ce94	-0.05219896
167	0x3d80b2b1	0.06284083
168	0x3cf68517	0.030092759
169	0xbd034a46	-0.032053255
170	0xbe802a1e	-0.25032133
171	0xbb09dfff	-0.0021038053
172	0xbc860ca5	-0.016363451
173	0xbbc2f207	-0.005949262
174	0x3d3105eb	0.043218534
175	0x3d7fabde	0.062419765
176	0xbd1ab193	-0.037767004
177	0x3dab9839	0.083786435
178	0x3d6d3a98	0.057917207
179	0x3d1fb7b5	0.038993556
180	0x3dd21f21	0.102598436
181	0x3dc263b3	0.09491672
182	0x3dbe4203	0.092899345
183	0x3dba5926	0.09099035
184	0x3d3f44c4	0.04669644
185	0xbe8afe2a	-0.27147037
186	0x3d9fcfc0	0.07803297
187	0xbe030a01	-0.12796785
188	0xbda62b3b	-0.08113714
189	0xbca4ddf4	-0.020125367
190	0xba8a2ae5	-0.0010541348
191	0xbc65b7ac	-0.014020842
192	0x3e69f42e	0.22847053
193	0xbdead4ad	-0.11466346
194	0xbd4ab504	-0.049489036
195	0x3d29b4c1	0.041432146
196	0x3ce1102f	0.027473537
197	0xbd490ca7	-0.04908433
198	0xbdd47310	-0.10373509
199	0xbdfb572b	-0.12272485
200	0x3dc7bce3	0.09752824
201	0xbda8af6b	-0.08236583
202	0x3e06a4ab	0.13148753
203	0xbdbc47bd	-0.091933705
204	0x3d19fb74	0.03759332
205	0x3b4a2a90	0.0030848123
206	0x3e0cfe25	0.13768823
207	0x3cff8971	0.031193467
208	0xbdeafd05	-0.11474041
209	0x3e0bca8a	0.13651481
210	0x3e008369	0.12550129
211	0xbbff7393	-0.00779576
212	0x3dc96890	0.09834397
213	0x3dd68da0	0.104762316
214	0x3e3c9524	0.18416268
215	0xbd8c8e26	-0.0686305
216	0xbd42581f	-0.04744732
217	0x3d9d6069	0.076844044
218	0x3d72041b	0.059085947
219	0x3d9d5bbe	0.07683514
220	0xbca92a2d	-0.020649994
221	0x3de62b7f	0.11238765
222	0x3d801323	0.0625365
223	0xbd60ebb5	-0.054912288
224	0x3b5dfaa3	0.0033871315
225	0xbdbb5ca1	-0.09148527
226	0x3d1a63cc	0.03769283
227	0xbdb920d0	-0.090394616
228	0xbd84f862	-0.06492688
229	0x3d87414b	0.066042505
230	0x3d30d8cc	0.043175504
231	0xbd2d335e	-0.042285316
232	0x3d4457e6	0.04793539
233	0x3d568d51	0.052380864
234	0xbd3a2e7e	-0.045454495
235	0xbdf228aa	-0.11824162
236	0x3cb8e339	0.022569286
237	0xbe0f89c6	-0.140174
238	0x3e6deb0e	0.23234197
239	0xbd952c10	-0.07283795
240	0x3d19248f	0.03738838
241	0x3e1ef695	0.15523751
242	0x3d96f5d5	0.073711075
243	0xbd644163	-0.05572642
244	0x3d2bd5d4	0.04195197
245	0xbdb2525c	-0.08707115
246	0x3dc4082d	0.09571872
247	0x3e5c3c7e	0.21507451
248	0xbe05561f	-0.13021134
249	0x3d27b995	0.04094847
250	0x3cdcaed8	0.02693884
251	0x3dda4c3c	0.10659072
252	0xbe39b73b	-0.18136303
253	0xbde4dfa1	-0.11175466
254	0xbd20e5a4	-0.039281502
255	0x3e2d456a	0.1692101

model.decoder.conv1.bias f4 [8]
0	0x3e388677	0.18020044
1	0x3e2ea82e	0.17056343
2	0x3d732b36	0.05936738
3	0x3dbd60d1	0.09246982
4	0x3d1a2489	0.0376325
5	0x3d6ac8b9	0.05732033
6	0x3e6df4a2	0.23237851
7	0x3e0892a9	0.13337196

model.decoder.conv2.weight f4 [8, 8, 3, 3]
0	0xbb4bb12d	-0.0031080947
1	0x3d6ec703	0.05829526
2	0xbc3d5f1c	-0.01155832
3	0x3e4d0419	0.20021094
4	0xbbfd2c3c	-0.0077262204
5	0xbdc24614	-0.094860226
6	0x3d84f089	0.06491191
7	0x3d43dbc7	0.047817018
8	0x3d999f09	0.07501037
9	0x3d05de3b	0.03268264
10	0x3e3e48c8	0.18582451
11	0x3ec8f737	0.3925111
12	0xbdc3889e	-0.09547542
13	0xbdf4acc5	-0.11947016
14	0x3e241e02	0.16027072
15	0xbc21df2d	-0.009879869
16	0xbc9fa976	-0.019489985
17	0x3d54d7cb	0.05196361
18	0x3e8eefd5	0.27917352
19	0xbdd02ad9	-0.101644225
20	0x3e779738	0.24178779
21	0x3ee27539	0.4423006
22	0xbc20af1e	-0.009807376
23	0xbda2dd17	-0.07952326
24	0xbeadf92f	-0.33979174
25	0x3e220b4a	0.15824619
26	0xba41f1fa	-0.0007398423
27	0x3d0f2b37	0.034953322
28	0x3cf5fad0	0.030026823
29	0xbd5b541e	-0.053547017
30	0xbdc07014	-0.09396377
31	0xbd648e33	-0.055799674
32	0x3e0d57e1	0.13803054
33	0x3d83bf9e	0.064330325
34	0x3e266395	0.16248925
35	0xbc2a91af	-0.01041071
36	0x3daee84c	0.08540401
37	0x3dafd50a	0.08585556
38	0x3c8dbd54	0.017302193
39	0xbdbb38e3	-0.0914171
40	0x3d4f8d0b	0.05067162
41	0xbd92f0e8	-0.071748555
42	0x3d8821ee	0.066470966
43	0xbadece99	-0.0016998827
44	0x3de92c8d	0.113854505
45	0xbef8b19a	-0.48573
46	0x3e53abfd	0.20671077
47	0xbe9f967c	-0.31169498
48	0x3cdd8fba	0.027046073
49	0x3ea7dea5	0.32787052
50	0x3e2fcd54	0.1716817
51	0xbe373749	-0.17892183
52	0xbe30217d	-0.17200275
53	0x3d296dcf	0.041364487
54	0xbd4d7dc5	-0.05016877
55	0xbd456e47	-0.04820087
56	0x3db808ed	0.089860775
57	0x3d820997	0.06349485
58	0x3bde2d3c	0.0067802947
59	0x3e8a26d7	0.26982757
60	0x3d2d5aee	0.042323045
61	0xbe0db62b	-0.13839023
62	0x3e5847a1	0.21121074
63	0x3d80c178	0.06286901
64	0xbc032f15	-0.008006831
65	0x3e5565a8	0.2083956
66	0xbd156bf1	-0.036479894
67	0xbdea264b	-0.11433085
68	0xbbc7815f	-0.0060884203
69	0x3e4217d3	0.189544
70	0xbd05e3cb	-0.032687943
71	0xbd75af78	-0.059981793
72	0x3cf53c33	0.029935932
73	0xbd9eee83	-0.07760336
74	0xbca6f764	-0.020381637
75	0x3cc000d6	0.023437899
76	0x3d3a72cd	0.04551964
77	0x3e1fbe42	0.15599921
78	0xbe11a4d4	-0.14223033
79	0x3c664f5a	0.014057005
80	0x3dd17f0f	0.10229313
81	0xbe1a0144	-0.15039545
82	0xbd2d8222	-0.042360432
83	0xbe75f3be	-0.24018762
84	0x3dc68784	0.09693816
85	0xbe18fc6f	-0.14940046
86	0x3d8be2cf	0.0683037
87	0x3e3fd49e	0.18733451
88	0xbe8a2d0e	-0.269875
89	0xbdb4eb28	-0.08833915
90	0x3cef76ff	0.029231546
91	0xbdcfcacf	-0.101461045
92	0x3d6cac97	0.057781782
93	0xbc3d5218	-0.011555217
94	0xbcb22b28	-0.021749094
95	0x3e51e190	0.20496202
96	0x3e5992fa	0.21247473
97	0xbd8635e9	-0.06553251
98	0xbcafea08	-0.0214739
99	0x3e06a65f	0.13149403
100	0xbe3bc31c	-0.18336147
101	0x3d97b895	0.07408253
102	0xbd33a185	-0.04385521
103	0x3e064da7	0.1311556
104	0xbcc167db	-0.023609092
105	0x3eced20c	0.40394628
106	0xbe9459ba	-0.28974706
107	0xbda31de3	-0.07964685
108	0x3d829982	0.063769355
109	0xbad7e88f	-0.0016472506
110	0x3d765b2b	0.06014554
111	0xbdf98d1c	-0.121851176
112	0x3d7b5a35	0.061365325
113	0xbcd5448d	-0.026033664
114	0x3d3a85a0	0.04553759
115	0x3dc1a734	0.094557196
116	0xbd8439e6	-0.06456356
117	0x3dcc8e39	0.09988064
118	0xbead9d97	-0.33909294
119	0xbc8852de	-0.016641077
120	0x3e216729	0.15762009
121	0xbd0a3650	-0.033743203
122	0x3e1b9e36	0.15197071
123	0xbe06d371	-0.13166596
124	0xbdf85d0e	-0.12127124
125	0x3e2357b1	0.1595142
126	0xbd33a48f	-0.043858107
127	0x3e3f622b	0.18689792
128	0xbdf3a83e	-0.11897324
129	0x3e199100	0.1499672
130	0xbdd0f6a2	-0.102032915
131	0x3e157660	0.14595938
132	0xbd76b8f4	-0.06023498
133	0xbd974078	-0.07385343
134	0xbe5da331	-0.21644284
135	0xbdabdc48	-0.08391625
136	0x3dc4236d	0.095770694
137	0xbdf6c3f7	-0.12049096
138	0x3da75000	0.08169556
139	0x3d7624b7	0.060093608
140	0x3d358220	0.04431355
141	0xbe06d9e3	-0.13169055
142	0xbdc2ed65	-0.09517936
143	0xbd55f29c	-0.052233323
144	0x3e08b1d5	0.13349088
145	0x3d3b1e59	0.04568324
146	0x3bef3ee9	0.0073012006
147	0xbd29a3d1	-0.041415993
148	0xbe41fe67	-0.18944703
149	0xbd2950cf	-0.04133683
150	0x3b592409	0.003313305
151	0xbb7a5ab5	-0.0038201038
152	0x3cb3011a	0.021851111
153	0x3cdffec1	0.027343156
154	0x3e3973b4	0.18110543
155	0x3e3cec7a	0.18449584
156	0x3da5178f	0.08061134
157	0x3e14c10a	0.14526764
158	0xbe80761f	-0.2509012
159	0xbdcfce66	-0.10146789
160	0xbc17ef3b	-0.009273346
161	0x3cedd86e	0.029033866
162	0x3e671fb5	0.22570689
163	0xbcd5e218	-0.026108786
164	0xbd8fa962	-0.07014729
165	0x3d87e482	0.06635381
166	0x3e0440c3	0.1291533
167	0xbd2e674f	-0.04257899
168	0x3d270987	0.04078057
169	0x3d0654bf	0.032795664
170	0x3e15a042	0.14611915
171	0x3dc157f2	0.09440602
172	0xbd021de5	-0.03176679
173	0x3d881367	0.06644326
174	0x3c851060	0.01624316
175	0x3d06c803	0.03290559
176	0x3d5d02e9	0.053957853
177	0x3e88772c	0.2665342
178	0x3d63138e	0.05543857
179	0xbde726ca	-0.11286695
180	0x3c7cb0d4	0.0154230185
181	0x3dd8f02d	0.10592685
182	0xbd07443e	-0.033024065
183	0x3dc08c99	0.09401817
184	0x3d49b989	0.049249206
185	0x3ce5913b	0.028023353
186	0xbdb9b8ff	-0.09068488
187	0xbde36f9b	-0.111052714
188	0xbdbc2f8f	-0.091887586
189	0x3e6b239c	0.22962803
190	0x3d5ad0a8	0.053421646
191	0xbe0f8efc	-0.14019388
192	0x3d4ad2a6	0.049517296
193	0x3e10ed97	0.14153133
194	0xbd1d9659	-0.03847346
195	0xbdb563a5	-0.08856896
196	0x3c2df61b	0.010617758
197	0x3dab15bb	0.08353754
198	0x3dc6075d	0.09669373
199	0x3e74416e	0.23853084
200	0x3e3e3576	0.18575081
201	0x3e8540b1	0.26025918
202	0x3e4c02d4	0.19922954
203	0x3e0170d4	0.12640697
204	0x3d95291c	0.072832316
205	0xbb80392a	-0.0039130645
206	0xbd6cbe60	-0.057798743
207	0xbe33842d	-0.1753089
208	0xbcbeef81	-0.023307564
209	0x3da9b712	0.08286871
210	0xbc319ca1	-0.010840566
211	0xbc6948cc	-0.0142385475
212	0xbdd556f9	-0.10416979
213	0xbd8efa7d	-0.069813706
214	0xbdce7016	-0.100799724
215	0xbe1a5788	-0.15072453
216	0x3dbc1243	0.09183171
217	0x3d41976e	0.047263555
218	0x3c6fe8b0	0.014642879
219	0x3e16ec27	0.14738522
220	0xba84f71f	-0.0010144449
221	0xbe38ede3	-0.18059497
222	0x3d61ac55	0.05509599
223	0xbe7dce34	-0.24785691
224	0x3d1d573d	0.038413275
225	0xbe793127	-0.24335156
226	0x3dcf45b0	0.10120714
227	0xbc8c1b71	-0.017102929
228	0x3ed67313	0.4188467
229	0x3ecc1fcd	0.39868012
230	0xbe26ef58	-0.1630224
231	0x3d03b8f9	0.032158826
232	0x3d252cb0	0.04032582
233	0xbdabb933	-0.08384933
234	0xbe3fab61	-0.1871772
235	0x3c7bd827	0.015371359
236	0x3da835f0	0.08213413
237	0x3be8e14c	0.0071069356
238	0x3df19d91	0.117976315
239	0xbc30d726	-0.010793483
240	0x3e40a1b9	0.18811692
241	0xbc160800	-0.009157181
242	0x3d1ed492	0.03877694
243	0x3e05262c	0.13002843
244	0xbe3fd11f	-0.18732117
245	0xbb9fc265	-0.0048754686
246	0x3d8092e0	0.06278014
247	0x3d234404	0.039859787
248	0x3e1fd20f	0.15607475
249	0x3eb1c6ae	0.34721893
250	0xbcb78756	-0.0224034
251	0xbdb2cb3d	-0.08730171
252	0x3dc4a03c	0.09600875
253	0xbd2f76a2	-0.042837746
254	0xbd836484	-0.06415656
255	0xbdcd9ba5	-0.100394525

model.decoder.conv2.bias f4 [8]
0	0x3d7e64bd	0.06210779
1	0x3dd200a2	0.10254027
2	0x3d125afb	0.035731297
3	0x3ce7d727	0.028300835
4	0x3dbf9cad	0.093560554
5	0x3b3dde7c	0.0028971722
6	0x3ce7a800	0.02827835
7	0xbddedcfe	-0.10881995

model.decoder.conv3.weight f4 [16, 8, 3, 3]
0	0x3c1076f1	0.00881742
1	0x3d9aed1e	0.07564758
2	0xbd909620	-0.07059884
3	0x3ddc72e4	0.10764101
4	0x3ddacad8	0.106832206
5	0x3dea4d96	0.114405796
6	0x3e090d2c	0.13383931
7	0x3d0081f8	0.031373948
8	0xbdba15ab	-0.09086164
9	0xbe69bfef	-0.22827123
10	0xbe214e6c	-0.15752572
11	0x3d4197f0	0.04726404
12	0x3e27a037	0.16369711
13	0x3da7b0ad	0.08187995
14	0xbd832abc	-0.06404635
15	0x3ce86c83	0.028372055
16	0xbcced2af	-0.025246946
17	0xbdaa0a1c	-0.083027095
18	0xbde032e8	-0.109472096
19	0x3d1d9fe8	0.038482577
20	0x3d99ca66	0.075093076
21	0x3bec80b1	0.0072174896
22	0x3d510441	0.051029447
23	0x3e003e06	0.1252366
24	0x3e0f2211	0.13977839
25	0x3c1eca5d	0.009691802
26	0x3ca39a46	0.019971024
27	0x3c1846fb	0.009294267
28	0xbca2bd0c	-0.019865535
29	0x3da9e2fb	0.08295246
30	0x3e7b57f3	0.24545269
31	0x3e8402e1	0.25783446
32	0xbde7266a	-0.11286624
33	0x3d81fc5a	0.0634696
34	0xbe393cdf	-0.18089627
35	0xbc610d57	-0.013736091
36	0x3dc491d7	0.09598129
37	0x3d112934	0.035439685
38	0x3d9e2f9b	0.07723924
39	0x3e1cf38c	0.15327281
40	0x3d84c07c	0.06482026
41	0xbdc670cb	-0.09689482
42	0x3e151984	0.14560515
43	0x3de85bd6	0.11345641
44	0x3c92c5fe	0.017916676
45	0x3db878b8	0.090074
46	0xbc8a111f	-0.016853867
47	0x3e1c3eb2	0.15258291
48	0x3d59c2b3	0.053164195
49	0x3dda4379	0.10657401
50	0xbdd4225b	-0.10358115
51	0x3d93f51f	0.072244875
52	0x3b1ee936	0.0024247891
53	0x3dbea221	0.093082674
54	0xbc130197	-0.008972547
55	0x3d55cfaa	0.052199997
56	0x3cb20461	0.021730604
57	0x3db2d940	0.087328434
58	0x3e8d02bc	0.2754115
59	0x3e2ad6a9	0.16683449
60	0xbcbd17db	-0.023082664
61	0x3dfa3814	0.12217727
62	0x3db17e87	0.08666711
63	0x3c4200f2	0.011841046
64	0x3d87a05a	0.066223815
65	0xbcc2c7be	-0.023776885
66	0xbd2c9087	-0.04213002
67	0x3d3e6881	0.04648638
68	0x3e0031b0	0.12518954
69	0x3c85e518	0.016344592
70	0xbd8f11b5	-0.06985799
71	0xbde4b97a	-0.11168189
72	0x3e10d15c	0.14142364
73	0x3e4693bd	0.19392295
74	0x3dc0493b	0.093889676
75	0x3d9d78be	0.07689045
76	0x3cbe16bf	0.023204206
77	0x3d93c3ce	0.07215081
78	0x3d1213fd	0.035663594
79	0x3e0968bb	0.13418858
80	0x3cbbe7d5	0.022937695
81	0x3e0e1a5c	0.13877243
82	0xbdc7c9cf	-0.09755289
83	0xbe3c543e	-0.18391511
84	0x3e497b90	0.19676042
85	0xbdc898ab	-0.09794744
86	0xbe9dfa22	-0.308549
87	0x3e552f6f	0.20818876
88	0xbe1da3cd	-0.15394516
89	0xbd113a2d	-0.03545587
90	0x3ca38d9a	0.019964982
91	0xbe4e30a8	-0.20135748
92	0xbd7529d0	-0.05985433
93	0x39a93673	0.0003227476
94	0xbe6011ae	-0.21881744
95	0xbc652464	-0.013985727
96	0xbe2e7471	-0.17036606
97	0xbc3eccf1	-0.0116455415
98	0xbe2eb0ea	-0.17059675
99	0x3d42b1e7	0.047532942
100	0x3cae6205	0.021286974
101	0x3d9c9aff	0.07646751
102	0xbc86a5a5	-0.016436407
103	0xbddf566b	-0.10905155
104	0x3e14e390	0.14539933
105	0x3dbb645d	0.09150002
106	0x3c011cac	0.007880371
107	0xbd03b382	-0.032153614
108	0x3d8d11c6	0.06888156
109	0xbd5b53ec	-0.05354683
110	0x3e6bb75f	0.2301917
111	0x3dd1dab1	0.1024679
112	0xbd43c7ec	-0.047798082
113	0x3e1eea1d	0.15518995
114	0xbdc60e27	-0.09670668
115	0x3e047bab	0.129378
116	0x3dd11539	0.10209126
117	0x3e1a00ba	0.1503934
118	0x3d39116d	0.045182634
119	0xbd628d56	-0.05531057
120	0x3e23e52b	0.1600539
121	0x3e23adb0	0.15984225
122	0x3da5eeb3	0.08102169
123	0x3da68d9e	0.0813248
124	0xbd730f76	-0.059340917
125	0x3c1a270a	0.009408722
126	0xbcc38c12	-0.023870502
127	0xbe379c24	-0.17930657
128	0x3d81a471	0.06330193
129	0xbdaa0d90	-0.08303368
130	0xbe9111bf	-0.28333852
131	0x3db27375	0.08713428
132	0x3e070348	0.13184845
133	0xbdd91b9b	-0.106009685
134	0x3e1f92eb	0.15583389
135	0x3d7c7073	0.061630677
136	0x3dc9c2b1	0.098515876
137	0x3e186d3c	0.1488542
138	0x3dbb35d5	0.09141127
139	0xbd04976a	-0.032370962
140	0xbda79af6	-0.08183853
141	0x3dddeed5	0.10836569
142	0x3cabedd5	0.02098743
143	0x3db74b6d	0.08949933
144	0xba2dc3f4	-0.00066286256
145	0xbe61ee31	-0.22063519
146	0xbd8e991d	-0.06962798
147	0x3d895a22	0.067066446
148	0x3dcc5291	0.09976686
149	0x3d630f15	0.055434305
150	0x3e1d3e90	0.15355897
151	0x3d41102c	0.047134563
152	0x3d677483	0.0565076
153	0xbe3070b7	-0.17230497
154	0xbe1372c3	-0.14399247
155	0x3ecc2b93	0.39876994
156	0xbe17b02b	-0.14813296
157	0x3d5ed51b	0.054402452
158	0x3e9753be	0.29556078
159	0x3e813432	0.25235134
160	0x3e08ae6c	0.13347787
161	0xbe3578a9	-0.1772181
162	0x3e07c5da	0.13259068
163	0x3dc89059	0.09793157
164	0xbe1db6f8	-0.15401828
165	0xbdbab213	-0.09115996
166	0xbad49d58	-0.0016221208
167	0xbda2aef4	-0.07943526
168	0x3d79ada1	0.0609566
169	0x3ccd6220	0.025071204
170	0x3dca2637	0.0987057
171	0x39ecadec	0.0004514301
172	0x3e8b1ab1	0.271688
173	0x3d4724e7	0.048619177
174	0x3dcf88fe	0.10133551
175	0x3dcc7292	0.0998279
176	0xbda3c43d	-0.07996414
177	0xbd9c711d	-0.07638762
178	0xbe70844e	-0.2348797
179	0xbc7a4acf	-0.015276625
180	0x3de46e29	0.11153824
181	0x3dcd476c	0.10023388
182	0xbc8b5a05	-0.017010698
183	0xbdc41ba2	-0.09575583
184	0xbe00d09b	-0.12579577
185	0xbda82718	-0.082105815
186	0xbd68e14d	-0.05685549
187	0xbeb73015	-0.3577887
188	0xbe814564	-0.25248253
189	0x3ca175f4	0.019709565
190	0x3d96344a	0.07334192
191	0x3d7fd8ad	0.062462498
192	0xbe339559	-0.1753744
193	0xbc427e01	-0.011870862
194	0xbb9683ee	-0.004593364
195	0xbbc40ce4	-0.005982982
196	0x3d124cf2	0.035717912
197	0x3d2867d9	0.04111466
198	0xbd4c1512	-0.04982478
199	0x3de4f839	0.11180157
200	0x3e3ee721	0.18642856
201	0xbd8a9ab2	-0.06767787
202	0xbe9f4566	-0.31107634
203	0xbf2a3642	-0.6648904
204	0x3e640c83	0.22270398
205	0xbb861e15	-0.0040929415
206	0x3b4140bf	0.0029488055
207	0xbdcf88a2	-0.101334825
208	0xbe467a25	-0.19382532
209	0xbcf5f78e	-0.03002527
210	0xbd92926a	-0.071568325
211	0xbd56b0b0	-0.052414596
212	0xbccb7f74	-0.024841048
213	0xbd4d4346	-0.050112985
214	0x3dc52284	0.09625724
215	0x3e64a2f7	0.22327791
216	0x3b36ad46	0.0027874275
217	0xbdc2051d	-0.094736315
218	0x3dd3c6b1	0.10340632
219	0xbe8fe2ad	-0.28102627
220	0xbe44c950	-0.1921742
221	0xbe369532	-0.17830351
222	0x3d8505c9	0.06495244
223	0x3d205f9d	0.039153684
224	0x3d72da9b	0.05929051
225	0x3e4b57ae	0.19857666
226	0x3e3bdfd5	0.18347104
227	0xbdbe8268	-0.09302217
228	0x3ea5f856	0.32416028
229	0x3dda9406	0.106727645
230	0xbe4b29ae	-0.19840118
231	0xbee5319e	-0.44764417
232	0xbd99f726	-0.07517843
233	0x3d12c1bd	0.035829294
234	0x3ea4ca4a	0.32185584
235	0x3dedef73	0.11617937
236	0xbe95a8b7	-0.29230282
237	0x3e637905	0.22214134
238	0xbcdfbd73	-0.027312016
239	0xbde3898d	-0.1111022
240	0x3df9575d	0.12174866
241	0x3e4e9a51	0.20176055
242	0xbdfe0fc9	-0.124053545
243	0x3f0296e3	0.51011485
244	0xbe04e531	-0.12978055
245	0xbe331590	-0.17488694
246	0xbcd9a3e9	-0.026567416
247	0xbe876ff6	-0.26452607
248	0xbbc1a669	-0.00590973
249	0xbe58da9e	-0.21177146
250	0xbbc4ef89	-0.00601
251	0x3dc676a4	0.09690598
252	0x3ec75fdc	0.38940322
253	0xbea13f33	-0.3149353
254	0xbe9ebe9c	-0.31004798
255	0xbe0c1cb6	-0.13682827

model.decoder.conv3.bias f4 [16]
0	0x3e0ef322	0.13959935
1	0xbe518a92	-0.20463017
2	0x3e354c22	0.17704824
3	0xbdef5ebe	-0.116879925
4	0x3e2bc983	0.1677609
5	0xbda2bf9d	-0.079467036
6	0x3d43f4b9	0.047840808
7	0x3dc9b1e0	0.0984838
8	0x3e0efc74	0.1396349
9	0xbde2a081	-0.1106577
10	0x3e201f77	0.15637003
11	0xbe8ab6e9	-0.27092674
12	0xba526457	-0.0008025816
13	0x3e060efe	0.13091657
14	0x3d32adf7	0.043622937
15	0x3e22c777	0.15896402

model.decoder.conv4.weight f4 [1, 16, 3, 3]
0	0xbd8dd622	-0.06925608
1	0xbd60d9d9	-0.054895256
2	0xbd8df8ac	-0.06932196
3	0xbd187b4a	-0.037226953
4	0xbde4707c	-0.11154267
5	0xbdb56962	-0.08857991
6	0xbab79e4b	-0.0014008967
7	0xbd89c932	-0.06727828
8	0xbd84cc76	-0.0648431
9	0x3d80b4a4	0.062844545
10	0x3ce2d39a	0.02768879
11	0x3d45c4a3	0.04828323
12	0x3e05b7ee	0.13058445
13	0x3e01eea0	0.12688684
14	0x3dade81f	0.08491539
15	0x3e1f57fc	0.15560907
16	0x3d1691b0	0.036760032
17	0x3def23ad	0.116767265
18	0xbd2b328e	-0.04179626
19	0xbe9664b1	-0.29373696
20	0xbec18d3d	-0.3780307
21	0xbde99a6c	-0.11406407
22	0xbe988aa5	-0.29793277
23	0xbe8e0cb7	-0.27744076
24	0xbd7fd501	-0.062458996
25	0xbdbde2b6	-0.09271757
26	0xb9dad3bd	-0.00041737958
27	0x3d87215f	0.06598162
28	0xbf1e2c77	-0.617866
29	0xbf1ef634	-0.62094426
30	0xbf189d50	-0.5961504
31	0xbf2a0e89	-0.6642843
32	0xbe19a343	-0.15003686
33	0xbf286fd5	-0.6579564
34	0xbe472b31	-0.1945007
35	0x3f2427db	0.64123315
36	0xbddaedbc	-0.106898755
37	0xbe14e991	-0.14542224
38	0x3da073d8	0.078345954
39	0xbd5beb25	-0.05369105
40	0xbdc1b115	-0.09457604
41	0xbd0d2c07	-0.034465816
42	0xbe12cd1d	-0.14336057
43	0xbdcd4e4f	-0.10024702
44	0x3d3357a5	0.043784756
45	0x3e0d79c9	0.13815989
46	0x3e31acb9	0.17351045
47	0x3e41bb27	0.18919049
48	0x3e1e7a5d	0.15476365
49	0x3b765d25	0.003759214
50	0x3d48a5ef	0.04898637
51	0x3d89aa31	0.067219146
52	0x3d914b6f	0.07094466
53	0x3cccb019	0.024986314
54	0xbe142361	-0.14466621
55	0xbe793544	-0.24336725
56	0xbdeefe9b	-0.11669656
57	0xbe3e87f1	-0.18606545
58	0xbec64721	-0.38726142
59	0xbe037994	-0.12839347
60	0xbe854ec0	-0.26036644
61	0xbe7fe418	-0.24989355
62	0x3cd7a6dc	0.026324682
63	0xbe3df578	-0.1855067
64	0xbe178c7a	-0.14799681
65	0xbde738e9	-0.112901516
66	0xbe04c768	-0.12966692
67	0xbe5044e7	-0.20338784
68	0xbd999edc	-0.07501003
69	0xbd9a2834	-0.075271994
70	0xbdf0b0b9	-0.11752457
71	0x3bf53b40	0.00748387
72	0xbdad62ed	-0.08466134
73	0xbad954f8	-0.0016581109
74	0xbd3a6771	-0.045508806
75	0xbdf55635	-0.11979333
76	0xbdcf83ca	-0.10132559
77	0xbd283c37	-0.04107305
78	0xbdb761bd	-0.08954189
79	0xbccddbd5	-0.025129238
80	0xbb642496	-0.0034811846
81	0xbe60d776	-0.21957192
82	0xbea9455d	-0.33060732
83	0xbe715080	-0.23565865
84	0x3da34c58	0.07973546
85	0xbe74960e	-0.23885366
86	0xbed8f081	-0.4237099
87	0xbce2cb42	-0.027684812
88	0xbe98950e	-0.2980122
89	0xbe3cc9a0	-0.18436289
90	0x3cc9e949	0.024647372
91	0xbd55b812	-0.052177496
92	0x3d060201	0.032716755
93	0xbe09b5da	-0.13448277
94	0xbe74e2a7	-0.23914586
95	0xbd1d8343	-0.03845526
96	0x3d95c472	0.073128596
97	0xbd4dc35d	-0.05023514
98	0xbd72ba52	-0.05925972
99	0x3c12bfea	0.008956889
100	0x3d4f34fb	0.050587635
101	0x3e3ab834	0.1823433
102	0x3e37453d	0.17897506
103	0x3e2808dd	0.16409631
104	0x3e56c411	0.20973231
105	0x3e6eb585	0.23311432
106	0x3e5a90a0	0.21344233
107	0x3e7a132d	0.24421377
108	0x3c083151	0.008312539
109	0xbdd0973d	-0.101850964
110	0xbdacb02f	-0.08432042
111	0xbe94700b	-0.28991732
112	0xbea4b6aa	-0.32170612
113	0xbd8cdd6a	-0.06878169
114	0xbe4ceabc	-0.20011419
115	0xbe74b3e1	-0.23896743
116	0x3d384534	0.044987872
117	0xbdbd8150	-0.0925318
118	0xbe2a4265	-0.1662689
119	0xbd0124c0	-0.03152919
120	0xbe3328b0	-0.1749599
121	0xbe04bc3f	-0.12962435
122	0xbe4f0e17	-0.20220219
123	0xbdb81964	-0.08989218
124	0xbdd5ebeb	-0.104453884
125	0xbd9b7889	-0.0759135
126	0xbe4dd09f	-0.20099114
127	0xbebabcc6	-0.36472148
128	0xbec9038c	-0.3926052
129	0xbed9c2ee	-0.42531532
130	0xbf006f7c	-0.5017011
131	0xbed5d60c	-0.41764867
132	0xbf006a69	-0.5016237
133	0xbeeb2972	-0.45930058
134	0xbdc30312	-0.0952207
135	0x3cce7563	0.025202459
136	0xbdb64edc	-0.0890176
137	0xbd8f8fdb	-0.0700986
138	0xbc1cab2c	-0.009562295
139	0xbdf6a994	-0.12044063
140	0xbe147d18	-0.14500844
141	0x3df7e3e7	0.12104016
142	0xbe078a68	-0.13236392
143	0x3c101657	0.008794389

exp_avg f4 [16, 1, 3, 3]
0	0x38664369	5.4899054e-05
1	0x37f8c664	2.9656287e-05
2	0xb8947163	-7.07831e-05
3	0xb6b713b8	-5.4561206e-06
4	0xb81737b2	-3.6053076e-05
5	0xb88e8b2d	-6.797011e-05
6	0xb8840c73	-6.296569e-05
7	0xb7b7991e	-2.18866e-05
8	0xb845c43d	-4.715122e-05
9	0xb8c6a71e	-9.472504e-05
10	0x369d570b	4.6890978e-06
11	0xb7c4c1f1	-2.3455332e-05
12	0xb846b01d	-4.7370897e-05
13	0xb714e38d	-8.874468e-06
14	0xb83e3479	-4.53484e-05
15	0xb869d1ff	-5.5747103e-05
16	0xb7786e5b	-1.4807646e-05
17	0x37b47a7f	2.1514714e-05
18	0xb8bb276f	-8.9242e-05
19	0xb85d0b90	-5.2701274e-05
20	0xb8724d83	-5.7769485e-05
21	0xb7d7ad67	-2.5710744e-05
22	0xb6bffcc2	-5.7216685e-06
23	0xb791be14	-1.7373859e-05
24	0xb808e291	-3.2635933e-05
25	0xb7b0e1aa	-2.1085918e-05
26	0xb7effa49	-2.8607568e-05
27	0xb89d87b3	-7.511619e-05
28	0xb84f404f	-4.9412538e-05
29	0xb82e7442	-4.1593106e-05
30	0xb84cfbcc	-4.8871894e-05
31	0xb82ea582	-4.1638974e-05
32	0xb8346856	-4.3012515e-05
33	0x374ebaa8	1.2322016e-05
34	0xb6c46c47	-5.8538603e-06
35	0xb6880f7a	-4.0549176e-06
36	0xb8629c0d	-5.4027932e-05
37	0xb8161a27	-3.5787143e-05
38	0xb866b6ba	-5.500645e-05
39	0xb897bbca	-7.2352195e-05
40	0xb8387724	-4.3979977e-05
41	0xb897dc30	-7.241254e-05
42	0xb854009e	-5.0545314e-05
43	0xb7f43e33	-2.911603e-05
44	0xb88a7d74	-6.60372e-05
45	0xb85b9901	-5.2356165e-05
46	0xb7ba8d8f	-2.2238846e-05
47	0xb82edfd1	-4.1693278e-05
48	0x37578c21	1.2847625e-05
49	0x38074d55	3.225853e-05
50	0xb703d439	-7.85762e-06
51	0x37af0d7d	2.0867907e-05
52	0x3807f20b	3.241193e-05
53	0x37ba4a6b	2.2207581e-05
54	0x36721fa2	3.6079223e-06
55	0xb724077e	-9.776906e-06
56	0xb896191d	-7.157235e-05
57	0x37eb094b	2.801851e-05
58	0x3755faff	1.2754229e-05
59	0xb7a1f9bd	-1.9308989e-05
60	0xb7ea19df	-2.7907021e-05
61	0xb74266fa	-1.1587277e-05
62	0xb6da339c	-6.5029144e-06
63	0xb8e1147a	-0.0001073265
64	0xb865e611	-5.481212e-05
65	0xb7eb18b6	-2.802569e-05
66	0xb85543c2	-5.084626e-05
67	0xb75c6073	-1.3135478e-05
68	0x36f6fd18	7.3608353e-06
69	0xb616ddad	-2.2480774e-06
70	0xb7a5af44	-1.9751147e-05
71	0x37951820	1.7773418e-05
72	0x38b66099	8.696429e-05
73	0x3893878a	7.034752e-05
74	0x38a2d136	7.7637305e-05
75	0x386738f2	5.5127726e-05
76	0x3802f639	3.1223728e-05
77	0x3825ca90	3.9527717e-05
78	0x386decc5	5.6725712e-05
79	0x385a6458	5.2068703e-05
80	0xb78b05b8	-1.6572754e-05
81	0xb7ba0df1	-2.217942e-05
82	0x36acc1e6	5.148572e-06
83	0x38054123	3.1770334e-05
84	0xb76a7c4a	-1.3976425e-05
85	0x3702865d	7.779888e-06
86	0x380488ae	3.1598545e-05
87	0xb69a92e9	-4.6066602e-06
88	0x37eb1689	2.8024677e-05
89	0x3816da9f	3.5966394e-05
90	0xb8beeb38	-9.103719e-05
91	0xb859acd6	-5.1897798e-05
92	0xb711b542	-8.684876e-06
93	0xb85a7368	-5.208273e-05
94	0xb78946dc	-1.636467e-05
95	0x36e4cdf1	6.8189042e-06
96	0xb65a0ec4	-3.2493126e-06
97	0x3782a16f	1.5572381e-05
98	0x377d7fb9	1.5109713e-05
99	0x37723828	1.4437399e-05
100	0xb7b3c741	-2.1431248e-05
101	0xb7e78a66	-2.7601793e-05
102	0xb8494c98	-4.7993468e-05
103	0xb7f46bf9	-2.9137345e-05
104	0xb831a98d	-4.2357995e-05
105	0xb83134c4	-4.224923e-05
106	0xb85c8937	-5.257988e-05
107	0xb6c13d10	-5.758957e-06
108	0x37ea0543	2.7897424e-05
109	0x37ec36e3	2.8158951e-05
110	0x38084b9b	3.249534e-05
111	0x36f0c8b8	7.175924e-06
112	0x370dc523	8.450154e-06
113	0x36b48dd7	5.3809304e-06
114	0x373238b5	1.062283e-05
115	0x3796a0d5	1.7956287e-05
116	0x37abc277	2.0475343e-05
117	0xb6f0f8ce	-7.181522e-06
118	0xb67ba316	-3.7496843e-06
119	0x362f21d0	2.6096714e-06
120	0xb798f47b	-1.8233657e-05
121	0x36684411	3.4610314e-06
122	0x374e6a51	1.23033105e-05
123	0x3806bb49	3.2122512e-05
124	0x385f400e	5.3227e-05
125	0x384ce8b5	4.8854115e-05
126	0xb8451d0c	-4.6995512e-05
127	0xb7b98351	-2.2114868e-05
128	0xb7d6f05f	-2.562272e-05
129	0xb8308a28	-4.2090338e-05
130	0xb7c5ab55	-2.3564013e-05
131	0xb78448c4	-1.576951e-05
132	0x345d0809	2.0585152e-07
133	0xb6c742e3	-5.938449e-06
134	0x36d6fa41	6.4068304e-06
135	0xb93da14a	-0.0001808453
136	0xb89a8dad	-7.3696814e-05
137	0xb8a290fe	-7.751769e-05
138	0xb8b79b2c	-8.755023e-05
139	0xb820eb43	-3.8366077e-05
140	0xb863dedf	-5.4328582e-05
141	0xb80d0cfb	-3.362911e-05
142	0xb7ac3e4b	-2.0533005e-05
143	0xb8061028	-3.1963136e-05
