09-Autoencoders/lightning_logs/version_6/checkpoints/best_model_val_loss=0.14310118556022644.ckpt (torch, 72488 bytes, 39 tensors)

model.encoder.conv1.weight f4 [16, 1, 3, 3]
000000 2b 2d 5a 3e de 87 35 3e f8 ff 4e 3e c7 8d 3b 3e
       0.21306293 0.1772761 0.20214832 0.18315803
000010 5c fc 84 be 08 52 58 3e b3 97 dd bd 2d 74 10 be
       -0.25973785 0.21125042 -0.1081995 -0.14106818
000020 e5 61 84 be 53 14 8f be a0 d9 88 3e 22 43 aa 3d
       -0.25855938 -0.27945194 0.26728535 0.08313586
000030 3b f0 30 3d 08 02 d3 3d 9a 0b b4 bd 75 c6 e3 bd
       0.04319785 0.10303122 -0.08791275 -0.11121837
000040 d1 d3 9b 3e cc 43 c0 3e 34 47 e8 3d 27 03 b2 3a
       0.3043504 0.37551725 0.11341706 0.0013581262
000050 4b 5d c2 3e a7 3c 5a bd d4 38 99 3e 2e 75 a0 3e
       0.37961802 -0.0532805 0.2992617 0.313394
000060 ad e4 37 be c9 dc 98 bd 00 d2 54 be 4d 26 14 3e
       -0.17958327 -0.074639864 -0.20783234 0.14467736
000070 7a 24 fc 3d fe 87 60 3e d7 eb 98 3d 59 05 b4 3d
       0.12311645 0.21926877 0.07466858 0.087900825
000080 a1 c7 ad 3e ec 5e f9 bd 24 3a 97 3e 95 73 d9 bd
       0.33941367 -0.12176308 0.29536545 -0.10617749
000090 ac 1b 0e 3f 7f 94 c8 3c bb e8 8d bc 5d 6c 13 3c
       0.55510974 0.024484871 -0.017322889 0.008998004
0000a0 a9 d9 24 be 5d 15 58 be 48 7a c5 3c 0e f0 e6 be
       -0.16098656 -0.211019 0.02410616 -0.45105022
0000b0 40 2d 4e be 5b c9 58 bd ec 9e 2e 3e 44 b9 1c 3e
       -0.20134449 -0.052926403 0.17052811 0.15305048
0000c0 fb 0f 61 bd 40 ae 2a be a7 9c b6 bd 9a 56 86 3e
       -0.05494688 -0.16668034 -0.08916598 0.26237947
0000d0 2e d9 fc 3d b0 f1 23 bc c8 e2 a4 bd 03 d6 68 3e
       0.12346111 -0.010006353 -0.080510676 0.22737889
0000e0 e3 7d 04 3e 89 be 71 3e 5d 12 ba be a9 3b 0a 3d
       0.12938647 0.2360784 -0.36342135 0.033748303
0000f0 87 a8 70 be 1a 26 27 3e 33 9b 23 3e 30 f9 a4 3e
       -0.23501788 0.16323128 0.15977173 0.32221365
000100 78 d5 99 3e 92 63 3a 3e fb 2f 9b 3c b4 39 c2 3e
       0.30045676 0.18202046 0.018943777 0.3793465
000110 0e 71 9e 3d dd 44 83 bd 15 b2 92 3e 27 95 89 3e
       0.07736407 -0.06409619 0.2865149 0.26871607
000120 9b 81 b1 3e f2 fb 92 3e 42 8b ab bd 5c 68 af 3e
       0.34669194 0.28707844 -0.08376171 0.34259307
000130 59 80 80 be 81 a5 ac 3e 5e 4f 89 be de ad 11 3d
       -0.25097921 0.3372002 -0.26818365 0.035566203
000140 73 27 e0 3d 11 1f 3e 3e b9 2b b9 3e c6 ce ae bd
       0.10945024 0.18566538 0.3616617 -0.08535533
000150 e9 59 89 3e 54 e8 ba 3e 05 09 15 3d ba 44 e1 bd
       0.26826409 0.36505377 0.036385555 -0.10999437
000160 6d 78 aa 3d 58 88 1a bd 8e 3d ba 3e b7 e2 b5 3e
       0.08323751 -0.037727684 0.36375087 0.35524532
000170 8c df 84 be 36 d1 21 be 1e bf 82 3e 9f 06 d8 3d
       -0.25951803 -0.15802464 0.25536436 0.10548138
000180 f6 40 5c 3e 4f 8e b5 3e e1 81 a0 bd fc a4 d9 3d
       0.21509156 0.35460135 -0.078372724 0.106271714
000190 2b 90 99 3d 62 67 85 3e 30 82 5f bd 3f 6f 87 3e
       0.07498201 0.26055437 -0.054567516 0.26452062
0001a0 b5 9d d7 3e ec 43 bd 3d b0 96 0b bd 23 51 bb bd
       0.42112508 0.09241471 -0.034079254 -0.09146335
0001b0 cf 88 33 3e d2 9e 94 3e 43 50 e6 3c 4b 6f 8b be
       0.17532657 0.2902742 0.028114444 -0.27233347
0001c0 6e 6d 60 3e 33 5a d5 3d 3a 04 c8 3c 0d da 31 3e
       0.21916744 0.10417595 0.024416078 0.17368336
0001d0 a5 36 f7 bd b6 1c 68 3e 7d 78 10 bf 0a 2b c5 bd
       -0.120709695 0.22667202 -0.5643385 -0.0962735
0001e0 e3 0b 46 bd 80 65 e3 be 64 cb c4 3e 0a f6 97 3e
       -0.04835118 -0.44413376 0.38436425 0.296799
0001f0 77 f4 67 3e f8 4e 23 bd 1c ad bd 3d d6 94 47 3e
       0.2265185 -0.039870232 0.092615336 0.1949037
000200 ee d8 90 3e d0 c0 b4 be a4 5b 68 3e 76 3c 87 be
       0.28290504 -0.35303354 0.22691208 -0.26413316
000210 bf 1a 94 be d4 ee 94 bd f9 80 95 3e 8c a2 9c 3e
       -0.28926656 -0.07272115 0.2919996 0.30592763
000220 b1 7d 34 be 29 fa 4f 3e 4a c5 be 3e 20 16 29 be
       -0.17626072 0.20310272 0.37259895 -0.16512346
000230 82 e7 84 3d 37 38 cf 3e 68 2f b1 3e 5c 66 6b 3e
       0.06489469 0.40472576 0.3460648 0.22988266

model.encoder.conv1.bias f4 [16]
000000 c8 10 62 be c1 5b b6 3e 88 1c 72 3d 9f a2 af 3e
       -0.22076714 0.35616878 0.05910924 0.34303758
000010 34 af 7e 39 37 cc 80 bd 25 47 8a 3e 28 b0 90 3b
       0.00024288596 -0.06288951 0.27007404 0.0044155307
000020 20 84 73 be 1a f3 06 38 6b 17 f1 3d 01 f6 20 39
       -0.2378087 3.2174496e-05 0.11772045 0.00015350433
000030 72 5e 17 be 19 0b 23 3d d5 02 43 39 6b 95 85 bc
       -0.14782122 0.039805505 0.00018597704 -0.0163066

model.encoder.conv2.weight f4 [8, 16, 3, 3]
000000 6e a4 55 bd e3 b1 2a be 2c 37 aa bd a1 81 c7 bd
       -0.052158765 -0.16669421 -0.083113045 -0.097415216
000010 e5 aa 48 bd 2b db 44 be b3 75 a0 bc 5a aa 0e be
       -0.048991103 -0.19224231 -0.019587373 -0.13932171
000020 66 48 48 be d9 35 0a 3d 3c b4 13 3e bb 03 f3 3d
       -0.19558868 0.03374276 0.14424223 0.11865946
000030 32 a7 9b 3b c9 7f 38 3e ce dc 0e 3d 6f 23 92 bc
       0.004750156 0.18017496 0.034878545 -0.017839162
000040 1d f4 5a 3d e8 9b 32 3e 11 6e 8d bd 5f f8 ce 3c
       0.05345546 0.17442286 -0.06905759 0.025264917
000050 63 bb f3 3d 96 11 4e 3d c2 be c7 3c 6a ed c6 3d
       0.119009756 0.05030974 0.024382953 0.09713252
000060 fb ec 26 3d a8 62 47 bc cd a1 e8 3d 35 4c 47 bd
       0.040753346 -0.012169518 0.11358986 -0.04865666
000070 78 b1 2a 3d 93 0c ce 3d bc 53 39 3c ac 23 9c 3d
       0.041673154 0.10060992 0.011311468 0.07623991
000080 2e 33 16 3e ea 1e 1a 3d e5 7a ee 3d 46 4c dc 3d
       0.14667961 0.03762714 0.11644534 0.107567355
000090 8a 3e 64 be d5 c3 88 bc c9 b1 98 bc de a4 59 be
       -0.22289482 -0.016694942 -0.018639462 -0.21254298
0000a0 6a b7 80 bd d5 3b 53 bd 36 99 25 be 03 2d a1 bd
       -0.062849835 -0.051570732 -0.16171727 -0.078699134
0000b0 8b 83 a0 bd eb 52 43 3d 85 22 27 bd 3e 16 9b 3c
       -0.0783759 0.0476865 -0.040804405 0.018931504
0000c0 cc ff cb bd 0e 86 30 3d 52 f3 11 3c b2 0c 15 bd
       -0.09960899 0.043096595 0.00890811 -0.03638906
0000d0 8f 9d 1b be ef a4 4a 3d 15 7b b4 3d 4b 80 f3 3d
       -0.15196823 0.0494737 0.088125385 0.11889704
0000e0 64 89 30 3e 51 7c 00 bd 8b c8 08 3e 91 22 09 3e
       0.1723991 -0.031368557 0.13357751 0.13392092
0000f0 2b f3 07 bc 0f 10 24 3e 3e b0 10 3d 41 a1 1f 3c
       -0.008297722 0.16021751 0.035324328 0.009743036
000100 ee 7a c5 bc bd 33 97 3d cd e0 c3 bd fa 76 5b 3d
       -0.024106469 0.07382915 -0.09564362 0.05358026
000110 17 36 11 bd bd 0c 9c bd f1 f5 98 bd 58 33 9c 3d
       -0.035451975 -0.07619617 -0.074687846 0.076269805
000120 14 60 01 be 15 fc 81 3c a6 0b 28 bd a5 cc 91 3b
       -0.12634307 0.015867272 -0.041026734 0.0044494444
000130 56 c4 9c bc 6d b2 a4 bd d0 99 ff 3b ad 69 bd 3c
       -0.019136589 -0.080418445 0.0078003183 0.02312168
000140 36 b4 40 bd a3 1b f8 bd e3 22 25 bc ed 6f 78 bd
       -0.047046863 -0.12114646 -0.010079118 -0.060653616
000150 82 ad 23 bd 78 c8 5f bd f8 5f 54 3d c3 f3 d9 bd
       -0.03996039 -0.05463454 0.051849335 -0.10642197
000160 88 5d ea bd 8c ed af 3d e3 de ca bd 7e b6 6e 3d
       -0.11443621 0.0859023 -0.099057935 0.058279507
000170 b0 cf 0b 3c 20 d5 0c 3c c1 cb 2a bd de f2 6f 3d
       0.008533403 0.008595735 -0.04169822 0.058581226
000180 3e 2f bf 3c ab 02 b5 3c f1 d3 8f 3d 83 ad ec bd
       0.023337957 0.022095999 0.070228465 -0.11556532
000190 80 42 d3 bc d4 f2 7e 3d be 55 34 bd 39 32 a3 bc
       -0.025788546 0.062243298 -0.044027083 -0.019921409
0001a0 71 b1 1e bd 83 93 ba bc 57 57 7a bd 82 d1 05 bd
       -0.03874344 -0.022775417 -0.06111845 -0.032670505
0001b0 3b b9 90 bd c6 85 7e bd cf 41 76 bd cc fe cc bd
       -0.0706658 -0.062139295 -0.060121354 -0.10009536
0001c0 94 89 eb bd a9 f5 36 bd 05 1a a4 bd ea 6d 49 3d
       -0.1150085 -0.044667874 -0.08012775 0.049177088
0001d0 be 13 7c bb 12 5f e7 3d eb c7 56 3c 8b 14 35 3d
       -0.0038463916 0.1129743 0.013109188 0.044209044
0001e0 fc db 8b bc 5a b0 12 3c 72 f4 f0 3d c8 33 43 3c
       -0.01707267 0.008953178 0.11765374 0.011914201
0001f0 05 b7 e6 bd 5b 02 86 3d 76 6b e0 bd 27 b2 a9 bc
       -0.11265377 0.06543418 -0.109579965 -0.020714832
000200 8e f1 e3 3d 8a fb 24 bc ae 86 b7 3c 7d 26 31 3d
       0.11130057 -0.010069737 0.022403087 0.043249596
000210 97 08 f6 3b 5a 28 93 38 82 17 c3 3d 93 a9 be bd
       0.007508348 7.017022e-05 0.09525968 -0.093096875
000220 66 86 48 bd ef fd ac bd d5 29 b1 bc d4 ff f5 bd
       -0.048956297 -0.084468715 -0.021626392 -0.12011686
000230 26 fc 5b bd ae 2f 94 bd ac e3 3a bd 91 64 8d bd
       -0.053707264 -0.07235657 -0.04562728 -0.06903947
000240 c1 6e 21 be cb ac 08 be aa 49 f6 bd 13 0c e2 bd
       -0.15764906 -0.13347165 -0.12025769 -0.11037459
000250 81 84 11 bd 5a 60 d2 bc bf fb 6e bd 6a b5 7d bb
       -0.035526756 -0.02568071 -0.058345553 -0.0038712868
000260 ae ac be 3c 12 4b 2b bd 94 d9 f8 3c b0 36 0b 3d
       0.0232757 -0.04181964 0.030377187 0.0339877
000270 bc 44 8c 3c 13 93 d9 3d e0 40 03 bd 4d 6e 95 3d
       0.017122619 0.10623755 -0.03204429 0.07296429
000280 ad 0d a2 3d 66 15 50 bd 45 a5 42 bd 5b fc aa 3d
       0.07912765 -0.050801657 -0.047520895 0.08348914
000290 f9 e2 a0 bc c4 bf cf 3d 85 32 6c 3d 69 d2 ab 3c
       -0.019639479 0.10143998 0.057665367 0.020974355
0002a0 cd 53 e1 3d 03 e3 a9 3c 85 ae a5 3c 7f 0b 16 bd
       0.11002312 0.02073813 0.020224819 -0.036632057
0002b0 92 39 fa 3c a2 c4 d1 3d 5b 0c db 3d 4f 94 5e 3b
       0.03054503 0.10242583 0.10695716 0.003396291
0002c0 84 7e 08 bc 3a 1b dd 3d f1 ad de 3d 9b 74 ac 3b
       -0.008330945 0.10796209 0.108730204 0.005262924
0002d0 4b d4 fb bd 31 1b ee bd 14 a9 a1 3c f6 69 39 3d
       -0.12296351 -0.1162628 0.019733943 0.045267068
0002e0 83 e5 47 3e 4c fa 6e 3e 66 95 00 3e 17 0e 0c 3e
       0.19521146 0.23337668 0.12556991 0.1367725
0002f0 98 55 b1 3d 45 bd b0 bd f9 8a 04 3d 66 53 0d 3c
       0.08658904 -0.0862985 0.032359097 0.008625841
000300 eb 98 cc 3d 3e 4d bd 3d 7d 52 c2 3d d4 f0 c4 3d
       0.09990104 0.092432484 0.0948839 0.09616247
000310 96 4d 52 3d 9a 1e 3c bd 74 f0 22 3c b8 9d 17 bd
       0.051343523 -0.04592762 0.009945024 -0.037015647
000320 09 78 bd bc e3 42 2e bd 52 9a 7f 3d 70 20 22 bd
       -0.023128526 -0.042544257 0.06240303 -0.039581716
000330 df 80 0b 3d 57 cf bc 3d 23 2d 18 3c 85 f3 a5 3d
       0.034058448 0.092192344 0.009288105 0.08103088
000340 19 cc 67 3d 4c 39 3b 3c 14 d2 5c 3d ab e3 f9 3d
       0.056591127 0.011427235 0.053911284 0.12201627
000350 4c 77 98 3d 80 f1 12 bd 49 64 c8 3c 8a 43 12 3b
       0.07444629 -0.035874844 0.024461882 0.0022318088
000360 41 70 51 bd 4a d4 c0 3b 2b 09 70 bd a7 fa 79 3d
       -0.051132444 0.005884682 -0.058602493 0.061030056
000370 9c 18 04 bd a8 f9 8c 3d 09 cd 06 3d 2d 87 53 3d
       -0.03225003 0.06883556 0.03291038 0.051642586
000380 5e ea 2a bd 93 54 66 bd aa 62 b6 bc f6 8f b3 3d
       -0.041727416 -0.056233 -0.022263844 0.08767693
000390 0e 77 9e 3d 57 99 9c 3d 90 0f 9b 3d 65 c1 8b 3d
       0.07737552 0.07646435 0.07571328 0.068239965
0003a0 47 a2 aa 3d 10 ab 7b bc ca 97 02 3d b8 18 d1 3c
       0.08331733 -0.015360609 0.03188304 0.025524482
0003b0 bd 9a 96 3d 14 5e ae 3d d2 4a 95 3d 52 26 75 3c
       0.07353733 0.08514038 0.072896615 0.01496275
0003c0 c2 2a bc 3d 83 fd e5 3d 82 77 98 3c f7 35 ae 3d
       0.09187843 0.11229994 0.018611673 0.08506387
0003d0 54 ee 19 bb a5 78 9a 3d 5c 9d 2d 3d 96 e4 56 3d
       -0.0023488002 0.07542542 0.042386398 0.05246409
0003e0 07 36 18 3c d1 83 fe 3d 92 f8 ff 3c e4 1d 44 bd
       0.009290225 0.12427486 0.031246457 -0.04788007
0003f0 95 ca 0b bd 88 12 70 3c f2 62 a1 3d cc e0 ad 3d
       -0.034128744 0.014652856 0.078802004 0.08490142

model.encoder.conv2.bias f4 [8]
000000 d7 32 c7 3d a9 67 c0 3d a6 32 98 3c 0f ef fa 3d
       0.09726494 0.093947716 0.018578839 0.12252628
000010 ad 95 b4 bd e1 d8 22 3d ad c8 c1 bd 65 58 99 bd
       -0.08817611 0.039757613 -0.09462104 -0.07487563

model.encoder.conv3.weight f4 [8, 8, 3, 3]
000000 c7 bf 0b 3d e8 2a 4e 3d fd 8d 7d bc 81 48 cb 3d
       0.03411844 0.050333887 -0.015475747 0.099259384
000010 8a 29 9b bc e8 9e 7c 3d 7b 0c f1 bd 72 61 15 be
       -0.018940706 0.061674982 -0.117699586 -0.14587954
000020 be 5c 33 3d 51 6a 8a 3c 0d d7 70 3e 58 4f ff 3d
       0.043789618 0.016896399 0.23519535 0.124663055
000030 3b 99 d3 bd 14 90 82 3c 3e f9 d1 bc cc 5f e5 bc
       -0.10331961 0.015937842 -0.025631543 -0.027999781
000040 4d 38 38 be 4d 60 9d bd 7e ba 2e 3e 16 f0 96 3d
       -0.17990227 -0.076843835 0.17063329 0.073700115
000050 43 57 eb 3d e3 3f ec 3d aa ab 28 3d 08 8f 27 bd
       0.11491253 0.11535623 0.041179337 -0.04090789
000060 59 b4 c0 bb fa 11 41 be b7 66 d7 bd ee 5a 3b 3e
       -0.005880874 -0.18854514 -0.10517638 0.18296406
000070 38 f5 61 3e 28 80 6a 3e 07 a9 81 3e 71 3b 12 3e
       0.220662 0.2290045 0.2532427 0.14280488
000080 84 66 1e 3e 46 01 64 3d 49 b7 96 bd a5 e9 d9 3c
       0.15468794 0.055665277 -0.073591776 0.026600668
000090 ba 12 83 bd a8 3f 65 bd 8f 7a cb 3d 6c ee d2 bd
       -0.06400056 -0.05596891 0.099354856 -0.102993816
0000a0 40 7f 89 3d 47 e8 17 3d fd 9b a4 3d 16 e1 94 3d
       0.06713724 0.03708675 0.08037565 0.07269494
0000b0 41 de e3 bd 0d 3f 8c bc da 96 74 3e de 95 3f 3e
       -0.11126376 -0.017119909 0.2388567 0.18709514
0000c0 69 4a a1 bd 17 24 02 3e a1 2a 0c 3c 2d 5a 57 3c
       -0.07875521 0.1270908 0.008555085 0.013144058
0000d0 98 ff a3 bd 70 85 d5 3c 0f 8b 75 3d 76 92 cc 3d
       -0.08007735 0.026064605 0.05994707 0.09988873
0000e0 09 d2 13 3d 83 b5 46 bd bb 9d 9a bd b8 4d 14 be
       0.036088977 -0.048512947 -0.07549616 -0.14482772
0000f0 72 7c 8b 3d 68 ec 88 3d 15 45 06 be 71 cd 47 3d
       0.068108454 0.06685716 -0.1311229 0.04877991
000100 d7 85 2b 3d 7d ff c7 bd 83 70 38 3d ab 06 7e bd
       0.041875686 -0.097655274 0.045029175 -0.062018078
000110 22 e7 34 3c 2b aa 94 3c 4d fe 00 3c 1d d7 67 3d
       0.0110414345 0.018147549 0.00787313 0.056601632
000120 67 ba d8 3d 88 5d 23 3d d3 81 c9 3d 8f 0a da 3c
       0.105824284 0.03988412 0.09839215 0.026616363
000130 93 76 2d 3e a2 8b 4d bd ab 54 b3 3c 28 40 25 3e
       0.16939764 -0.050181992 0.021890959 0.16137755
000140 3a a3 ea 3b c3 67 d7 bc 6f 41 1b 3d 05 a0 b7 3d
       0.0071605714 -0.026294595 0.0379042 0.08966068
000150 7c cb 9a bc e6 3d 9e bd b9 7e 8c 3d bd 03 b7 bd
       -0.018895857 -0.0772665 0.06860108 -0.0893626
000160 74 7e a6 bd e3 e1 a4 bd 1b 21 e6 3d 16 f5 89 bd
       -0.08129588 -0.08050897 0.11236783 -0.067361996
000170 1e 8b 8d 3d 60 e6 8b bd 3f 3e a2 3d da 56 a9 bd
       0.069113 -0.0683105 0.07922029 -0.08268519
000180 5d b6 0a bc 55 99 9c 3d ad 60 c9 3c e9 fc 4d 3c
       -0.00846633 0.07646433 0.024582231 0.0125725055
000190 78 ed 6c bd 98 d0 b2 bb ca b3 14 bd 1d 9a c4 3d
       -0.057843655 -0.005456995 -0.036304273 0.09599707
0001a0 a6 30 12 bd 98 c8 b8 bd 08 60 74 bd 2f ea 92 3d
       -0.035690926 -0.09022635 -0.059661895 0.07173573
0001b0 54 ab bd bd c3 82 6b bc 17 15 75 bd 44 26 72 bb
       -0.09261194 -0.014374438 -0.059834566 -0.0036949078
0001c0 e7 a3 ac bd 56 89 9a bd 4c bf 29 bd 3e 45 f9 3c
       -0.084296994 -0.07545726 -0.0414422 0.030428525
0001d0 5f 55 f5 3d f6 29 08 be 96 b5 4d bd 67 53 fa 3d
       0.11979174 -0.13297257 -0.050222002 0.12222939
0001e0 cf 9f 29 3d ef 35 c2 bd 80 7a 99 3a f4 62 05 be
       0.04141217 -0.09482943 0.0011709481 -0.13026029
0001f0 b9 1c da bb 31 7a 72 3d 96 10 12 be 08 55 d9 bc
       -0.006656256 0.059198562 -0.1426414 -0.026529804
000200 6b 67 f5 bd 04 b6 f1 bd fa 07 9c 3b ef 24 38 bd
       -0.11982616 -0.11802295 0.004761693 -0.044957098
000210 98 c8 62 3c 60 83 47 3d 35 75 a4 3c a5 14 c7 bc
       0.013841771 0.048709273 0.02007542 -0.024301836
000220 8a 69 b7 bd 21 fb fd bc c3 84 e0 3c 5b 03 d5 3d
       -0.08955677 -0.031003537 0.027407056 0.10401031
000230 c7 19 c0 bd be 67 57 bc af 29 b9 3d 23 e9 d9 3d
       -0.09379917 -0.013147293 0.09041154 0.106401704
000240 f5 13 1b 3d 23 57 03 3e 78 72 38 3d f3 76 c2 bd
       0.03786083 0.12826209 0.04503104 -0.09495344
000250 20 51 39 3d 81 81 1f be 8b 07 cb bd 26 1a 19 3d
       0.045243382 -0.15576746 -0.09913548 0.037378453
000260 dd fc 0c 3e 5e 19 ae 3d f0 1a a3 3d f7 3c 05 3e
       0.13768335 0.08500932 0.07964122 0.13011537
000270 e8 fe 54 3d 43 35 c1 3d 8a 38 94 3d 56 5f 8d 3b
       0.05200091 0.09433987 0.072373465 0.0043143434
000280 bc b2 03 bd c0 92 a6 3d 89 fb ff 3c 87 8e 0c 3e
       -0.032152876 0.08133459 0.031247871 0.13726245
000290 f5 e8 3e bd 75 9d 17 bc 2c 6b 0c 3d e6 ee 3b bd
       -0.046608884 -0.009253849 0.034281895 -0.04588213
0002a0 5b e2 e4 bb cd 1c 10 3d a9 dc 30 3e d3 a9 d4 bd
       -0.0069849915 0.035183717 0.17271675 -0.10383954
0002b0 1c ce c9 3d 19 bf f0 3c 3d 66 80 3c 43 99 69 bc
       0.09853765 0.029387997 0.015673751 -0.014257732
0002c0 56 5c 52 bd 10 cc 94 bd 8e f2 00 3e bc 80 c3 3d
       -0.05135759 -0.07265484 0.12592527 0.095460385
0002d0 49 6b 66 bd 4e f1 b0 bd c8 56 cf 3b 48 bf c0 3d
       -0.05625466 -0.08639775 0.006327484 0.09411484
0002e0 7e ec 1c 3d 4b 28 96 bd 0a 06 c5 bd cd bb b3 3d
       0.038311474 -0.07331904 -0.096202925 0.087760545
0002f0 00 f4 83 3d 20 c1 dc bd 57 ef ca bd 71 43 7b 3d
       0.06443024 -0.10779023 -0.09908932 0.061343614
000300 c0 3b 36 3c 4a 8e d6 bc 1c dd 79 3d b7 e2 7e bd
       0.011122644 -0.026190896 0.061001882 -0.06222793
000310 86 6a c1 3d a1 d9 8e 3d b2 0b b8 3d 70 a1 c0 bd
       0.09444146 0.06975103 0.08986606 -0.09405792
000320 52 f7 2b 3c 1c 01 88 3d 9f 11 46 3d 79 9d e0 3d
       0.0104959775 0.066408366 0.04835665 0.109675355
000330 68 28 b3 bd 3b 1a 58 39 49 a7 05 3c 9b 30 95 3d
       -0.08747941 0.00020609137 0.00815756 0.072846614
000340 b6 6d 3f 3c 2e 7a 17 3d bc c7 b3 3d 62 31 fe bc
       0.011683872 0.036981754 0.08778331 -0.031029407
000350 83 6e d4 bd 2c a5 4d 3b 76 fd c5 3d b7 8b d3 3d
       -0.10372641 0.0031378968 0.096674845 0.10329383
000360 b6 00 18 be 0b 61 1b be 19 cf 50 be c7 ec 5c 3e
       -0.14844021 -0.15173738 -0.20391501 0.21574698
000370 f6 98 d5 bc 52 e2 a3 bd 86 b1 23 3d fd a7 9b bd
       -0.026073914 -0.080021515 0.03996422 -0.076004006
000380 a2 5c f4 ba 9f 08 4f bd 74 74 d1 bd 1e 7a 94 bd
       -0.0018643329 -0.05054533 -0.1022729 -0.072498545
000390 0d 09 b3 bc e1 7c 22 3e 7e 54 63 bc 28 c9 f2 3d
       -0.021854902 0.1586795 -0.013875125 0.11854774
0003a0 d0 48 e1 3d 89 b8 ab 3d f7 dd a5 3c 2b 77 07 be
       0.11000216 0.08384807 0.020247443 -0.13229053
0003b0 28 f1 86 bd cb 5e 26 3e 33 7d 10 3e 95 50 2a 3d
       -0.06588966 0.16247098 0.1411026 0.041580755
0003c0 1d 8e 78 3d 38 8c 0f 3e b9 02 ac 3d f1 85 a9 bd
       0.060682405 0.14018333 0.08398957 -0.082775004
0003d0 79 8e aa 3b 84 52 b1 3c c2 79 57 3e e2 87 48 3d
       0.0052049723 0.021645792 0.2104254 0.048957713
0003e0 93 df 11 3e 39 aa 68 3d 35 f0 cf 3d 3e a1 f2 bc
       0.14245443 0.056802962 0.10153238 -0.029617902
0003f0 69 25 84 bd 0b c3 2d bd 14 0d 6e bd 0b 64 b5 3d
       -0.06452448 -0.042422336 -0.05811794 0.08856972

model.encoder.conv3.bias f4 [8]
000000 34 26 30 bd 9b 7a 10 3e 84 91 3b bd fe 39 78 3d
       -0.043005183 0.1410927 -0.04579307 0.06060218
000010 48 24 a0 3d 21 3b 10 bd 3e 67 b0 3b 8f 99 18 be
       0.0781942 -0.03521264 0.005383401 -0.14902328

model.decoder.conv1.weight f4 [8, 8, 3, 3]
000000 cc 1a 5b bd 82 23 73 3d 96 28 48 3d 9a eb d6 3d
       -0.053492352 0.059360035 0.04886683 0.10494156
000010 2b 61 fe bd 63 43 7d 3d 67 de 58 3d 1d c5 6e bd
       -0.12420877 0.061831843 0.052946474 -0.05829345
000020 5a af a2 bd 60 2c 02 bd ec 47 5a ba fb 3c d9 3c
       -0.07943602 -0.0317806 -0.0008326757 0.026518336
000030 72 a6 2f 3c 56 2a b8 bc 00 8a 1a bd ed b7 5b bd
       0.010720836 -0.022481125 -0.037729263 -0.053642202
000040 ed 9c 94 3d 82 d3 9b 3c 3c 48 d9 bc c2 fb 92 3d
       0.07256494 0.019021753 -0.026523702 0.07176925
000050 46 1f c2 bd 4f db 82 3d 91 f9 c3 bd 76 c3 b2 bd
       -0.09478621 0.06389486 -0.095690854 -0.087286875
000060 d7 26 de bc 5d 2b 16 bc e8 79 d0 bc 5c 9f 85 3d
       -0.02711813 -0.009165612 -0.025448754 0.06524536
000070 20 ca 2f bc ed dd 36 bd dc f4 c9 bc 5a 03 54 be
       -0.010729343 -0.04464524 -0.02465289 -0.20704404
000080 46 c2 1e be 5d 83 94 3d 69 f0 00 3e fd b4 4d be
       -0.15503797 0.07251618 0.12591709 -0.20088573
000090 8d d0 d7 3c d2 3a 3b 3d 56 18 2e bd 25 a8 0e 3e
       0.026344562 0.045710392 -0.042503677 0.1393133
0000a0 78 2f 2d bd 31 bb 20 be 52 a9 b7 3d 91 bc 53 3e
       -0.042281598 -0.15696408 0.08967842 0.20677401
0000b0 27 50 1a be 97 0e 6a bd 94 de a5 bd 2f 5c 01 bd
       -0.15069638 -0.05714282 -0.08099094 -0.031582054
0000c0 a1 86 fb 3b f8 13 7a bd e0 f2 c8 bd 77 cc ce bd
       0.007675961 -0.0610542 -0.0981195 -0.10097592
0000d0 c7 48 e3 3d 2d 6c 16 be 15 df 20 3d 5d 4a 06 3e
       0.110978656 -0.14689703 0.039275248 0.13114305
0000e0 0c 7f e5 bd 01 dd 8b 3d fc d2 01 be 2f 18 42 3c
       -0.11205873 0.068292625 -0.1267814 0.011846586
0000f0 70 3f 95 3d 3c 98 fa bc c1 8f ff bc 01 b4 84 bd
       0.0728749 -0.03059017 -0.031196477 -0.064796455
000100 b5 7f fe 3c 92 b1 99 b9 50 37 cf 3d b3 6e c9 3b
       0.031066755 -0.00029314734 0.10117972 0.0061472296
000110 5f 3c c1 bd c5 a6 cf 3d 2c 07 91 bd 8d c2 e8 bd
       -0.09435343 0.10139231 -0.07081446 -0.113652326
000120 5a b1 0b bc b3 4a 96 3d e0 28 ac 3c f9 05 4d 3d
       -0.008526171 0.073384665 0.021015584 0.050054524
000130 c3 57 c1 bc b3 a4 a9 bb 8c ad 5f 3c 13 17 35 bd
       -0.023601418 -0.0051771044 0.013652217 -0.04421146
000140 1a 59 bf bc 75 a5 05 3e 2b 1e a3 3c 4a 5d f8 3d
       -0.023357917 0.13051398 0.019911846 0.121271685
000150 d2 5b ca 3c 5d 3b c0 3d 70 27 41 3e 45 a8 89 3d
       0.024701986 0.09386323 0.188627 0.06721548
000160 b6 6b 98 3e 2d b3 83 3e ff d3 9a 3c ff c7 41 3d
       0.29769677 0.25722638 0.018899916 0.04730987
000170 18 b1 c9 bd c0 e3 58 3d 4d 21 c9 bd 25 35 0e 3e
       -0.09848231 0.052951574 -0.09820805 0.1388746
000180 fd 2a 08 3d bc 2b 01 be 1d 9a 0d bc 6b c9 2b bc
       0.03324412 -0.1261434 -0.0086427005 -0.0104850335
000190 32 aa b9 3d 1f ba 0d be ae b3 ba 3d 80 2d 92 bd
       0.09065665 -0.13840531 0.091163024 -0.07137585
0001a0 40 cc 88 3e d0 19 83 bd 7f 28 33 be 5d 1d 07 be
       0.2671833 -0.06401408 -0.17495917 -0.13194795
0001b0 a1 b7 8a 3d c2 f1 7a 3d 5b b6 93 bd 59 de c9 3d
       0.06773306 0.061265714 -0.07212516 0.098568626
0001c0 04 0b 7e b5 3c 85 9f 3e 68 ba f7 3d 16 9f aa 3d
       -9.4638403e-07 0.31156337 0.12096101 0.083311245
0001d0 dc c0 09 3e 23 49 0e be 51 b5 2c 3d a7 ec 04 be
       0.13452476 -0.13895087 0.042165104 -0.129809
0001e0 f5 6e f7 bd 8d 7d ae bd 71 1d 96 bd c4 57 65 bd
       -0.1208171 -0.08520041 -0.07329834 -0.055991903
0001f0 49 82 18 3e ef c5 fc bd 78 bb 6e bd b0 40 9e 3d
       0.1489345 -0.1234244 -0.058284253 0.07727182
000200 c4 cf ad 3d 0d bb 2f 3d 85 65 87 bb 04 a6 37 3d
       0.08486894 0.042902995 -0.004131975 0.04483606
000210 91 6c 67 3d ff cd b1 3d 46 ae 23 be fb 2c 06 3d
       0.05650002 0.08681869 -0.15984449 0.03275774
000220 e6 b6 90 3c 86 47 95 3e 40 d6 bb bd 1f 82 12 be
       0.017665338 0.2915613 -0.09171724 -0.1430745
000230 e7 b9 0b 3c 63 01 8f 3d 6b ca 0b 3d 25 bf 51 bd
       0.008528209 0.06982686 0.034128588 -0.05120768
000240 a1 44 e4 bc cd 27 d0 bd 99 e9 80 3d 36 63 99 3d
       -0.027864756 -0.101638414 0.06294555 0.07489626
000250 5b b4 85 bb 13 de 9e 3d 21 13 67 3b 0a 32 d3 bd
       -0.004080338 0.07757201 0.0035259204 -0.103122786
000260 4b b4 ac 3d b5 6d 67 3d a7 e5 db 3d 3d 90 87 3d
       0.08432826 0.05650111 0.10737162 0.06619308
000270 a1 3c 7b bd b2 1b 34 bd c3 3f 58 3e 1b 01 d9 3b
       -0.061337117 -0.043971725 0.21118073 0.0066224462
000280 ae e3 7b bd 47 b2 0a 3e d1 2c 9b 3d 3f 58 07 3e
       -0.06149643 0.1354457 0.075769074 0.13217257
000290 1d 05 76 bd 81 67 a6 bd f3 42 07 3d 2d be 38 bc
       -0.06006347 -0.081252106 0.033022832 -0.01127581
0002a0 86 07 61 bc d9 cf 74 bc 29 77 b8 3d 3b fe 5f bd
       -0.013734704 -0.014942133 0.09007103 -0.054685812
0002b0 bb 6f b8 bb 17 b8 fa bd 79 2a a4 bd 61 f9 20 bd
       -0.0056285537 -0.122421436 -0.080159135 -0.039300326
0002c0 79 04 ca 3d d5 84 22 3e 8e 89 02 3d 50 a6 ca bc
       0.09864134 0.15870984 0.031869464 -0.024737507
0002d0 fd b8 8a 3d c8 8b 82 3e 25 6f da bd 2f 7b e5 bc
       0.06773565 0.2549727 -0.106657304 -0.02801284
0002e0 f2 a8 33 be 3b 55 5a 3c c9 49 68 3e b5 57 6c 3e
       -0.17544916 0.013325985 0.22684397 0.23080333
0002f0 6b b1 0f be 2f bf 7f bb 74 e8 09 3e cc 77 57 3d
       -0.14032523 -0.0039023866 0.1346758 0.05260448
000300 c8 45 ff 3d c5 6b c2 bd 10 cb c0 3d d2 85 4c bc
       0.124644816 -0.09493212 0.09413731 -0.012483077
000310 a7 d1 a8 3d 7f a7 8d 3d f2 f0 94 bd cf c3 60 3d
       0.08243113 0.06916713 -0.07272519 0.054874238
000320 40 ef dd bd 17 58 fe bd 20 df 2f 3e ac 84 24 3e
       -0.10836649 -0.124191456 0.17174959 0.16066235
000330 e2 65 c4 bd 89 7b 0c 3e 5a cd 8e bd 5b 03 aa bd
       -0.09589745 0.13719 -0.069727615 -0.08301421
000340 a7 cc 25 3c 11 f6 99 3d 03 04 97 3d 19 d9 fa bc
       0.010119594 0.075176366 0.07373812 -0.030621098
000350 a9 77 0d 3e 5e b3 df 3d 51 f1 a9 3d 28 b4 00 3e
       0.13815178 0.109228835 0.082979806 0.12568724
000360 9b 7c 4c bd 99 e1 c6 bd 94 af 04 3d cc 58 cb 3d
       -0.04992352 -0.09710998 0.032394007 0.09929046
000370 b5 b1 f2 3d ce a5 05 3e d7 25 48 bd 1f 88 3b be
       0.11850301 0.1305153 -0.048864212 -0.18313645
000380 b4 c1 11 be a2 6d c5 bd 72 88 0a 3e 62 c0 d8 3d
       -0.14234048 -0.096400514 0.13528612 0.10583569
000390 03 0e a3 bc 39 dd 8e 3d 6f fe 30 3e 1e 67 51 3d
       -0.019904142 0.069757886 0.17284559 0.05112373
0003a0 78 6a 5b bc 31 2a f9 3d e6 c6 c2 3d b0 f4 a4 3d
       -0.013392083 0.121662505 0.09510593 0.08054483
0003b0 e5 f8 cb 3c 63 c0 5e bd 72 45 bd 3b 3d 1f b2 3d
       0.024898956 -0.054382693 0.005776101 0.086973645
0003c0 fb 24 f9 bd 61 24 30 3b 48 a6 95 3d 06 90 9f 3d
       -0.121652566 0.0026877152 0.07307106 0.07791142
0003d0 bd 88 8e bd e6 87 57 3a 50 1d 1e 3e fb ca 00 be
       -0.069596745 0.00082218496 0.1544087 -0.12577431
0003e0 fb 1a 23 3e 00 8b 1f be 56 d2 4a be 53 c1 86 3d
       0.15928261 -0.15580368 -0.198068 0.065798424
0003f0 9d aa a1 3d 8d cc f6 bc c0 09 01 be 6b 9c 0f 3d
       0.0789387 -0.030126834 -0.12601376 0.03506128

model.decoder.conv1.bias f4 [8]
000000 ef 40 bb 3d 16 a5 8d 3d f1 bb 00 bd ce ac a7 3d
       0.091432445 0.06916253 -0.031429235 0.08187257
000010 e6 0f b7 3d 05 47 b8 3d b8 c5 98 3d c4 2a 10 bd
       0.08938579 0.08997921 0.07459587 -0.035197034

model.decoder.conv2.weight f4 [8, 8, 3, 3]
000000 51 57 e2 bd 9c d1 f6 3d 22 0e 7d 3d e8 1b 5c 3c
       -0.110518105 0.120516986 0.061781056 0.013434388
000010 b5 f4 34 3a 65 ec 39 3e 21 27 93 bd 47 2d 36 3d
       0.0006902919 0.18156584 -0.071851976 0.044476774
000020 f3 b2 26 3d 04 e6 e6 bd 7e 42 2b 3e 64 75 21 3d
       0.040698003 -0.11274341 0.16724584 0.039418593
000030 7a a6 76 be 23 9e e3 bc da 0d d9 3d 97 77 f8 bd
       -0.24086943 -0.027785366 0.10598345 -0.12132185
000040 8a dc 36 3e d9 c6 a5 3d a3 ac ef bd 91 81 be 3d
       0.17857566 0.08094568 -0.1170285 0.093020566
000050 11 b7 05 3e 9d eb 88 bb 33 88 8f 3b 5f 1f 46 3c
       0.13058116 -0.004178478 0.00438025 0.01209244
000060 b2 fd f2 bc 90 bf cb 3b d0 16 a4 bd c1 c7 d5 bb
       -0.029661987 0.0062179044 -0.08012164 -0.0065240567
000070 36 49 53 3d 85 0f 72 3d f9 71 b0 3d c2 19 04 bd
       0.05158349 0.05909683 0.086154886 -0.032251127
000080 72 7a c5 bd 00 4d 44 bd 41 23 c7 3b f3 dc 8c 3d
       -0.09642495 -0.047924995 0.0060772006 0.0687808
000090 e2 19 31 bd 01 5d e3 bc 18 8a 6c 3c d3 52 41 3e
       -0.043237574 -0.027754309 0.014437221 0.18879251
0000a0 89 76 46 3e 33 17 8c bc 21 e0 eb 3d 2d 9c 1f 3e
       0.19381155 -0.017100906 0.115173586 0.1558692
0000b0 61 1d 7c 3d b3 0a f7 3d 5c 56 48 3e 53 18 98 bc
       0.061551455 0.120625876 0.19564193 -0.018566286
0000c0 63 5e 29 3d 49 0c a3 3d 17 f1 58 bd 6d 04 3a 3e
       0.04134978 0.079613276 -0.052964296 0.18165751
0000d0 c8 00 cf bc 93 96 09 be e7 48 cb bd c2 87 20 be
       -0.025268927 -0.13436346 -0.099260144 -0.15676787
0000e0 18 39 84 3a 11 be 22 bd 19 83 c4 bd 8d 1f 5b 3d
       0.0010087816 -0.039732043 -0.095953174 0.053496886
0000f0 af d3 99 3d 78 e4 05 3e e4 cb c1 3b 72 30 23 be
       0.075110786 0.13075435 0.0059141982 -0.15936449
000100 aa a5 9d bd 18 55 a5 bd 8b a4 73 bd c1 71 8c 3d
       -0.076976135 -0.08072871 -0.059483092 0.06857634
000110 9e 92 87 bc 4e 43 fe 3d 50 91 13 3d 7e 9c d4 3c
       -0.016549405 0.12415181 0.036027253 0.025953528
000120 9a cb 4a 3d 40 9f c3 3d 1d 4c 84 3d 14 1f 91 be
       0.049510576 0.09551859 0.0645983 -0.28344023
000130 84 f7 4a bd e0 99 66 bc 4e 6a df 3d fe 41 1f be
       -0.049552456 -0.014074773 0.10908948 -0.15552518
000140 65 c5 35 be 53 ca 65 be 33 98 c1 bb 9c 5c 5c bd
       -0.17751081 -0.22440462 -0.005908036 -0.053799257
000150 1d d4 62 3e f8 03 a2 bd a4 f5 02 3c cc 39 00 3e
       0.22151227 -0.07910913 0.007993136 0.12522048
000160 85 fe aa 3d d6 8c e2 bc de 61 2b 3c 7a 97 04 3d
       0.08349327 -0.027655046 0.010460345 0.03237102
000170 7a 25 6e 3d b5 7a ba bc 23 77 bf bc 1d a9 91 bd
       0.05814121 -0.02276359 -0.023372239 -0.07112334
000180 29 26 88 3a 64 38 f8 bc 3f e1 2d 3b bf 9c b3 bd
       0.0010387349 -0.030300327 0.0026531962 -0.08770131
000190 6f 28 77 3d 1c c8 a4 3d 9e bb 38 bd 77 78 42 3d
       0.060341295 0.0804598 -0.0451008 0.047478165
0001a0 c7 22 13 be bb f9 ef 3d ff c1 72 3d ea e5 8c 3d
       -0.14368735 0.11717554 0.05926704 0.0687979
0001b0 03 ae 9f bd f4 7d e0 bc a2 89 4a 3d ee bf c6 bc
       -0.07796862 -0.02740381 0.049447663 -0.024261441
0001c0 8b f3 da bd 4d fb c9 3c 9e 15 49 bc cd 68 a4 3d
       -0.106909834 0.024655962 -0.01227322 0.08027802
0001d0 32 0e fa bd 9e 0b 95 3e cb 7a 0a be 64 1d 5c bc
       -0.12209739 0.29110426 -0.13523404 -0.013434742
0001e0 3e 34 ac bd 2a 53 2b be 8d a5 53 3d f0 fc c7 bd
       -0.08408402 -0.16730943 0.051671553 -0.09765041
0001f0 b1 40 75 be 27 75 52 ba de c9 2c be 0b 3b 60 be
       -0.23950459 -0.00080283213 -0.16873881 -0.21897523
000200 7e 6b 9b 3d 29 7a 11 be b0 c9 df bb 22 63 bc 3d
       0.07588862 -0.14206757 -0.006829463 0.091985956
000210 1e 78 8b bd ce 9a ef bd e6 f8 ef bd 06 08 3b 3d
       -0.0681002 -0.116994485 -0.117173955 0.04566195
000220 f9 6a 73 3d 8a 0f 66 3d 8f cb ca 3d 29 5e 82 bc
       0.05942819 0.056167163 0.09902107 -0.01591404
000230 b1 b5 1f 3c f6 30 bc bd 41 d5 49 3d f5 a3 85 3d
       0.009747908 -0.09189026 0.04927564 0.06525413
000240 0e fd b3 3d b7 da 49 bd d1 7e 67 3d 95 ff f3 3d
       0.08788501 -0.04928085 0.056517426 0.11913983
000250 00 43 8c 3d 4d 7a 11 3e 91 ff cd 3c ce 8e 96 bb
       0.06848717 0.1420681 0.025146278 -0.0045946604
000260 0a ee aa 3d 78 7b 31 bd bf be 3f 3e b4 36 c3 bd
       0.083461836 -0.04333064 0.18725108 -0.09531918
000270 d5 22 ec bd 36 46 81 bb c1 8a 5f 3c 59 fd 2d 3e
       -0.11530081 -0.0039451374 0.013643921 0.16991176
000280 c7 4d a3 bd aa 2d 50 3d 35 ed 62 3c f0 3c c9 3d
       -0.07973819 0.0508248 0.0138505 0.09826076
000290 59 e6 b5 3d 23 fa 7e 3d b6 ee 6b 3d 66 9f b4 bc
       0.08881826 0.062250268 0.0576007 -0.022048663
0002a0 19 d4 1d bc 2d a3 26 bd 67 24 8c bc 62 35 9f 3d
       -0.009633088 -0.04068296 -0.017107202 0.07773854
0002b0 87 83 7f 3e 2e 4f d5 3d cd a2 6d bc d9 c8 d1 3d
       0.24952517 0.10415493 -0.014504147 0.10243387
0002c0 8f 24 e4 3d d6 cf c8 bc 10 da a1 bd d3 7e 31 bc
       0.111397855 -0.024513166 -0.0790292 -0.01083346
0002d0 f5 f7 37 3e c9 46 6d 3e 59 a2 fa bd 71 8c dd 3d
       0.17965682 0.23171534 -0.122379966 0.10817803
0002e0 07 15 37 3e f8 cc 19 3e b0 1a 8b bc d6 cf 9f bc
       0.17879115 0.15019596 -0.016980499 -0.019508284
0002f0 1a 97 df bc aa fa 13 3e 9a 36 82 3e 2e 88 07 bd
       -0.02729373 0.1445109 0.25432283 -0.033088855
000300 6a 63 00 3d bc f9 23 3e 46 21 e5 bd 76 09 4f 3e
       0.03134481 0.16013235 -0.11187987 0.20218453
000310 02 0c 05 bc c5 f2 2d bd ec b7 cc bd d0 93 f8 3d
       -0.008120539 -0.04246785 -0.09996018 0.12137568
000320 38 ac c9 3d 52 82 9e 3d 5f 54 49 3d 20 bd 8d 3e
       0.09847301 0.077397004 0.04915273 0.27683353
000330 71 e4 13 3e 31 80 c7 3d 0e 68 8d 3d 32 db ed bd
       0.14442612 0.097412474 0.069046125 -0.11614074
000340 1a b7 fe bc d2 e6 b4 bd b1 44 e1 bc 0a 11 d1 ba
       -0.031093169 -0.08833088 -0.027498575 -0.0015950513
000350 a0 e9 8e bd cf e5 ae 3c a5 2a 8d bd 11 16 7b bc
       -0.06978154 0.021349816 -0.068928994 -0.015325085
000360 7d ff 98 3d 32 85 d1 3d 72 6d c4 bb 27 c8 29 bd
       0.074706055 0.10230483 -0.005994492 -0.041450646
000370 5b d6 66 3b 16 9e 96 3c cd b2 68 3c 2d 28 98 3d
       0.003522298 0.018385928 0.014202786 0.07429538
000380 d1 d0 13 3e a5 a9 b0 3d 39 3f e7 bc 8a 04 d0 3d
       0.14435126 0.08626107 -0.02822839 0.10157116
000390 18 c1 47 be b5 a1 20 3d 59 94 59 3e 61 32 90 be
       -0.19507253 0.039216716 0.21247996 -0.28163436
0003a0 2c b5 d0 3c 85 f2 15 3d 90 60 cc bd 61 ec 9e 3d
       0.025477014 0.036608238 -0.09979355 0.077599294
0003b0 ab 0f 82 bc 4d 29 d2 bc 78 82 f1 bc d7 b9 26 bd
       -0.015876612 -0.02565446 -0.029481158 -0.040704574
0003c0 0b 32 37 3b c8 51 15 be e0 b8 8d bd 6b 5c b2 3d
       0.0027953412 -0.14581978 -0.06920028 0.087090336
0003d0 e2 ef 07 3c 98 00 60 3d 8a 91 76 3c 35 99 61 3d
       0.008296939 0.054688066 0.015049348 0.05507775
0003e0 00 85 f1 3d ff e1 96 bc aa 66 62 bc d6 fa 41 3d
       0.11792946 -0.01841831 -0.013818422 0.047358356
0003f0 aa 06 af 3d 31 4f 79 bb 2e 35 a6 3c eb aa 27 3e
       0.08546193 -0.0038041587 0.02028903 0.16373794

model.decoder.conv2.bias f4 [8]
000000 32 cb df 3d 75 26 b9 bd 0a ed f4 bc ba 90 f0 3d
       0.10927428 -0.09040538 -0.029898185 0.117463544
000010 39 2b e2 3d 8a ba 41 3d 31 cd ed bd b1 c4 46 3c
       0.110434 0.04729704 -0.11611403 0.012131856

model.decoder.conv3.weight f4 [16, 8, 3, 3]
000000 fe 56 3e bc 71 e7 0f 3e f5 e7 f3 3d c9 4f be 3d
       -0.01161742 0.14053132 0.11909477 0.092925616
000010 95 06 0b bd f3 6c 03 bd 5a 8e 9b 3d 7e ef 14 bd
       -0.033941824 -0.032086324 0.07595511 -0.03636121
000020 23 2d c0 3d e6 15 3f be 3c 2e 00 be b5 51 e7 3c
       0.09383609 -0.18660697 -0.12517637 0.028237203
000030 95 b3 17 be 40 e6 b9 3c ba d4 94 3d b8 7e fa 3d
       -0.14814599 0.0226928 0.07267137 0.12231201
000040 92 b7 2c 3d 57 92 d8 bc 0b 4e 84 be cc 20 23 3d
       0.042167254 -0.026436968 -0.25840792 0.0398262
000050 3e 3e d6 3d 7f 5b e5 bd 92 41 8a 3c 1f e7 24 3e
       0.104610905 -0.11199092 0.01687697 0.1610379
000060 1a 70 11 be 0d 10 b0 3d 15 7e 24 3d e8 bf be bc
       -0.1420292 0.085968114 0.040159304 -0.023284867
000070 a7 01 99 bc ae 37 f9 bc 72 95 4d bc ff da b7 3c
       -0.018677546 -0.030422058 -0.012547838 0.022443293
000080 c4 a5 17 bd a6 e2 c7 3c 7c 6a e6 3d 67 97 68 3d
       -0.03702332 0.024400067 0.11250779 0.056785014
000090 d4 60 79 3d 42 cf 4d 3d 44 0b 81 bd 83 3f a0 3d
       0.060883358 0.050246485 -0.06300977 0.07824614
0000a0 ce f3 ab 3d c1 33 31 3d cb 04 a3 bc 5b 0b 8c bd
       0.083961114 0.043262247 -0.019899746 -0.068381034
0000b0 60 d5 8e bc 8f 11 2d bd 2a 77 11 3e a6 f2 91 3b
       -0.01743573 -0.042253073 0.14205614 0.004453975
0000c0 a4 13 01 3d cc 63 31 3e 94 3f b3 ba a5 86 ac 3d
       0.03151287 0.17323226 -0.0013675564 0.08424119
0000d0 6e 22 d1 bc 7b 5c 50 bd 12 64 5c 3e 28 99 fe 3d
       -0.025529113 -0.050869446 0.21522549 0.12431556
0000e0 30 32 78 3c c6 bd 9a bc 25 34 85 bd a5 82 34 be
       0.015148684 -0.01888932 -0.065040864 -0.17627962
0000f0 9e ea 2d 3c 72 48 15 be 4d 20 eb 3b 78 13 bb bc
       0.010615019 -0.14578417 0.0071754814 -0.022836432
000100 da 94 53 3e 88 1a c9 3d 5a 70 53 39 be 09 4e 3e
       0.20662251 0.098195136 0.00020164382 0.20120904
000110 fa 65 36 bc d9 d8 c2 bc 9a 30 31 3d 4f 95 8a 3c
       -0.011132712 -0.023785042 0.04325924 0.016916899
000120 21 99 c1 3d e2 33 fa 3c ee ee ff 3d 91 cc 4b 3d
       0.09453035 0.030542318 0.12496744 0.049755637
000130 77 fb a1 bd 0d 3d 89 bc 7f 01 53 3d 00 31 b2 bd
       -0.07909291 -0.016752744 0.0515151 -0.08700752
000140 73 07 87 3d 93 fa 9f be f1 84 12 be 60 66 8e 3d
       0.06593218 -0.3124586 -0.14308526 0.0695312
000150 9d a7 bd bc 2e 20 18 bc 0d 5b b1 3c f0 67 5b 3e
       -0.023151213 -0.009285016 0.021649862 0.21426368
000160 fe f4 00 3e 3a 12 b7 3c 8c 42 92 3d be 98 25 3e
       0.12593457 0.022347558 0.07141599 0.16171548
000170 b6 80 5a 3d 11 70 7e 3e 4c 25 1d 3e 3b 86 53 3e
       0.053345405 0.24847437 0.15346259 0.20656674
000180 4a e6 26 3e c3 c0 ee 3d e1 e6 cf bc da 9c e7 3d
       0.16298786 0.1165786 -0.025378646 0.11309214
000190 9e ef d1 3c 0f 1c 96 bc 3e 5b ad 3d 2a 30 03 bd
       0.025626954 -0.018323926 0.08464669 -0.032028355
0001a0 eb 68 0b 3c e7 ae a2 bd 1a 0a bb bc cb f4 07 be
       0.008508901 -0.07943516 -0.022831965 -0.13276975
0001b0 8e 29 4e 3d f1 24 90 3c d2 7b be 3d f2 3c a0 3d
       0.0503326 0.01759574 0.093009606 0.078241244
0001c0 96 40 c3 bd b9 a3 72 3d 09 06 e3 bd 62 ec 2a bd
       -0.09533803 0.05923817 -0.110851355 -0.04172934
0001d0 fe 97 d6 bd 2a d1 2a 3d 21 2b de 3d 15 41 10 3e
       -0.10478209 0.04170338 0.1084807 0.14087327
0001e0 66 46 b9 3d a2 f9 53 3e 2a cb 96 3d 98 b2 3b 3d
       0.090466306 0.20700696 0.07362969 0.045824617
0001f0 7f 3a 0a 3e 29 f8 58 ba 3a c3 b1 bc 0c 3e 1c bd
       0.13498877 -0.0008276725 -0.021699537 -0.03814511
000200 ec 36 80 bd 92 fb f4 bc 02 2c 10 3d 12 fe dd bd
       -0.062604755 -0.029905114 0.03519822 -0.10839476
000210 fe 1b 9b bc 29 4e 98 3c 7d fa 94 39 d5 18 0e 3d
       -0.018934246 0.018591957 0.00028415388 0.03469165
000220 b1 53 10 3e 0d f7 5e 3e 41 53 11 3e a5 9a d8 3d
       0.14094426 0.2177393 0.14191915 0.10576371
000230 f1 15 0f 3e c9 3f df 3d 3a 76 b9 3d bc 74 86 bd
       0.13973214 0.10900838 0.09055753 -0.06565234
000240 c0 4e a9 3d 22 9a 42 bb 20 5e 38 bc 61 79 00 3e
       0.082669735 -0.002969392 -0.01125291 0.12546302
000250 cf 54 fc 3d 05 12 d6 3b b4 f2 2c bd 08 1f 1b 3c
       0.123208635 0.00653291 -0.042223647 0.009467848
000260 73 e2 23 3e 71 41 96 3d 6e c8 14 bc 82 97 af 3c
       0.16004352 0.07336701 -0.009080989 0.02143455
000270 b5 f8 9f 3d 19 2c 08 bd 83 54 7a 3d 62 91 59 bd
       0.07811109 -0.03324518 0.061115753 -0.053117163
000280 26 63 0a 3e de 76 55 bd d9 94 8b bd e8 ff 7b 3d
       0.13514385 -0.052115314 -0.068155 0.061523348
000290 75 29 df 3d 98 22 05 3e fe 45 84 3e 79 a4 6d 3e
       0.10896579 0.13001478 0.2583465 0.23207273
0002a0 fd 1f 25 bc 19 15 65 3e 3d bf 14 3e ce f5 e4 3c
       -0.010078427 0.2237133 0.14526077 0.02794924
0002b0 d9 ff 04 3e 36 e6 ac bd cc 04 9c bd 7d 07 c5 bc
       0.12988223 -0.08442347 -0.076181024 -0.024051422
0002c0 eb ea 0a 3c a2 3b d0 3d e3 22 76 3d 0d e1 50 bd
       0.00847886 0.10167624 0.060091864 -0.050995875
0002d0 f2 7f f9 3d 9b 27 d6 bc 52 13 10 3d 06 d0 91 bd
       0.12182607 -0.026141932 0.035174675 -0.071197554
0002e0 7e 78 49 bd 7b b2 f2 3d 81 07 12 3e f9 61 27 bc
       -0.049187176 0.11850449 0.14260675 -0.01021623
0002f0 d6 ff fe 3d 23 08 a2 3d b7 38 1b 3e c5 de 13 bd
       0.124511406 0.07911708 0.15158354 -0.03610112
000300 96 ec f0 bc c6 7e 68 3d cb 8e 0c 3e 1b 02 eb 3d
       -0.029409688 0.056761526 0.13726346 0.11475011
000310 bd d2 5c bd 72 b2 2d 3d c5 28 2f 3d c1 41 6f 3d
       -0.053911913 0.042406507 0.04276349 0.058412317
000320 11 c3 85 bd 8c bf 26 bc ff db f2 bd 71 3b 40 bd
       -0.065313466 -0.010177504 -0.11858367 -0.046931688
000330 a7 d4 80 3d 62 8f 5d bd e2 c7 2a be a9 d1 ab 3d
       0.0629056 -0.05409182 -0.16677812 0.08389599
000340 31 f4 95 3c 8d 92 07 bc 79 af 5e 3e ad 32 5f 3e
       0.018304916 -0.0082746865 0.21746625 0.21796675
000350 1d d4 00 3e e7 7b d9 3d e5 7a 0b bd 5b 4b f4 bd
       0.12580915 0.106193356 -0.03405275 -0.119284354
000360 d5 5d 40 be 1e 03 c6 3d e7 65 3f 3d a8 f7 ea bd
       -0.18785794 0.09668563 0.04672804 -0.11473018
000370 4e 8d 0d be b9 7a b1 bd d0 44 85 bd 14 25 ce bd
       -0.13823435 -0.086659856 -0.065072656 -0.10065666
000380 d7 9e a9 3d 43 a8 c3 3d e9 71 80 be f7 6f 95 3d
       0.082822494 0.09553578 -0.25086907 0.07296746
000390 0b 89 35 be e1 1c 16 3d 20 d0 2a 3d 24 2e 62 be
       -0.17728059 0.036648635 0.04170239 -0.22087914
0003a0 ca e7 aa be 1b 74 c9 be 33 73 f1 bd 3a 9a d8 be
       -0.33379966 -0.39346394 -0.11789551 -0.42305166
0003b0 9f 3c ce bd 2f f3 04 bf 7b a3 02 bf 04 e3 1c be
       -0.10070156 -0.5193357 -0.510307 -0.15320975
0003c0 74 ca 0c bf bf 13 36 be ed 07 02 be d3 11 d2 bd
       -0.5499642 -0.1778097 -0.12698336 -0.10257306
0003d0 52 fd 8b 3d b2 5b 90 3d 4a 3c b1 bd c3 ad f5 3c
       0.068354264 0.070487395 -0.08654077 0.029990083
0003e0 ee b1 a8 3d bf 61 74 bd 3d 14 25 3e 64 7b 1f 3e
       0.082370624 -0.05966353 0.16121002 0.15574414
0003f0 5b bd a8 bd ea 45 8a bd 00 f7 e3 3c e1 91 f6 3c
       -0.08239242 -0.06751616 0.02782774 0.030098857

model.decoder.conv3.bias f4 [16]
000000 eb 3e be 3d 48 a3 9a bb df 11 c1 3d f6 26 41 3d
       0.092893444 -0.0047191717 0.09427237 0.047156297
000010 01 bc 06 3e 69 59 a1 3d 13 c7 02 3e 38 02 d2 3c
       0.13157655 0.07878382 0.12771253 0.025635824
000020 0e 15 44 3d de 96 6d be 53 7d 98 3d 21 01 12 3e
       0.04787164 -0.23202083 0.07445779 0.14258243
000030 f7 4c 06 3e f2 31 f4 bd 94 8e 40 3c 5b 78 a7 3d
       0.13115297 -0.11923589 0.011752743 0.08177253

model.decoder.conv4.weight f4 [1, 16, 3, 3]
000000 6c 44 cc bd 9e c6 0f be 45 09 ff bd fa 84 97 3b
       -0.09973988 -0.1404061 -0.1245294 0.0046240063
000010 af 85 00 be 36 39 90 bd b6 0a 9d bd 72 1f 90 3b
       -0.12550996 -0.07042162 -0.076680586 0.00439828
000020 fc 72 c7 bc f8 a3 a0 bb ac 4d 5c be 06 c9 01 be
       -0.024346821 -0.004902359 -0.21514004 -0.1267434
000030 55 0b e1 bd 36 1b 53 be ea 83 b4 bd f2 2b bc 3d
       -0.109884895 -0.20615849 -0.08814223 0.091880694
000040 a3 51 cd bd 32 40 dd bc 06 45 99 bd 4c 79 22 bd
       -0.100253366 -0.02700815 -0.07483868 -0.03966646
000050 19 56 a5 bd 0f a6 f7 bd f7 48 82 bd d5 34 08 be
       -0.080730624 -0.1209222 -0.06361573 -0.13301404
000060 5a f9 30 bc 28 a5 a8 bd 77 0c 99 bd 48 fc 72 be
       -0.010801638 -0.08234626 -0.074730806 -0.2372905
000070 7e 18 49 be e6 55 0c be 1a 1d 0b be 85 05 0c be
       -0.1963825 -0.13704643 -0.1358532 -0.1367398
000080 80 34 7c bd d4 74 f6 bc e4 5f 51 bd 3d be 27 3e
       -0.061573505 -0.030085005 -0.05111684 0.16381164
000090 a5 53 ce bd ab 68 a5 bd e1 77 d6 3b dc 87 6f 3c
       -0.10074548 -0.080766045 0.0065450524 0.014619794
0000a0 98 23 f5 bd 11 fa aa bd d2 ab 2c bd 0e 82 b8 bc
       -0.119696796 -0.08348478 -0.042156048 -0.022522952
0000b0 f0 9f c3 bd 88 1b 7e bb 88 fe f9 bd 1f 65 35 bd
       -0.0955199 -0.0038773734 -0.12206751 -0.04428589
0000c0 92 ab 96 bd 55 8b e0 bd 2c fd 2e bd c5 cd 0c bd
       -0.07356943 -0.109640755 -0.042721912 -0.034375925
0000d0 47 61 af bd ad 34 cf bc 03 eb c1 bd 7e f3 0d bd
       -0.08563476 -0.025293672 -0.09468653 -0.03465604
0000e0 68 d5 69 3c e8 0c b5 bd 10 6b b8 bd 81 5a 3e bc
       0.014272071 -0.08840352 -0.090047956 -0.0116182575
0000f0 3d cf 85 bb a1 16 9a bd 63 d7 a8 bc 29 f8 75 3c
       -0.0040835426 -0.07523847 -0.020610517 0.015012779
000100 87 85 82 be 48 f2 93 bd 12 8b 2f be d8 c5 76 be
       -0.25492498 -0.07223946 -0.17142895 -0.24098909
000110 e9 f8 46 be 73 3b 04 be 52 68 30 be ca 6f 58 bd
       -0.19430889 -0.12913303 -0.17227295 -0.052840985
000120 f4 33 73 3b fe d4 75 3c 57 e2 b6 bd c0 65 eb bd
       0.0037109824 0.015004395 -0.0892989 -0.11494017
000130 05 7a 91 3c 30 d1 fd bd de b2 db bd 8a 65 eb 3c
       0.017758379 -0.12393415 -0.107274756 0.028734941
000140 5e e8 cb bd 44 79 45 be a4 7a 88 bd 10 08 d0 3e
       -0.0995643 -0.1928454 -0.06664017 0.4063115
000150 48 43 a8 bd c3 68 26 3e 54 8e e5 3e 51 a4 77 3e
       -0.08215958 0.16250901 0.4483515 0.24183775
000160 ac cc cd 3e f6 f2 bc 3e 29 2e f0 bd b0 9f 82 3c
       0.40195215 0.36904114 -0.11727554 0.015945286
000170 de 35 94 bc c3 5d dc bd a6 08 53 bd 4f 54 e3 bd
       -0.018092092 -0.10760071 -0.05152192 -0.11100065
000180 ce ea cf bd d0 8b b4 bd 00 72 87 bd e6 e7 95 bd
       -0.10152207 -0.088157296 -0.06613541 -0.07319622
000190 3c 28 2c bc 4b 27 c3 bd 1c 77 56 3c 50 e6 2e be
       -0.0105076395 -0.09528979 0.013089921 -0.17080045
0001a0 0e b0 c5 bd 5f 14 c6 3c f1 f7 8a bd 0c c1 aa ba
       -0.096527204 0.024179636 -0.06785572 -0.0013027503
0001b0 ec 83 4a bd de f0 a2 bd fe 77 8c 3c e0 79 06 be
       -0.049442217 -0.07956098 0.01714706 -0.13132429
0001c0 03 d2 b1 bc 54 a4 09 bd c3 ed c3 bd 5e 60 ec bc
       -0.021706587 -0.03360398 -0.09566834 -0.028854545
0001d0 89 80 b1 bc 17 c3 c0 3d 00 76 e3 3c c8 85 a5 3d
       -0.021667736 0.094122104 0.027766228 0.080821574
0001e0 4d 9e a9 3d 84 e6 5d 3e 90 ba 84 3e 02 0e 34 3e
       0.082821466 0.21669966 0.25923586 0.17583469
0001f0 92 3c 70 3e a5 8f 64 3e c8 2b b2 bb 77 12 1e be
       0.23460606 0.22320421 -0.005437348 -0.15436731
000200 f2 de 1c bd 36 1b 42 be 5c ac 87 be 5c 87 14 be
       -0.038298555 -0.18955693 -0.26498687 -0.1450476
000210 ec 18 0e be b7 9f 25 be e0 9c 81 3c c2 25 25 bd
       -0.13876694 -0.16174208 0.015821874 -0.04031921
000220 54 fa 0a bb 43 30 84 3b 57 5a 2b bd 2e b1 09 3b
       -0.0021206336 0.0040340736 -0.0418342 0.0021010148
000230 45 95 b8 3d 22 12 7f b9 d2 06 b6 3d e3 ff b2 3c
       0.09012846 -0.0002432545 0.088880196 0.021850532

exp_avg f4 [16, 1, 3, 3]
000000 10 5c e0 b8 db cc 76 b9 09 0c 3e b9 50 49 4f 38
       -0.000106983 -0.00023536703 -0.00018124295 4.9420923e-05
000010 37 26 2a b8 d9 58 23 b8 99 a9 ce 38 cd 11 11 39
       -4.056675e-05 -3.8944974e-05 9.8544355e-05 0.00013834909
000020 03 ad a6 38 59 81 83 38 70 fe 1f b7 5a b4 00 b8
       7.947723e-05 6.27066e-05 -9.536379e-06 -3.0685544e-05
000030 bd 3f 9c b8 e3 4f 25 b9 7d 90 1e b9 95 45 d4 b8
       -7.450532e-05 -0.00015765386 -0.0001512188 -0.000101219084
000040 8f 0d 20 b9 a3 64 bd b8 30 1f 17 b8 03 b1 a0 b8
       -0.0001526384 -9.030967e-05 -3.603025e-05 -7.6623655e-05
000050 5d 46 b3 b8 5a 44 7f b9 f6 49 85 b9 c4 92 7b b9
       -8.548491e-05 -0.00024344158 -0.00025422842 -0.000239919
000060 c7 e8 28 b8 c3 10 a8 b8 67 8b 81 b8 54 a5 6b b5
       -4.0271112e-05 -8.0139864e-05 -6.177165e-05 -8.7784906e-07
000070 d0 b5 e3 b8 e9 f2 ea b8 82 52 36 b9 93 ac 8a b9
       -0.00010858069 -0.00011203235 -0.00017387609 -0.0002644999
000080 25 08 81 b9 73 4c 50 b8 cc b4 c2 b8 68 fa 13 b7
       -0.00024610866 -4.9662263e-05 -9.284317e-05 -8.820185e-06
000090 dd d2 02 ba ce 9e 5d b9 fc 46 6a b8 83 4f 18 b9
       -0.00049905275 -0.00021135362 -5.5856057e-05 -0.0001452547
0000a0 f4 6b 93 38 c9 fc 62 38 9f f0 70 b7 47 24 71 38
       7.029614e-05 5.4118023e-05 -1.4361139e-05 5.7492663e-05
0000b0 97 f0 53 38 eb e7 f0 b8 b4 72 0c b9 d5 85 7a b7
       5.0530387e-05 -0.0001148729 -0.0001339417 -1.4932321e-05
0000c0 a4 7a d2 b7 f5 a5 a2 b8 82 ad 20 38 06 91 8a b8
       -2.509106e-05 -7.755674e-05 3.8308564e-05 -6.6073655e-05
0000d0 ea 9f e2 b8 81 01 81 37 47 f8 d6 b7 a1 09 b5 b7
       -0.00010806306 1.5378699e-05 -2.5626401e-05 -2.1581365e-05
0000e0 92 43 c0 b8 0d 5e 0e b6 e6 af 63 37 d6 44 36 b8
       -9.1678594e-05 -2.1214394e-06 1.3571209e-05 -4.345629e-05
0000f0 d8 9b b5 37 37 c4 2c 38 15 59 37 b8 7f 3c c6 38
       2.1649452e-05 4.1190735e-05 -4.3713564e-05 9.452644e-05
000100 37 97 bb b8 a7 0d 85 b8 ba 1b 02 b9 a4 e4 a4 b9
       -8.945021e-05 -6.344477e-05 -0.00012408095 -0.00031450868
000110 55 c5 3e b9 36 f2 59 b8 0f 57 19 b9 ad f5 53 b8
       -0.00018193324 -5.1962408e-05 -0.00014623649 -5.0535124e-05
000120 d8 6b 3e b7 89 e4 26 b7 17 3f 20 37 03 59 ce b7
       -1.1349992e-05 -9.947581e-06 9.551432e-06 -2.4598563e-05
000130 ee c0 cb b6 27 5a d0 b7 d3 f1 19 b8 1f 25 b8 b7
       -6.0723314e-06 -2.4837513e-05 -3.670326e-05 -2.1951795e-05
000140 43 76 78 b8 be 89 57 38 1b 86 18 b9 e3 dc f0 37
       -5.9237947e-05 5.1388277e-05 -0.00014545808 2.8713088e-05
000150 95 d9 7c b9 b9 1b b4 b9 2d 20 07 b9 69 13 1b b9
       -0.00024113648 -0.0003435293 -0.0001288659 -0.00014789183
000160 5b d7 22 b9 da 01 09 38 2e 74 50 38 78 17 1e b9
       -0.0001552975 3.266507e-05 4.9699265e-05 -0.00015076797
000170 04 ba 32 b8 4a 9d c7 b8 2d 37 99 b9 67 0b 04 b9
       -4.2611748e-05 -9.518357e-05 -0.00029223543 -0.00012592749
000180 05 91 b3 b8 95 37 17 b9 65 66 85 38 89 d3 00 39
       -8.562397e-05 -0.00014421188 6.361007e-05 0.00012285834
000190 05 1e 0e b8 f5 1d 81 b8 03 0e 89 b9 5f d8 d3 b9
       -3.3883396e-05 -6.156779e-05 -0.00026141116 -0.00040406265
0001a0 80 15 c1 b9 1c 93 f2 b8 62 f0 27 b9 51 8b cd b8
       -0.00036827847 -0.000115668605 -0.0001601591 -9.8011114e-05
0001b0 82 53 96 b8 7f 3e 07 b9 3b ba cd b8 36 34 e2 b8
       -7.168112e-05 -0.00012897885 -9.80985e-05 -0.00010786245
0001c0 d0 bb 1b b9 80 c4 b9 b8 3f f1 0c b9 c3 34 0a b9
       -0.00014851918 -8.8580884e-05 -0.00013441312 -0.00013180361
0001d0 5a e3 17 b8 c0 97 40 39 8b 17 a2 38 bb 6b 0b 38
       -3.6212943e-05 0.00018367078 7.729147e-05 3.3240514e-05
0001e0 17 f9 c6 b7 ad 30 45 37 d3 ed 0f b9 fd 94 b8 b9
       -2.371943e-05 1.1753448e-05 -0.00013726139 -0.0003520622
0001f0 fa cb c4 b8 4e b3 0a b9 e3 2a 0f b7 ff ab 75 b9
       -9.384002e-05 -0.00013227502 -8.5334495e-06 -0.00023429094
000200 9a b0 99 b9 61 5c b5 38 58 94 a9 38 3d bf db 37
       -0.00029314012 8.6479595e-05 8.086179e-05 2.6195887e-05
000210 28 d3 5f 38 cf 97 26 b8 ae 3a 82 b8 60 0c 65 b7
       5.3363998e-05 -3.9718867e-05 -6.209813e-05 -1.3652345e-05
000220 68 0d 68 b7 d3 33 ad 37 fb 97 25 b9 ad b2 c3 b8
       -1.3831399e-05 2.064734e-05 -0.00015792243 -9.3316055e-05
000230 3b e3 08 b8 68 17 44 b8 cc 64 e6 b6 23 be 3e 38
       -3.263655e-05 -4.675184e-05 -6.8662684e-06 4.547661e-05
