09-Autoencoders/lightning_logs/version_2/checkpoints/best_model_val_acc=0.ckpt (torch, 72488 bytes, 39 tensors)

model.encoder.conv1.weight f4 [16, 1, 3, 3]
00000000: bcb3 b3bd f6ec f03e 3b2c 9fbd 4d69 123f
00000010: abe3 9d3e 4ffa 333e 60c0 403d b91f 40be
00000020: b8d6 dabc a133 8abe 56fc a1be 55b6 53bd
00000030: 97b7 4dbe 4ef0 7dbe 0345 053f 5999 0b3f
00000040: cff7 073f 790b ca3e 962c 2abd 99c7 b63d
00000050: 1eac 80bb db2b ad3e b9d6 353f 8af2 223e
00000060: eb54 9dbe 3c2f 4b3e 24e1 f43d b952 d33d
00000070: 71aa de3e 5d4c bb3e 84e6 0fbe 7257 923e
00000080: 5275 f6bd a252 1f3e 69f9 43bd 2797 c53e
00000090: 91ae 563e 2cac 2d3e 247b f8be 90cc ff3e
000000a0: ee24 db3e 7c57 bbbe 7c01 a23e e2c2 ddbe
000000b0: ee30 3cbf 233e 98be 0c53 bc3d d37e bdbc
000000c0: 44c1 bfbd 05fc 093d 3ccd 80be 2eeb 87be
000000d0: b925 363d dc24 55be ed4b d4be a7b5 2ebe
000000e0: 7841 44be afed 353e 9348 843e a745 b83e
000000f0: 1da3 a0bc 7d43 d4bd 2d25 b33d eb58 043f
00000100: 625d c4be 5e12 193f bd82 0c3e 59c5 e2be
00000110: 47c5 203e cba8 57be 8b09 b3be 7658 03bf
00000120: 18e6 263e eca7 563c 206b 9b3e e582 41be
00000130: f3c0 053f 4ded f23e 609f e73d 2fd2 373e
00000140: 9794 b33b 1097 b7bf 84c7 cfbd c725 b03e
00000150: 5033 a1be 4d84 033f 80f1 513f 9a64 2ebf
00000160: 2f00 0cbf 95bb cebe 4b54 bf3e ea98 c83e
00000170: f82e cb3e ccc0 783e db76 233e c392 ad3e
00000180: e761 ba3e ca02 953d b3b2 cdbd 73fc 273d
00000190: 5d25 033f 078c 86bd ea92 263d 5d96 153e
000001a0: a41c be3d f624 b8be 826c 16bd 5049 3cbd
000001b0: acd7 8fbc 5f75 633d 2aac bfbe 78d2 323e
000001c0: b955 d5bd 88b1 0c3d af73 bd3e 1a03 113f
000001d0: a98f d63d 859e 0abe e799 9e3d 5201 163e
000001e0: fec7 453d eeb7 803f 3d6a 9cbd f3bb 12be
000001f0: 7f24 b73e b955 00bd 309a 4ebe 9dbf dd3c
00000200: 204a 943e 771a 5bbe a402 d2bd ceca f03d
00000210: bec8 3cbe 635c bebe dc17 ad3e 12a5 b53e
00000220: 72e9 00be 2549 c23d 49fb d73d fc68 a83e
00000230: 345e dc3c 26df e73e f5c3 9a3e 6c91 913e
-0.08774516 0.47055787 -0.07772108 0.57191926 0.3083776 0.17575954 0.047058463 -0.18762101
-0.026713714 -0.26992515 -0.3163783 -0.051687557 -0.20089565 -0.247987 0.5205843 0.54530865
0.531125 0.39461878 -0.041546427 0.08924789 -0.003926768 0.33822522 0.71030766 0.15912834
-0.3072885 0.19842237 0.11957005 0.103185125 0.4348941 0.36581698 -0.14052778 0.2858234
-0.12034096 0.15558866 -0.047845278 0.38591883 0.2096503 0.1696021 -0.4853145 0.49960756
0.42801613 -0.36590183 0.31641757 -0.43312746 -0.7351216 -0.29734907 0.091955274 -0.023131764
-0.09363034 0.03368761 -0.2515658 -0.26546615 0.04446957 -0.20814842 -0.41464177 -0.17061482
-0.191656 0.1776645 0.2583662 0.3599064 -0.019609028 -0.10364435 0.08747325 0.5169818
-0.38352495 0.5979365 0.13721748 -0.4429119 0.15700255 -0.21060483 -0.34968218 -0.51306856
0.16298711 0.013101559 0.30355167 -0.18897589 0.5224754 0.4744667 0.11309695 0.17951272
0.00548036 -1.4342976 -0.101454765 0.34403822 -0.3148446 0.5137375 0.82009125 -0.68122256
-0.5468778 -0.4037749 0.37368998 0.39179164 0.39684272 0.24292296 0.15963309 0.33901033
0.3640282 0.072759226 -0.1004385 0.04101224 0.51228887 -0.06569677 0.040667452 0.1460814
0.092828065 -0.359657 -0.036724575 -0.045968354 -0.017558895 0.055531856 -0.37436038 0.174631
-0.10416741 0.034348994 0.37002322 0.5664536 0.1047662 -0.13537033 0.07744198 0.14648941
0.04828643 1.0056131 -0.07637451 -0.1432951 0.35770032 -0.03133175 -0.20176005 0.027068907
0.28962803 -0.21396814 -0.1025441 0.11757432 -0.18435952 -0.3717986 0.33807266 0.354775
-0.12589052 0.094866075 0.10545976 0.32892597 0.026900388 0.45287436 0.30227628 0.2843126

model.encoder.conv1.bias f4 [16]
00000000: 5123 b63a 72dc 08b9 099a 213e d9a1 6b39
00000010: 0c4a 2439 8b00 30be 1977 8c3e 2e03 5f39
00000020: 5016 023e 839a 5839 62d1 dd3e 33dc ab3e
00000030: 45c4 5439 27da 103d 9ce7 993e 4224 073d
0.0013896023 -0.00013052093 0.15781416 0.0002247164 0.00015667843 -0.17187707 0.27434614 0.00021268122
0.12703824 0.00020656925 0.4332381 0.33566436 0.00020291012 0.035364296 0.30059516 0.032993563

model.encoder.conv2.weight f4 [8, 16, 3, 3]
00000000: 1ed2 ffbc 0152 18bd 06ef 23bd 2db4 61bd
00000010: 51b8 153e 0002 6b3d 422b 223c 0c89 d83c
00000020: 1627 babd fd39 993c 9465 aebd 68d7 f1bd
00000030: 0d1b 273d f86b 933d 3be4 78be aa07 7e3e
00000040: 985c 1bbe 5402 78be 5c03 debc 3edd 413d
00000050: fb3d d7bc a0c6 063e 86e2 8f3d c3bd 0e3e
00000060: 4b9d ee3c 0bbd bc3d bf7d d1bb 7b7d db3d
00000070: 36f5 9d3d 820e e3bd 6f57 283c fd1a 293e
00000080: 82f1 44bd 4175 1a3e 06c0 303e 08cf d13d
00000090: 4352 32bf 17c4 a63e 6189 853e bdc0 ad3e
000000a0: bfcb ce3e fb7a c13e 9455 bf3e fbf3 0d3f
000000b0: a267 fc3e 980e e539 564b 633b 1308 f93b
000000c0: 6ace 583d 8e30 74bc 42e7 8fbc 443f 87bd
000000d0: d647 613c cfe3 643d 6a55 ca3d 7947 52bd
000000e0: 3368 89bd e1b0 bb3c 0a99 463d 8c2c 423e
000000f0: d407 ba3d e88c 893d d999 37be 0cb7 25bf
00000100: bd5e bdbd a24f 313d b327 283e b38c 0f3f
00000110: f9ee b43e 5a7a 82bd 0510 47bd 0559 04be
00000120: e5d4 aa3d e40f 363d e17e b1bd 4ff4 353e
00000130: dbcc 033e 7a13 f5bc 7aff ae3d 2ec4 0e3d
00000140: 85d7 78bd db48 0c3e 5db8 243e 9e7d fe3d
00000150: 3737 0dbe ed30 213f bd86 453f aa74 3cbe
00000160: 03f3 cd3e b6e6 513e ae9c f53d e468 bb3c
00000170: bfe2 e63d faaf 6c3d 5a42 a93d 4141 023e
00000180: d7b9 e93d 926e 493e aa5d df3b 4448 c9bd
00000190: 82fe db3d 66fe 9a3d 772d 703e 03d1 823e
000001a0: 8ebf 273e dab1 90bd 5613 d33d 0dbc fc3d
000001b0: 331c a9bd 87f1 753d 8b64 63bd 5e65 343d
000001c0: 2b00 b93d 15c6 53bd 5a23 ac3b 419c de3d
000001d0: db99 2b3d ae1d 2dbd 3772 fc3d 4ff8 0e3e
000001e0: 37b2 163d a173 033e 2c47 033c 312b c33d
000001f0: e918 133e 6c16 34bd ec49 02be 32e8 2ebd
00000200: 39a0 12be 3628 33bd b6b5 93bd 989f f9bd
00000210: 4a90 f2bc 4de2 bc3d 89ad 1b3e 9c6d 4f3d
00000220: c8c3 313e ad3a 583d 17dc fa3d 1493 573e
00000230: f324 573c c768 9f3d aac7 303e 51ea 8f3d
00000240: 4f9d ad3d c877 95bd b616 d23c 81bf 833c
00000250: e640 a53d f1a8 7a3e b9de 99bb 96f0 823e
00000260: 85b0 7f3e e299 4e3e 27d3 803d 5d49 9f3e
00000270: 3d91 78bc 8d63 e03d f64d 193e 6fca 773d
00000280: 89b5 a73e 2194 353d 7e21 963d 3aba 983d
00000290: 867b babd ce85 0b3e a556 283e 601e f93d
000002a0: 52d2 1cbd 8f06 223e 9dbb 8b3d 5a90 86be
000002b0: 1b48 0abe 77f3 2fbe 6abd b4bd aece ddbb
000002c0: 8b0f 493c 816f 1fbe 990d ec3c 07e3 dcbd
000002d0: a9df 343d 3982 da3e d5d4 b7bd 05c2 853e
000002e0: 6f99 2a3f 06ad 93bd 537e ae3e 946e a53e
000002f0: 2fb6 493e 1f98 87bd 4cd1 64bd be4a 2b3d
00000300: 8b9f a03c 41f9 82bd 60b6 ad3c 1e64 8a3d
00000310: 3ca7 58bd 9b43 523d 22d4 0f3c 260e b83d
00000320: aa6c e13e 662a c43d 8e82 243d 7c45 513e
00000330: 5ef5 b83d 7397 683e d38d 0dbd 802b 11be
00000340: e2b5 9dbe 6fef 80bd a28c 3b3e e113 d23e
00000350: f8c3 663e c1ff f33e 3091 6d3f e6b5 3b3f
00000360: 8a35 f0bd 7895 6dbd b6e6 403d beae 9cbb
00000370: 2d93 1b3e 54f1 973d 2529 b43c 9fba e23d
00000380: e2a5 6bbc 1326 733e 130e 4abe 39a4 61be
00000390: 1e18 803e f3ed 523e e149 ad3e 5c80 1c3e
000003a0: 6f86 ce3e e98b 193f 2154 a9bd ba3d bbbd
000003b0: cbcc cf3b dc0f 47be 8e95 c7bd c60c 86bd
000003c0: 23a9 34be 72e4 abbc 4ba7 2bbd b08e 963e
000003d0: dafe 9c3d 2420 7cbd ecaf 4c3e d178 9a3d
000003e0: c890 90bc 0be4 d2bc 0961 5f3d 599c c43c
000003f0: 6088 343e c5f7 003d 978f a2bd 084d 253e
-0.031228121 -0.03718758 -0.040022872 -0.05510347 0.14621092 0.057374954 0.009898009 0.026432537
-0.09089486 0.018704409 -0.08515468 -0.118086636 0.040797282 0.07198328 -0.24305813 0.24807611
-0.1517204 -0.24219638 -0.027101211 0.047330134 -0.026274672 0.13161707 0.07025628 0.13939576
0.029127738 0.092157446 -0.006393164 0.10717293 0.07712786 -0.110867515 0.010274752 0.16514201
-0.048081882 0.15083791 0.17260751 0.10244566 -0.6965677 0.3257148 0.26081374 0.3393611
0.4038982 0.3778914 0.37369978 0.5545041 0.49297816 0.00043689157 0.0034682355 0.0075998395
0.052931227 -0.014904154 -0.017566327 -0.06603864 0.013750037 0.055881318 0.09879573 -0.051337693
-0.067093275 0.02291149 0.048485793 0.18962306 0.09083524 0.06716329 -0.17929782 -0.6473243
-0.092465855 0.043288834 0.16421394 0.56074065 0.35338572 -0.06370993 -0.04859926 -0.12924583
0.08341388 0.04444875 -0.08666778 0.17768978 0.12871115 -0.029916514 0.08544822 0.03485506
-0.06075241 0.13699667 0.16085954 0.12426303 -0.13790594 0.6296528 0.7715872 -0.18403879
0.40224466 0.20498165 0.11992775 0.022877164 0.11273717 0.05778501 0.08264609 0.12720205
0.11412399 0.19671085 0.0068165855 -0.09828237 0.10741903 0.07568054 0.23454843 0.25550088
0.16381666 -0.070651725 0.103064224 0.12340555 -0.08257332 0.06004479 -0.055515807 0.044041984
0.09033235 -0.051702578 0.0052532377 0.10869647 0.041894775 -0.042264633 0.12326472 0.1396191
0.036791053 0.12837078 0.008012574 0.095297225 0.14364971 -0.043966696 -0.12723511 -0.042701907
-0.14318933 -0.04373952 -0.07212393 -0.12188643 -0.029609818 0.09222851 0.15202917 0.05064164
0.17359841 0.052790333 0.1224901 0.210522 0.013131368 0.077836566 0.17263666 0.07027114
0.0847727 -0.07298237 0.025645595 0.016082527 0.08069019 0.24478509 -0.00469574 0.25574178
0.2496968 0.20175889 0.06290274 0.3111066 -0.015171346 0.10956488 0.14971146 0.06049579
0.32755688 0.04433072 0.07330607 0.07457395 -0.091055915 0.13625261 0.16439302 0.12163997
-0.038286515 0.15822814 0.06822894 -0.26282007 -0.13504069 -0.17182718 -0.0882519 -0.006769023
0.012271772 -0.15569879 0.028815078 -0.107854895 0.04415861 0.42677477 -0.08976141 0.26124588
0.6664037 -0.07210736 0.34080753 0.32310927 0.19698404 -0.06620812 -0.055863664 0.041819327
0.019607326 -0.06395198 0.021205127 0.06757377 -0.052893862 0.051334005 0.008778604 0.089870736
0.44028217 0.09578399 0.04016357 0.20436662 0.09031175 0.22714023 -0.034559082 -0.1417675
-0.30802828 -0.06295668 0.18315366 0.4103079 0.22535694 0.47656062 0.92799664 0.7332443
-0.11728962 -0.058003873 0.047095023 -0.004781573 0.15192862 0.074190766 0.021992275 0.110707514
-0.014382811 0.23744993 -0.19731931 -0.22035302 0.250184 0.20598583 0.33845428 0.1528334
0.4033694 0.5997911 -0.082679994 -0.09142633 0.006341552 -0.19439644 -0.09745322 -0.06545405
-0.17642646 -0.020982955 -0.04190759 0.29405737 0.076657966 -0.06155409 0.19988984 0.07542575
-0.017647162 -0.025743505 0.0545359 0.024000334 0.17630148 0.03148629 -0.07937544 0.16142666

model.encoder.conv2.bias f4 [8]
00000000: 8709 623e 2c34 24be 0ebe a4bd d7a9 a53e
00000010: b53b fc3b 3f23 e8bc f6bd 12be 9f06 7fbd
0.22073947 -0.16035527 -0.080440626 0.3235614 0.0076975473 -0.02833712 -0.14330277 -0.062262174

model.encoder.conv3.weight f4 [8, 8, 3, 3]
00000000: c9ef 5ebd fab1 c6bd 55ad ccbc b30f 06be
00000010: 34a7 fcbd 805c d0bd 997b 513d bb0b f8bd
00000020: 571f dabd 00f6 10bd 29d1 b4bd 44a8 afbc
00000030: f287 e8bd c308 bf3d 5517 1bbd b2f5 00be
00000040: 9dbf 903d 5a9d 0ebe c001 cebd 818b 8c3d
00000050: 1f69 cd3d 5d48 8e3c 5f9d ac3d a93a 113d
00000060: a3a1 d13d 89bb 8bbc e232 09bd 2c0b 51bd
00000070: 0a4c 02bd e9d0 d73d 6a1b c93d d65e 91bd
00000080: 62d9 b8bd 0707 4dbd 322b c03c 7735 e9bc
00000090: d39f 8a37 3070 9dbd c24b 01be a0be 23bd
000000a0: 7d0e 05be 4cda 3dbd 7b7a 963d 9d7e aeba
000000b0: fcea ba3c b33c 2a3c a03e 913c f355 a43d
000000c0: 4b7e 04be 94c9 e0bd a956 003d cd8f 17bd
000000d0: f3ee aa3d 3e14 153d 9064 a33c 8494 003d
000000e0: b321 b8bd 6d1a 583d c975 483d acf2 2d3d
000000f0: 4098 d5bc e518 18bb 415d c4bd 113c f8bd
00000100: 03db 423c 5877 16bd a8da 123d 8673 c5bc
00000110: 7a95 97bc f9b7 a63d 53bb f0bd f2a7 443d
00000120: 681e 1ebc 5709 a53d 067f dbbd 860c c9bd
00000130: 4ead 0e3d db81 e9bd ca9c 063e 6c9d 1cbe
00000140: 860e ac3c 7dfc 103d bad2 3d3e 2d9b 233e
00000150: 2ea7 173e 4f64 163e 7ac7 793e de4c 90bc
00000160: 5733 163c 1f80 b1bd 50f6 e0bb 5f57 0bbd
00000170: fa80 60bd b7c2 96bb 748e 7b3d 454b 683c
00000180: 2bb0 72bd 44f3 683c 7d4e 183d 51b8 8b3d
00000190: 9143 3d3e f303 8ebd 1b99 2d3e 182a 243e
000001a0: f045 d43d 1e27 533e cdae e43d 6fb9 0b3d
000001b0: 6a2d 58be 647d eebd a63a 8e3d bad7 cb3c
000001c0: d6b9 083d cd0f aebd 2a07 4fbd 98f8 a0be
000001d0: 9b29 393d 7883 843d e69b 5b3d 3deb a4bd
000001e0: 5d79 193d 839d 963e 852a 9a3d 59aa 2f3e
000001f0: 5dee 0e3e d948 373d 5597 a3bd e319 f0bd
00000200: ab81 d6bd aec6 14bd ec16 413e 46c9 223d
00000210: f86f cd3d 4039 dfbc 0b52 503d 54ce 333e
00000220: 831d 0bbb 9e16 08be 013c 4c3c 28b5 b33d
00000230: 2c08 093e d7f6 ea3c 6c31 513d 87dc c03c
00000240: 36fd 96bb dd34 213d 62d4 503c eb13 653e
00000250: b58f 643d cfda e33d dd76 dfbc 911b 383c
00000260: c060 e23d a225 32bd fad6 56bc e008 963d
00000270: 273f 77bd e570 fabd e46f 9f3e ca65 15be
00000280: f1db a4bd c264 b23d 8c07 e13c c78f b83d
00000290: 8503 783d 4d5b 693d 45f7 08bd a5b8 d1bd
000002a0: 715f e0bc 97bb aabc 3979 e03d 47f8 183e
000002b0: 5529 833d 2021 763e f5d9 b7bd 5698 333d
000002c0: f918 183e 4123 02bd 2a74 653d a337 3e3e
000002d0: 9bfc 02bd 4a8e 06bd 7d0f b13d dc10 a9bd
000002e0: 597c 8ebd 3790 1fbd a37e c63b d1e2 8d3d
000002f0: a7a2 2c3e b374 013d d9a4 923c 95c4 62bd
00000300: 9b56 6dbd 52f4 823c aed0 943d 6f7a 4e3d
00000310: 76d1 e6bd 700d 193e 31b6 9b3c 2928 24be
00000320: 8ed1 013e 1ba2 d0bd 9174 85bd f026 8b3d
00000330: 5ba6 aa3d e824 10be 0718 debc e50b 11be
00000340: dfc6 963d 69cd cdbd 78ca 643c dac0 283e
00000350: 5de5 debc 83f5 2fbe 0eb8 1abe 1c25 1e3e
00000360: ed52 e33b f199 10be 3f81 733c 12ef b33b
00000370: 87b6 b13d 8d84 403e 8f60 1e3d 560d f53d
00000380: 33f1 6abd ac98 e3bd f965 0bbe 3589 50bd
00000390: 38d3 8abd 63e5 863e 46e1 ec3d 6ba3 7ebc
000003a0: f31c 84bd 6162 813d badd aabc 76ca aeb9
000003b0: 1ad9 a23d dd1d 923d 1b62 113c cbec 473c
000003c0: c982 54bd ba23 58bd f34f e53d 466e 5e3d
000003d0: 341e 823d b98a 34be 0d28 123c 15e3 513d
000003e0: 0a5c 1dbe f22e 84bd 5d54 87bc 497f 87bd
000003f0: 435a 193e 3186 503d 1d61 2e3e fb1f b23d
-0.054427896 -0.09701915 -0.024984995 -0.13091926 -0.12336579 -0.10173893 0.051143263 -0.121116124
-0.10650509 -0.035390854 -0.08828957 -0.02144254 -0.113540545 0.09327843 -0.037864048 -0.12593725
0.07067797 -0.13927212 -0.100589275 0.06862546 0.10029816 0.01736849 0.08428454 0.035456333
0.10235908 -0.017057197 -0.03349579 -0.051036045 -0.031810798 0.10537893 0.09819682 -0.07098167
-0.090258375 -0.05005553 0.023458097 -0.028467877 1.6525306e-05 -0.07687414 -0.12626556 -0.039976716
-0.12993808 -0.046350762 0.0734758 -0.001331288 0.022817127 0.010390448 0.017730057 0.08024206
-0.12938802 -0.10975948 0.031332646 -0.037002373 0.08346357 0.036396258 0.019945413 0.031391636
-0.089908026 0.052759577 0.048940454 0.042467758 -0.026073575 -0.0023208198 -0.09588099 -0.12120832
0.011893037 -0.03673491 0.035853058 -0.024102937 -0.018503893 0.08140559 -0.11754479 0.048011728
-0.009650804 0.08058422 -0.10717587 -0.09816842 0.034833245 -0.11401721 0.13145748 -0.15294427
0.021003019 0.03539704 0.18537417 0.15977164 0.14809868 0.14686702 0.243925 -0.017614778
0.009167514 -0.08667015 -0.0068653002 -0.03401887 -0.0548105 -0.0046008485 0.06141515 0.014178102
-0.059250038 0.014218155 0.037184227 0.06822265 0.18482806 -0.06934347 0.16952936 0.16031682
0.10364902 0.20620391 0.11166153 0.03411239 -0.21111074 -0.1164501 0.0694478 0.02488314
0.033380352 -0.084991075 -0.05054394 -0.31439662 0.045205694 0.06470388 0.053615473 -0.08052681
0.037469257 0.29417047 0.07527641 0.17154826 0.13958116 0.044747207 -0.07987849 -0.117236875
-0.10473951 -0.03632229 0.188564 0.03974273 0.10031122 -0.027248979 0.050859492 0.17559177
-0.0021227307 -0.13289878 0.012465478 0.08774787 0.13382024 0.028682156 0.051072523 0.023542656
-0.004607822 0.039357055 0.0127459485 0.2237088 0.055801112 0.11125719 -0.027278358 0.011237041
0.1105361 -0.04349292 -0.013112778 0.073259115 -0.06036296 -0.12228564 0.31140053 -0.1458961
-0.08049763 0.08710624 0.027469419 0.09011798 0.06055023 0.056971837 -0.03343894 -0.10240296
-0.02738926 -0.020841403 0.109606214 0.1493846 0.06404368 0.24036074 -0.08977119 0.04384645
0.14853276 -0.031771902 0.056018986 0.18575911 -0.031979185 -0.03285054 0.08645532 -0.08255169
-0.06957311 -0.038955893 0.0060575767 0.069280274 0.16858922 0.031605434 0.017900871 -0.055363256
-0.05794392 0.015985642 0.07266365 0.05040973 -0.1127042 0.14946532 0.019007774 -0.16030945
0.12677595 -0.10187169 -0.06516374 0.06794536 0.08332511 -0.14076579 -0.027111067 -0.14164694
0.073621504 -0.100489445 0.013964288 0.16479817 -0.027208978 -0.17183499 -0.15109274 0.15443844
0.0069373758 -0.14121224 0.014862358 0.005491146 0.086773925 0.18800564 0.038666304 0.11965434
-0.05735893 -0.11113104 -0.13613118 -0.0509121 -0.06778568 0.26346883 0.11566405 -0.015541892
-0.06450834 0.063175924 -0.02085768 -0.0003333871 0.07951565 0.07134602 0.008873488 0.012202452
-0.05188254 -0.052768447 0.1119689 0.054304384 0.06353417 -0.17631043 0.008920682 0.051241953
-0.15367141 -0.064542666 -0.01651972 -0.066160746 0.14975838 0.050909225 0.17029233 0.08697506

model.encoder.conv3.bias f4 [8]
00000000: e8a1 32bc e01d 29be 7baf 083e 44fd 83be
00000010: 669a 6b3e 38ad 893d 7ee9 92bd 2d32 df3e
-0.010902859 -0.16515303 0.1334819 -0.25779164 0.23008117 0.06722492 -0.07173441 0.4359297

model.decoder.conv1.weight f4 [8, 8, 3, 3]
00000000: 0a5f 823d 96ea 8e3d 7859 9a3d e93c 623d
00000010: 27ba cd3c 44a9 d83c 9fc3 ae3d 9005 cbbc
00000020: 9c2a 58bc 26c2 09bd b1ec 8a3b 7482 cebc
00000030: e3b5 073d 3325 1f3e 548d a0bd b03f d23d
00000040: 382e 93be 3461 13bc f659 95bc 3241 3e3d
00000050: de57 163e 121c e3bc 07d3 9dbd 16a0 253d
00000060: 8395 4e3e 0eb1 90bd dc1b 79be 721c 44bc
00000070: c1ae a13d 8ef8 a43c a759 aabd 644c 263e
00000080: ffc0 cb3d 63a7 8dbc e340 01be f4fc f23d
00000090: 4505 fd3c 73c2 7c3d bcb5 6bbb 1f3e 043e
000000a0: ae17 0dbd 876d 1e3e 46b3 31be 1040 433e
000000b0: 6a2a 2ebe 84ce acbd 2100 b9bc 5996 523d
000000c0: 0d4f a7bd 2805 173d 587b f33d 6a67 9abd
000000d0: 5af9 0e3e 3851 0b3c e8ea 043d 8d35 0ebd
000000e0: 2ead a4bd 5ead e73c 679c 51be 54ac 30be
000000f0: 8f75 243e 26bc 5bbe 106f 053e 46ed 943c
00000100: 5a74 4abc 245f acbd cc25 333d 8c73 113e
00000110: 487f b0bc 67fe 94bb 9eac 7e3e 55a2 1b3e
00000120: 5011 ff3d 2fae c8bc 43e9 70bc 90c8 57bd
00000130: 892e 143e b417 4fbd 85b1 91bd d8c3 423c
00000140: 3828 aebd 0f05 cbbb 16cd 04bd 969b 053e
00000150: da9c 623d 32e5 8a3d 5e01 7c3d 699e 7cbd
00000160: 114e 673e 7078 8bbd 98f0 3c3c e1ee 053c
00000170: 438a 88bd 6363 8abc 1fff 973e fb84 69be
00000180: 9d37 6cbd 69e7 c63d b924 7bba 5800 983d
00000190: f594 5ebd 3361 093d 1f9d 7b3d 82c1 fe3d
000001a0: 3136 c7bd a165 333d 6fbb 3ebd 14b1 743c
000001b0: 06c3 aebd b385 7abb 0397 fa3c d2a9 a1bd
000001c0: 3e29 823e d5de 9c3c 0167 f33c 3587 6cbe
000001d0: a3cf 05bd 9470 e13c 0626 4c3d 74bb a1bb
000001e0: c055 e3bc bd4c 7cbd 28da e43b 4ecd 98bd
000001f0: c9a5 a8ba 7fe6 323d d280 cd3c 0093 9cbd
00000200: 4364 2d3c 5a04 b9bd 0e87 2b3e 95bf 843e
00000210: 188b bf3b 8231 0a3d 4384 c43d 5723 223d
00000220: 2df4 89bd b916 563d 7827 58bb 1fbd aa3d
00000230: cb47 863e 3386 963b a8b8 363e 2d76 753c
00000240: fe65 163d 4f7b d03d 1b26 79bd ac32 9bbd
00000250: 7f68 2a3d 84b3 d1bc 8d58 e63d d60e 3cbd
00000260: fa5d 87bc 9cee 46bc 7cb4 273d 2382 8d3b
00000270: 2b15 8e3d 56b0 a13c 66d9 3abd 09d0 4b3d
00000280: fc4c 203e 15cc fd3d 3b5b 373d 517c 0b3e
00000290: 3631 a13d 19a8 b3bd 19d5 1fbd 3d11 4d3e
000002a0: d97c e2bc 4c43 ddbd 8e8e 6e3c 110b a93d
000002b0: 772d 473d 471f 723c 84dc 6fbd 9b56 c33e
000002c0: 4971 ad3d 8dec febc 711d 2dbd b836 2c3d
000002d0: fc12 f2b9 8e78 ecbb da11 0b3d af9f 87bc
000002e0: 20fa d23e 31a3 9f3d 18e2 af3d 80a1 393e
000002f0: 1037 2c3c 5f9a 573d 3853 b73c a163 aebc
00000300: de69 533d 2455 f9bd 850c a53c 9cb0 c4bd
00000310: 64c3 adbd cf13 96bd e744 03bc ee09 dbbd
00000320: 9cac 1cbd 4be2 d2bd 2375 eabd 6091 febd
00000330: fc20 67bd 44da 61bd 79fc 13bc 194e b03a
00000340: 4bd5 07be 87bd 0bbd 3fc3 4ebc fa49 903e
00000350: 6873 99be 99d2 a0ba e5c6 a4bc 0e07 3e3d
00000360: 4ac8 783d 79ce 23bd 9573 ba3c 836f a1bd
00000370: e1fa 903d 17ed 883d e932 fd3c a1d1 9cbd
00000380: 5dcc 92ba 3de2 dc3c 6861 46bd 6b9e c83d
00000390: 3b8a 533d 5690 0f3e 15ff cbbd 5869 b4bd
000003a0: ff71 b73e 233b 113e 49e1 e93c 007b 493d
000003b0: c4aa 00be b5ee d938 cdae 6bbd e6b7 563e
000003c0: 89d3 91bd f334 053d f42d 73bc 7a5e 653d
000003d0: efa1 98bd 6230 18bd 5c5e 5a3d 828f 58be
000003e0: 8d8f 033d d0e6 2a3b f145 54bd 3322 bebc
000003f0: f2c7 7bbd e36f f63c 6a95 c53b 4bb4 b8bc
0.063657835 0.069783375 0.07536596 0.05523387 0.025113178 0.0264479 0.085334055 -0.024782926
-0.013193753 -0.03363242 0.0042396416 -0.02520869 0.033132445 0.15541534 -0.07839456 0.10266054
-0.287462 -0.008995343 -0.018231373 0.046448894 0.14681956 -0.027723346 -0.07706266 0.040435873
0.20174222 -0.070650205 -0.24327034 -0.0119696725 0.0789466 0.020138051 -0.08317881 0.16240078
0.099489205 -0.01729173 -0.12622409 0.11864653 0.030886302 0.06170888 -0.0035966476 0.12914322
-0.03444641 0.15471469 -0.17353544 0.19067407 -0.17008367 -0.08437827 -0.02258307 0.051412914
-0.081693746 0.03687015 0.1188876 -0.07539256 0.13962308 0.008503251 0.032450587 -0.03471904
-0.08040844 0.02828091 -0.20469819 -0.17253238 0.1606047 -0.21458492 0.13030648 0.018179547
-0.012356842 -0.08416584 0.043737218 0.14204234 -0.021545067 -0.0045469287 0.24870536 0.15198644
0.12454474 -0.02449712 -0.014704051 -0.052681506 0.14470877 -0.050559714 -0.07113937 0.011887513
-0.08503765 -0.0061956714 -0.032422148 0.13047633 0.055325367 0.06781997 0.06152474 -0.06167451
0.22588374 -0.06810081 0.011531971 0.008174629 -0.06666996 -0.016893094 0.2968683 -0.22804634
-0.057670224 0.09712107 -0.0009580362 0.074219406 -0.054341275 0.033539962 0.06142914 0.124392524
-0.09727133 0.043798093 -0.04656547 0.014934797 -0.085332915 -0.0038226664 0.030589586 -0.07893719
0.2542209 0.019149223 0.029712202 -0.23098452 -0.03266872 0.027519502 0.04984095 -0.004935676
-0.02775085 -0.06159662 0.006984014 -0.07461034 -0.0012866791 0.04367685 0.02508584 -0.076452255
0.010582986 -0.09034033 0.16750738 0.25927415 0.0058454387 0.03373862 0.095955394 0.039584484
-0.06736026 0.052267764 -0.003298251 0.08336853 0.2622665 0.0045936345 0.17843878 0.014981789
0.03671836 0.10179769 -0.060827356 -0.07578024 0.04160356 -0.025598295 0.112473585 -0.045912586
-0.016524304 -0.01214185 0.040943608 0.004318492 0.06937631 0.019737404 -0.045617484 0.049758945
0.15654367 0.12392441 0.04476474 0.13621642 0.07870714 -0.087722965 -0.039021585 0.20026107
-0.027647423 -0.108038515 0.014560355 0.08254064 0.048627343 0.014777965 -0.05855991 0.38152012
0.08468873 -0.031118656 -0.042264406 0.04204437 -0.0004617198 -0.0072165197 0.03395257 -0.016555635
0.41206455 0.07794798 0.08588046 0.18128014 0.010511175 0.052637454 0.022378549 -0.021287741
0.051614635 -0.121744424 0.020147571 -0.09603998 -0.084845334 -0.07327997 -0.008012033 -0.10695253
-0.03825055 -0.10297068 -0.11448123 -0.12430072 -0.05642794 -0.055139795 -0.009032362 0.0013451009
-0.13264959 -0.034116294 -0.0126197925 0.2818144 -0.2997086 -0.0012269794 -0.020114372 0.046393447
0.060737886 -0.03999183 0.022760192 -0.07882597 0.07079101 0.06685846 0.030908065 -0.07657171
-0.0011199821 0.026963348 -0.048432738 0.09795841 0.0516455 0.14019904 -0.099607624 -0.08809155
0.3582916 0.14182715 0.028549807 0.049189568 -0.12565142 0.00010391829 -0.05753975 0.20968589
-0.07120425 0.0325212 -0.014842499 0.055998303 -0.074527614 -0.037155516 0.053312644 -0.21148494
0.032119323 0.0026077516 -0.051824514 -0.023209667 -0.06146998 0.030082649 0.0060297744 -0.022546908

model.decoder.conv1.bias f4 [8]
00000000: 6997 c53e 3303 62bd 57c7 733e 332d df3e
00000010: 44c5 12be a002 f0bd b1eb 5a3f 3897 d83e
0.3859208 -0.055178832 0.23806511 0.43589172 -0.14333063 -0.11719251 0.85515887 0.4230287

model.decoder.conv2.weight f4 [8, 8, 3, 3]
00000000: 114f 283e 5bcc b3be cb61 293d b42c f03d
00000010: 27ca 6abe 4d9b 533e 53fc 9bbc da01 5c3d
00000020: ce01 e4bd bbcf 4abe 123d cdbd 6f0d 7e3d
00000030: 7ca8 103d b888 6c3d 60d2 793d 5c0f cfbb
00000040: 0ee3 c13c 2c8c f03c 8b73 3e3e e9d4 84be
00000050: a3fb 8e3e 3e40 7ebd 651c 1cbe 8a03 a33e
00000060: daa7 17be 6ed9 303e da3d 193e 4981 d63d
00000070: 2735 02bd ab96 d03d 0020 6e3e ed8a 20be
00000080: 52f6 fabd 0d8d 92bd 635e 47be 0007 e83c
00000090: ef9e da3d b565 b1bd e29a 9abd 6d1a 0e3d
000000a0: 3769 9b3c d103 df3c aac5 0dbd 2082 36bd
000000b0: 4b6e 913d f707 193d b20a 123d ff42 dabd
000000c0: 7b00 b8bd acc8 80bc 2fc8 cb3c 2bf0 db3d
000000d0: 3f9e f43a b6d9 bb3d 52fb 75bd 0715 42bd
000000e0: fb1d ad3e 2a40 133f 3384 52bd c34e 083e
000000f0: e7af f9bd 40e8 f9bd 1854 d9bd e0a0 dd3c
00000100: 62b3 9fbd cf94 f63d 86bb 40bb 301f 343e
00000110: 6ac6 743e 6ff7 e2bb a38e 603e 9f0c 52be
00000120: 230b 2dbe c59c 0c3e 5a27 e33d c8e7 14bd
00000130: 1897 653c 4b4a 8a3b a760 073e 300e 16bd
00000140: 2d83 073c 0c9a 52be 0707 02be 0a66 613d
00000150: 7e36 153d 70da 413d d96e fdbc d0c7 b93d
00000160: a316 53bd ea87 ca3d 41ad 583e 012e f6bd
00000170: 676a 4b3d fa1e 49be 8880 49be 3660 dfbd
00000180: 6403 9c3c 9032 623e 9d8a b83d 6f40 70bb
00000190: 40c5 ec3d 6d92 78bd 008b 153e 26f8 1c3e
000001a0: 62e3 0b3a 81ce c6bd 9bac d0bd ccbb 7a3b
000001b0: bd6c c23d 04b0 c23d a1c9 a8bc 001b 4d3d
000001c0: 6264 d7bd cb84 8b3d 8c72 2bbd ee25 c0bc
000001d0: c24d c73d 2638 b23d b726 ec3d adbc 983c
000001e0: c267 303d eba1 6f3d 6f00 87bc f27e 38bd
000001f0: 741e 28bd 7658 57bc 7b5d cdbd 4ccb 44be
00000200: ec9e 143d 238e 543e b4b1 823e 962c 923e
00000210: 23bd 3abe d858 87be c712 243e 20d6 44bd
00000220: ce11 59bd f0ac 813c 15c3 ec3c 0bc2 323e
00000230: c3b6 e03d 4e67 95bb bbe0 d03d 2bfe 05be
00000240: a741 5ebe 6239 653e 4b68 43be 9359 193e
00000250: 5c18 9fbd 14ac 8fbd 19bb 14be 9b0e 15bd
00000260: 9c4d 3e3c ab74 c1bd b76f 853d 5b8c 053d
00000270: c745 5d3d b17b 573d e997 3b3c c3e0 a53c
00000280: 811e 0a3d 2963 e33c 9e84 6a3e b00e d73d
00000290: 1572 293e bb0a d03d c749 a8be cbed 97be
000002a0: fa29 febd 225f 913d cf24 3ebb 483f 64bc
000002b0: 0174 9ebc 2d1b f4bd 3d86 6d3e 64cc a23e
000002c0: 8b64 77bd 1100 b7bd 8c9f e1bd 7ba0 dc3c
000002d0: 642e f93c 0105 abbd 5d28 d7bd ea2f efbc
000002e0: a954 7a3d 8c52 a0bc 1df7 993d 1d7d 693c
000002f0: afaa 7fbd 9919 853d 51d2 d6bc 486a c9bd
00000300: c530 d93d 8b1e 86bd d4e6 dbbc 949f ea3d
00000310: b5b6 99bd a9d0 f93d d1ec e93d ddc3 5abd
00000320: d6a7 6e3b 80f0 95be 11e8 1abc 8525 83bd
00000330: aec7 043e bdf6 983e f471 e93d c5a8 753d
00000340: be6b 1ebe f83d 96be 412c ce3d 40d1 52bd
00000350: 253b 293e c643 89bd 45cd 82bd 2ebe 3d3d
00000360: 90b2 88bc b0d7 fd3e 55f4 34be 39d9 b9bc
00000370: 6581 47bd f98f 17bd 4fbb e8bc b551 643d
00000380: af38 3a3d e0d3 6abe 9f6f aebd bcee 0abe
00000390: f604 953d cacc 0a3d 9071 223d d7ce afbb
000003a0: 5870 a43d 9ca2 56bb 2229 b93e f0d0 cfbe
000003b0: d611 b5be df28 19bc ec26 cbbc 0509 97bd
000003c0: 6f92 e23c 7839 133e 09e8 4dbc 5575 3a3e
000003d0: f216 863e 0def bfba 8443 20bd 31e9 df3d
000003e0: 9882 a0bd 2845 1fbe d471 37bd 3297 31bc
000003f0: 950b dcbd 6ab6 ed3d 2a74 86bd b56a 03bd
0.16436411 -0.35116848 0.04135303 0.117272764 -0.22928677 0.20664711 -0.019041216 0.053712703
-0.11133157 -0.19805805 -0.10021414 0.06202453 0.03531693 0.057747573 0.060991645 -0.0063189697
0.023667838 0.029363714 0.18598764 -0.25943688 0.2792636 -0.062072985 -0.15245207 0.31838638
-0.14810124 0.17270443 0.14965001 0.10473878 -0.03178897 0.10184988 0.23254395 -0.15677996
-0.12254013 -0.071558096 -0.194696 0.02832365 0.106748454 -0.08661977 -0.07549073 0.03469317
0.018971069 0.0272235 -0.034612335 -0.04455769 0.07101115 0.03736111 0.03565473 -0.1065731
-0.08984467 -0.015720688 0.024875728 0.10739168 0.0018662884 0.091723844 -0.06005413 -0.047383334
0.33811936 0.5751978 -0.051395606 0.13311295 -0.12191754 -0.12202501 -0.10611743 0.02705425
-0.077978864 0.12040102 -0.0029408648 0.17590022 0.23903814 -0.006926469 0.21929412 -0.20512627
-0.1689878 0.13731678 0.1109149 -0.036353856 0.014013074 0.004220282 0.13220464 -0.036634624
0.008271021 -0.20566577 -0.12697993 0.055028953 0.03642892 0.04732746 -0.030936645 0.09071314
-0.05153526 0.09889205 0.21159841 -0.12020493 0.04966202 -0.19640723 -0.19677937 -0.10907023
0.019044586 0.220896 0.090108134 -0.00366595 0.1156106 -0.060686518 0.14603806 0.15329036
0.0005336312 -0.09707356 -0.10189172 0.0038258908 0.094933964 0.095062286 -0.020603957 0.050074577
-0.105171934 0.068124376 -0.041857287 -0.023455586 0.09731628 0.08702116 0.11530822 0.018644655
0.0430677 0.058504026 -0.016479699 -0.04504294 -0.041044667 -0.013143649 -0.100275956 -0.19218177
0.036284372 0.20757346 0.25526202 0.2854964 -0.18236212 -0.2643497 0.16022788 -0.048055768
-0.052995495 0.015829533 0.028901616 0.17456834 0.10972359 -0.004559434 0.10199114 -0.13085239
-0.21704732 0.22385171 -0.19082753 0.14975576 -0.07768318 -0.07015243 -0.14524497 -0.036390882
0.011615183 -0.09446081 0.065154485 0.032604557 0.054021623 0.052608196 0.011449792 0.020248776
0.033720497 0.027757244 0.22902152 0.10500848 0.16547425 0.10158297 -0.32868788 -0.2967361
-0.1241035 0.07098223 -0.002901364 -0.013931103 -0.019342424 -0.11919246 0.23195739 0.31796563
-0.06039862 -0.089355595 -0.11016759 0.026931992 0.030417629 -0.08350564 -0.105057456 -0.029197652
0.061115894 -0.019570611 0.07517836 0.014251021 -0.062418636 0.06499023 -0.026223334 -0.09834725
0.10605005 -0.06548794 -0.026843466 0.11456218 -0.07505552 0.12198002 0.11422122 -0.053409446
0.0036415956 -0.2928505 -0.009454743 -0.06403641 0.12966797 0.29875746 0.11398688 0.059975404
-0.15470788 -0.29344153 0.100670345 -0.051469088 0.16526468 -0.0670238 -0.06386808 0.046323948
-0.016686708 0.4957862 -0.1767133 -0.022686588 -0.048707385 -0.037002537 -0.028409628 0.055741984
0.045464214 -0.22932386 -0.08517384 -0.13567632 0.07276337 0.03388671 0.039659083 -0.0053652334
0.0802924 -0.0032750731 0.36164194 -0.40589094 -0.3536517 -0.009348123 -0.024798833 -0.07374767
0.027657716 0.14377391 -0.0125675285 0.18208821 0.2618938 -0.0014643386 -0.039126888 0.109331496
-0.07837409 -0.15553725 -0.04478629 -0.01083927 -0.107443966 0.11607058 -0.06565125 -0.032084186

model.decoder.conv2.bias f4 [8]
00000000: e1e4 9f3e e0a0 333e dea7 813e f2a6 e93e
00000010: 9509 16be d7f9 653e 1495 403e 62ce 2bbe
0.31229308 0.17541838 0.25323385 0.45635182 -0.14652093 0.22458588 0.18806869 -0.16777948

model.decoder.conv3.weight f4 [16, 8, 3, 3]
00000000: fd54 95bd c6cf 523c 6704 0ebc f36c 4fbd
00000010: 17ca 073e 272e 923d cde6 b73a f69a 053e
00000020: 0eaf 0bbc 5690 833e 67a5 023e 5dbf 04be
00000030: ad6c fd3e 7054 9a3c 2f5e 79bb 5e83 643d
00000040: 0225 63be e055 e33d 85de 9dbd 4871 193d
00000050: 1046 98bd 477a 333e 96c6 563d 0d6c 76bd
00000060: 3251 d83c 3108 cfbb 9925 22be 78a4 943e
00000070: 3706 303d c6bf 12be a88d 8c3e bdb8 d73d
00000080: e9c4 d6be 0de2 ab3e 6e3a 7bbd 3735 2dbf
00000090: 7089 2dbe 00c7 50be 702a 34bd 379a 9dbd
000000a0: 1352 a9bd b0f1 97bd 2f68 4a3e 0635 993d
000000b0: ab31 8a3d 75dc 06be 4bb5 40be 3f4a ce3c
000000c0: 74d8 973e 044a 1c3e b365 6bbe a1d5 743e
000000d0: b151 183c 3483 16be f795 223d 072d 373e
000000e0: 20a1 a0bd 5959 76bd 9ce5 593e 79c4 97be
000000f0: 1d2f 6d3e f566 4f3e 16c2 41bb 712b fe3d
00000100: d098 a53c 6344 a53b 47c2 42bc 658b 833d
00000110: a446 563e 5e49 78bd 35ad b9bd 37a2 1c3d
00000120: 8a99 8b3d 63cd e4bd 44c1 313e 8fab f93d
00000130: 1b25 79bc 0e0a bf3d b4dc a8bd 50b7 d5ba
00000140: 6544 d43c 6593 79bd 0374 d63d 6760 403d
00000150: bf18 d7be 0011 51bc 1383 3d3d 8563 e8be
00000160: a636 cbbe 0d5a cd3e e639 eebd 3e70 d0bd
00000170: 6ab4 aebd fe0a f53d bb76 553c e50c 7c3e
00000180: 075d aabd 4847 7a3d 534a ca3d e1db 2dbe
00000190: c32f df3b dede 2a3d 06b2 853e 32cf 033f
000001a0: bf53 0a3d 32a5 303d 9476 933e fe2a 703d
000001b0: f643 53bd 65b6 56bd 40d7 cabb 20c5 e93c
000001c0: 2168 05bc e45b 9dbc da07 9bbd a97c 0c3e
000001d0: b07e db3d 49e9 46bf 84e2 88be 9264 153f
000001e0: 7a65 98be 8e8d 4d3e 684e d03e f2a7 8ebe
000001f0: faf2 623d 6b31 403d 1002 3d3d 7238 d43e
00000200: acf4 25be cf94 45bd 46d4 ef3d 6e69 bf3d
00000210: d794 51be c3de 55bd 7827 093e ad28 68bd
00000220: 7e4a e2bd 3ab7 3a3d be51 183c a2b2 463a
00000230: f0db 843d 1c68 0dbd ee73 c53c ecae 813d
00000240: 804e a23d 9977 92bc d578 193e e597 b9bd
00000250: 1d4e 04be 9edb 143d 0524 933c ac09 89bd
00000260: f1fe 16bd 8ca0 8b3e 3be6 64be b679 b8bc
00000270: 590f 703e f72e afbe 3fc5 31bd bde0 c2bd
00000280: 5993 2f3e b3de 23be a44a eb3c a9ec ad3d
00000290: 8607 d33d c116 2d3e 5a6d 83bc 7f59 edbd
000002a0: 2d82 933b 0666 39bc 2f8a b9bd 47ed 8c3d
000002b0: 3d01 a2bd aec4 c53e 1228 a8bc 50f9 09be
000002c0: 3b6c f1bc 420c f6bd 2e89 ba3d 4ac5 363e
000002d0: 26a0 f8bd a9ac efbd 338f df3d 7ebb b73d
000002e0: b123 8ebd 5523 8d3d 8dc5 a93d cf67 dbbd
000002f0: c6f6 ba3d 2721 df3e e9f7 c3be 0073 24be
00000300: f35a 70be 2fb7 51be 38ba 583d c89b 633e
00000310: 490d 30be f37e 013e 8fee a4be 4b53 cbbd
00000320: 650c 223d 9189 c3be ceff 59bd 63dc 97bc
00000330: 127e d1be 6178 eabe 80c1 f93d 906a d3bc
00000340: 499b e63d a1ac 3a3d 3016 17be 782d d1bd
00000350: 6cbf b5bd 38e6 f73d 2d14 59bc ff69 243e
00000360: db08 edbd 08bf 783d d452 c3bd 0b63 4f3e
00000370: cf6b 52bd 30bc 93bd addf 843c 5975 7bbe
00000380: cd0e 623d cdec 11bd 9b8d 0cbd d7cb 5e3e
00000390: 9cf5 a13d f7ba 20bd 3ab5 cf3d beb9 f3be
000003a0: 6f7e 90be 430d ae3d 6871 c1bd 8c51 94bd
000003b0: a4ed 93bd 8578 443e e9c7 843d bcd6 0a3e
000003c0: 699e 97bd 54fe 40be 488a 2e3e 0b94 a4bd
000003d0: 13b2 753d 2a4d 693d 093e c13d 5d12 fb3d
000003e0: 2148 06be 9422 a73e fc32 3c3e e879 65bf
000003f0: 29ab 0ebe 0f9c e6bd cc2c a23c 10f5 17bd
-0.07291601 0.01286692 -0.008668042 -0.05064101 0.13260685 0.07137709 0.0014030576 0.13047394
-0.008525623 0.25696057 0.12758408 -0.12963624 0.49496976 0.018839091 -0.0038050523 0.055789344
-0.22182086 0.11100364 -0.07708458 0.03746155 -0.07435238 0.17527114 0.05243548 -0.06016164
0.026405904 -0.006318115 -0.15834655 0.2903173 0.042974677 -0.14330968 0.27451825 0.10533283
-0.41947106 0.335709 -0.06133502 -0.67659324 -0.1694696 -0.20388412 -0.043985784 -0.0769543
-0.082676075 -0.07419145 0.19766305 0.074808165 0.06747755 -0.13170035 -0.18819158 0.025181888
0.29657328 0.1526261 -0.22988014 0.23909618 0.0092968205 -0.14698488 0.0396938 0.1788827
-0.07843232 -0.060143802 0.21278995 -0.29642084 0.23162504 0.20254119 -0.0029565147 0.124106295
0.020214468 0.0050435527 -0.01188714 0.06423072 0.20925385 -0.060616843 -0.0906624 0.038240638
0.068163946 -0.11171987 0.17358881 0.12190925 -0.015206601 0.0932809 -0.08245221 -0.0016305242
0.02591152 -0.060931582 0.10471346 0.046966936 -0.42011067 -0.012760401 0.04626758 -0.45388427
-0.3969013 0.40107766 -0.11632137 -0.101776585 -0.08530505 0.11964987 0.013028796 0.24614294
-0.08318525 0.061103135 0.098774575 -0.16978408 0.0068111136 0.04171645 0.26112384 0.5148803
0.033771273 0.043126293 0.28801405 0.05863475 -0.051578484 -0.05242004 -0.0061902106 0.02853638
-0.008142502 -0.019208856 -0.07569857 0.13719429 0.10717523 -0.77699715 -0.26735318 0.58356583
-0.2976492 0.2007353 0.4068482 -0.27862507 0.0554075 0.04692213 0.046144545 0.41449314
-0.16206616 -0.048237618 0.1171041 0.09346281 -0.20466934 -0.052214395 0.13393962 -0.056679416
-0.110493645 0.045584895 0.009296833 0.0007579719 0.06487262 -0.034523115 0.024103131 0.06332192
0.07925129 -0.017879294 0.149875 -0.09062175 -0.12920423 0.036342256 0.017961511 -0.06691298
-0.036864225 0.27270925 -0.22353451 -0.022518974 0.23443355 -0.3421552 -0.043401 -0.09515522
0.17146052 -0.16002922 0.028722115 0.08492405 0.10304169 0.16903211 -0.016043354 -0.11589336
0.004501602 -0.011315828 -0.090595596 0.068811946 -0.079103924 0.38626617 -0.02052692 -0.13474011
-0.029470554 -0.12014057 0.09108196 0.17848697 -0.12139921 -0.11702854 0.10915985 0.08971308
-0.06940401 0.06891505 0.08289633 -0.10713159 0.091290995 0.4357998 -0.38275078 -0.16059494
-0.23472194 -0.20480035 0.052911967 0.22227395 -0.17192568 0.12646084 -0.32213256 -0.09927996
0.0395626 -0.38190892 -0.05322247 -0.018537706 -0.40916497 -0.45794967 0.1219511 -0.025807649
0.11260087 0.045574788 -0.14754558 -0.102137506 -0.088744015 0.121044576 -0.013249439 0.1605606
-0.11573955 0.060729057 -0.095372826 0.20252626 -0.051372346 -0.07213628 0.016219938 -0.24556483
0.055189896 -0.03562622 -0.034314733 0.21757446 0.079081744 -0.039240804 0.10141988 -0.47602648
-0.2822146 0.08498623 -0.09445459 -0.07242116 -0.07223061 0.191866 0.06483442 0.13558477
-0.07403261 -0.18847018 0.17044938 -0.080360495 0.059984278 0.056958355 0.094356604 0.12259362
-0.13113452 0.3264357 0.18378824 -0.8963914 -0.1393248 -0.112602346 0.019796751 -0.037098944

model.decoder.conv3.bias f4 [16]
00000000: 792e 443d c8ee 733e bbca 9cbe 04c3 fbbe
00000010: dec2 723e 84af 46be 05db ae3b dc15 cf3c
00000020: 626c a13d bff6 733e f551 b63d 5101 b5be
00000030: 957b df3d ec5f 6e3e fc3b 583e d104 893e
0.047895882 0.23821557 -0.3062342 -0.49172223 0.23707148 -0.19402891 0.0053361678 0.025278978
0.078820005 0.23824595 0.08902351 -0.35352567 0.10912243 0.23278779 0.21116632 0.26761487

model.decoder.conv4.weight f4 [1, 16, 3, 3]
00000000: ef2d 153e 153d 97be 88f8 9ebe 277a 95be
00000010: c1bc 03bf d2f2 3fbe c4af d4be 14e3 cdbe
00000020: f415 febd 507f 193c a798 c53d 4ad3 fa3d
00000030: 45b7 36be c941 35be cf2b 3b3d 1200 1cbe
00000040: 4852 01be aba6 36bd 16dd 923e dc76 cc3e
00000050: 7f8b 113f f15d a53e 7bfe 413e 583c 003e
00000060: c227 0c3f a79f 0d3e 374c 273d 530c 98bc
00000070: 2f95 073e 3449 ad3e e1ac 993e d05c a53e
00000080: b976 e83e 241a 583e 50a6 9b3e c781 903e
00000090: ec4e bcbd cabb 873d 6ae0 8e3d fafb 15be
000000a0: 8d01 0cbe 5f9a 5dbe ac0c 3cbe 1fe9 8dbe
000000b0: e8c3 c5bd 68aa 3c3e 4aa1 0f3e aebc 5e3d
000000c0: c069 713e a7cd 7b3e b2de 703e 8119 1e3e
000000d0: 6a81 183e 4693 053e ea16 dcbe aa6d aebd
000000e0: 2570 92be 566f 9fbe 7c1a e03d edae 6abe
000000f0: 3844 d0be 9fb7 a3be 8f38 03bf 4bfc a6bd
00000100: de7e 9cbe a816 ad3c a3be d2bd 3c6a bfbe
00000110: 25db 33be f2df a43d 74b1 d6bd b550 4fbe
00000120: 4f75 d5be 2c94 adbd f1c5 033e 3839 c0be
00000130: 0fe8 85be 5ddc 44be 68cf 6e3d 3921 09be
00000140: 441e 46bd 460c a5bd 2414 a0be e354 77bd
00000150: 51b4 64be dc4d 85be bb46 353c cd2f 99bd
00000160: 2b92 423e eddc bd3e d51c 6c3e 1174 e0bd
00000170: 4748 40be de20 9bbe 5ce7 c6be 790a debc
00000180: d06a 83be 2c2a b0bd d76a a93e 481f 18bd
00000190: b2fa 5c3e 0620 273e 76a0 2b3e bfb8 8d3e
000001a0: 4244 813e b8ba 3a3e 5211 3d3e 1f89 d63d
000001b0: 6d95 953d ee37 66be ad61 0dbe 878d 6fbe
000001c0: 20a1 cfbe 9a35 9fbe 0d8c a6be c988 2bbe
000001d0: d001 48bd 4515 5abe b939 31be 15c2 53be
000001e0: 0ae4 87be 3288 3ebc 1d9d 1ebd 1a80 84bd
000001f0: 7d2f 863d b060 243e 74ef 793d 2c06 08be
00000200: dcef c4be d297 093e 1957 09bf e9ba 0ebf
00000210: cafe ecbb 077d d2be 45ef babd 154e 953c
00000220: 53d0 2bbe b221 2bbe e67e 55bd f7a1 cdbd
00000230: 273e 8cbe 569b 463d 4a3b 363b 2149 06be
0.14568304 -0.2953879 -0.3104899 -0.29194757 -0.5145989 -0.18744972 -0.4154035 -0.4021231
-0.12406531 0.009368733 0.09648257 0.122473314 -0.1784335 -0.17700876 0.045696076 -0.15234402
-0.12629044 -0.04459254 0.286843 0.39934433 0.5685348 0.32298234 0.18944733 0.1252302
0.54748166 0.13830434 0.04084417 -0.018560564 0.13240503 0.33844912 0.3001471 0.32297373
0.45403078 0.21103722 0.30400324 0.28224012 -0.09194741 0.06627615 0.06976397 -0.14646903
-0.13672467 -0.21640919 -0.18364209 -0.2771692 -0.09656507 0.1842438 0.1402637 0.054379158
0.23575497 0.24590169 0.23522452 0.15439416 0.14893118 0.13044462 -0.42986232 -0.085170105
-0.28601184 -0.3113963 0.109425515 -0.22918291 -0.40677047 -0.3197603 -0.51258177 -0.0815359
-0.30565542 0.021128967 -0.10290267 -0.37385738 -0.17564066 0.08050527 -0.10483065 -0.20245631
-0.41691062 -0.08475527 0.12868477 -0.37543654 -0.2615361 -0.19224687 0.058303267 -0.1339158
-0.048368707 -0.080589816 -0.31265366 -0.06038369 -0.2233441 -0.26035964 0.011064227 -0.074798204
0.19001071 0.37082615 0.23057874 -0.10959638 -0.18777572 -0.30298513 -0.38848388 -0.027104603
-0.2566743 -0.08601794 0.33089325 -0.037139207 0.21580008 0.1632081 0.1676043 0.27680013
0.2524739 0.1823529 0.18463638 0.104753725 0.07303891 -0.22482273 -0.13806792 -0.23393832
-0.40552616 -0.31095582 -0.32528725 -0.16751398 -0.048829854 -0.21297176 -0.17307176 -0.20679505
-0.26541167 -0.011629151 -0.038724054 -0.06469746 0.065520264 0.16052508 0.061019376 -0.13283604
-0.38464248 0.13436821 -0.53648525 -0.5575395 -0.0072325217 -0.41111013 -0.09127668 0.018225709
-0.16778688 -0.16712072 -0.052122973 -0.10040658 -0.27391168 0.048487984 0.0027806335 -0.13113834

exp_avg f4 [16, 1, 3, 3]
00000000: 4439 0538 c5f5 3938 b456 a538 ea07 0838
00000010: eb90 0538 d548 2c38 a87b 3cb6 8715 18b7
00000020: 633d 9537 62a5 7337 a5b9 c837 8ba7 2838
00000030: 4834 bf37 96a4 d237 9544 2538 bb0c 1438
00000040: e64c a837 0870 2637 56a5 0c38 8eb6 5038
00000050: cb31 af38 85e9 3438 9c71 b6b6 5235 0b38
00000060: 700c d936 0ff2 9fb7 a5a6 99b6 fa04 fe38
00000070: 7d0a aa38 dd5b e238 c5c1 f538 60f5 ec38
00000080: 347e 8938 3e90 9e38 1661 6438 8f90 4f38
00000090: 7c6c e4b8 49a8 c5b8 1412 89b8 bb29 08b9
000000a0: 5c3d c6b8 eedd 6db8 3516 9eb8 3ff6 f9b8
000000b0: 4b4d 1bb8 0400 0080 0400 0000 0400 0000
000000c0: 0400 0000 0400 0000 0400 0000 0400 0000
000000d0: 0400 0000 0400 0000 3cfb 5eb8 6145 0db8
000000e0: a7b5 35b8 3ddf b7b8 4afc 93b8 b2ca d5b8
000000f0: 4f13 f2b7 d797 7bb8 a2f3 c2b8 ccc1 8db8
00000100: 117d 81b8 673e 0eb8 3b5a f5b6 243d 41b8
00000110: aa61 c3b7 4098 43b8 9daa a6b7 3431 a737
00000120: 0b95 8337 c24d 3038 086c 8538 12a8 2f38
00000130: ef9e d337 63ad 2d37 220e 0638 3daa eb36
00000140: 6f01 9d37 6e46 ef36 517b 4f38 2088 2039
00000150: e5f0 9d37 9da0 4438 c5ea 1839 8f54 8937
00000160: 3e43 9838 369c d238 3f60 7537 d884 c937
00000170: 5fca d937 8c59 d837 5cc1 c837 886b 1037
00000180: 62f2 0c37 e705 09b7 b45a 8437 6143 a3b8
00000190: ee5e 9bb8 7f9c 22b8 9f60 fdb7 d735 24b8
000001a0: a3b6 19b8 970e 51b8 c1e0 a1b8 f99e 73b8
000001b0: 4ac1 3836 5aa3 2e38 93e9 3438 7c4f fab7
000001c0: 50f1 f837 337f 8d38 6e8d 0538 35f6 0c38
000001d0: 90ed 7138 6863 f3b7 1b55 d837 e751 8038
000001e0: 7c77 84b7 b015 21b8 1934 2738 4259 6cb8
000001f0: 2bf8 18b8 88ce ab37 2d31 83b8 0836 d4b8
00000200: 41bf 20b9 d8c5 41b8 1c6d b2b8 ed4b 15b9
00000210: 420c dcb6 3dba 10b8 eca8 ebb8 a396 dd38
00000220: d958 8b38 7891 cf38 ed6b ae38 422b f938
00000230: 0a5c c938 7cdf 0039 dbf3 af38 26c4 5138
3.1763004e-05 4.4336328e-05 7.883963e-05 3.2432297e-05 3.1844636e-05 4.1075826e-05 -2.808616e-06 -9.064918e-06
1.779077e-05 1.4522435e-05 2.3928305e-05 4.0210358e-05 2.279332e-05 2.5110592e-05 3.9402938e-05 3.5297806e-05
2.006297e-05 9.920455e-06 3.3532582e-05 4.976108e-05 8.353925e-05 4.3132826e-05 -5.4372485e-06 3.318984e-05
6.468552e-06 -1.9066994e-05 -4.5791553e-06 0.00012112591 8.108185e-05 0.00010793631 0.00011718603 0.000112990616
6.556176e-05 7.560894e-05 5.4449854e-05 4.9487277e-05 -0.00010892094 -9.4250376e-05 -6.5360364e-05 -0.00012985517
-9.452805e-05 -5.671189e-05 -7.5381635e-05 -0.00011919112 -3.7026864e-05 -6e-45 6e-45 6e-45
6e-45 6e-45 6e-45 6e-45 6e-45 6e-45 -5.3162905e-05 -3.3681634e-05
-4.332294e-05 -8.7677014e-05 -7.056499e-05 -0.000101943864 -2.885764e-05 -5.9984475e-05 -9.296021e-05 -6.7595014e-05
-6.174495e-05 -3.3913555e-05 -7.312073e-06 -4.6071727e-05 -2.329129e-05 -4.6633417e-05 -1.986819e-05 1.9930863e-05
1.568582e-05 4.2034088e-05 6.3620566e-05 4.187978e-05 2.522717e-05 1.0351973e-05 3.196125e-05 7.023364e-06
1.8716526e-05 7.130954e-06 4.9467493e-05 0.000153095 1.8828034e-05 4.6879624e-05 0.00014583308 1.6371048e-05
7.26045e-05 0.00010042677 1.4625547e-05 2.4022927e-05 2.5962652e-05 2.5790905e-05 2.3931898e-05 8.608105e-06
8.401084e-06 -8.167211e-06 1.5777863e-05 -7.784996e-05 -7.408658e-05 -3.8769558e-05 -3.0204943e-05 -3.915079e-05
-3.6648136e-05 -4.984307e-05 -7.718942e-05 -5.808377e-05 2.7530646e-06 4.1636966e-05 4.3132877e-05 -2.9839335e-05
2.9676274e-05 6.7470966e-05 3.1841388e-05 3.36079e-05 5.7680125e-05 -2.9014147e-05 2.5788837e-05 6.118771e-05
-1.5791265e-05 -3.840559e-05 3.9864422e-05 -5.6349912e-05 -3.647075e-05 2.0480962e-05 -6.2557265e-05 -0.00010119012
-0.00015330037 -4.6199042e-05 -8.5080246e-05 -0.00014238032 -6.557938e-06 -3.4505723e-05 -0.000112371374 0.000105661595
6.644586e-05 9.897625e-05 8.317069e-05 0.000118813026 9.6015705e-05 0.00012290286 8.390072e-05 5.001216e-05

exp_avg_sq f4 [16, 1, 3, 3]
00000000: c740 2e35 e905 4235 14cc 3935 5a83 5d35
00000010: becb 5835 332c 5735 9daf 3335 9e80 1735
00000020: 64bf 1735 2db7 0334 2ed3 2034 0a4d 2634
00000030: b1c2 7f34 7dbc 8c34 2d36 8834 1c82 e534
00000040: 4b74 da34 04b6 a834 95e3 2035 2ecd 3335
00000050: 5bd2 3435 402d 5f35 6830 6935 6d5e 6035
00000060: eac1 3735 c0a0 5935 e36d 5935 8823 3036
00000070: 06c9 8636 1d8a 9036 b7eb 4b36 2f9d 9636
00000080: ee6e 8e36 98c7 6136 1ddc 8236 0f6b 8b36
00000090: 3f32 4b36 b9ff 0a36 e166 2335 2dfc 4636
000000a0: a442 d135 8ccc 8a34 f9c1 0036 fd25 1b35
000000b0: fa33 9a33 70e3 3a16 31f6 961e 2b19 671c
000000c0: 7093 c515 8fb3 961e 33cd d014 7093 c515
000000d0: 6522 891e 65b6 be14 a216 a134 0f7e 1635
000000e0: 4454 5c35 8a58 2a35 be4a 9235 2494 b135
000000f0: 68fd 6f35 5357 9835 2c2d a535 9bfe 4c36
00000100: 652e bf35 93cc f335 4f63 9335 8e84 7f34
00000110: 659d 0a35 6234 6f34 c70e 6932 8a44 d533
00000120: 3500 1335 5208 2735 3c5c 4435 6ca3 2d35
00000130: f5bd 7135 3187 7f35 322b 5335 644f 7a35
00000140: afba 6735 d084 0332 dc26 cb34 929e 2a36
00000150: 13b6 fb32 9958 3a35 36c2 3d36 6859 7d33
00000160: 7c6c 2635 6539 dd35 43e7 e335 2722 0b36
00000170: 5452 f035 9e17 1236 dd63 1936 00cc ea35
00000180: 1fc8 0c36 7288 f435 7dc9 9335 4e02 7c35
00000190: 049e 9e35 d370 7035 48d4 4335 24b8 8535
000001a0: 6be3 7f35 b0f4 d334 032a 2f35 c10f 4935
000001b0: f7be 7d34 06b5 8934 8c51 9434 8a5c 0735
000001c0: 9704 1e35 d887 3f35 12b2 7335 5f23 9735
000001d0: cb6c 9435 ada1 2c35 d7a0 5a35 2be0 8135
000001e0: 0409 6f35 2f5d 8e35 82ea 9335 0428 8335
000001f0: 4958 a835 6a32 a135 6303 1435 6d2d 9035
00000200: ac38 0a36 3757 c334 a06c 5935 7346 0336
00000210: af54 c034 98e8 5b35 6732 1636 092e 5936
00000220: b72c 8136 8896 8a36 0622 9836 818c bd36
00000230: ce74 a536 0886 af36 24b6 be36 c9f6 9636
6.4914315e-07 7.227923e-07 6.9214843e-07 8.252006e-07 8.0762754e-07 8.015806e-07 6.693825e-07 5.6439046e-07
5.6530394e-07 1.2266965e-07 1.4977988e-07 1.5487981e-07 2.3819554e-07 2.6214175e-07 2.5371392e-07 4.274924e-07
4.0690279e-07 3.1424872e-07 5.993582e-07 6.698127e-07 6.7361333e-07 8.313982e-07 8.6869704e-07 8.358391e-07
6.8454995e-07 8.107272e-07 8.0998706e-07 2.6246726e-06 4.0169134e-06 4.307613e-06 3.0386561e-06 4.488647e-06
4.2448437e-06 3.3643792e-06 3.8999265e-06 4.154986e-06 3.0278604e-06 2.0712453e-06 6.087194e-07 2.9651085e-06
1.5591108e-06 2.585333e-07 1.9186393e-06 5.779728e-07 7.180638e-08 1.5096727e-25 1.598369e-20 7.6464017e-22
7.980028e-26 1.5956131e-20 2.108357e-26 7.980028e-26 1.4519664e-20 1.9257039e-26 3.0005054e-07 5.6062794e-07
8.207901e-07 6.3458776e-07 1.08996e-06 1.3230642e-06 8.940319e-07 1.1350297e-06 1.2306605e-06 3.0546569e-06
1.4244112e-06 1.816445e-06 1.0981256e-06 2.3796949e-07 5.1638045e-07 2.2277666e-07 1.3565745e-08 9.9310526e-08
5.476207e-07 6.2224456e-07 7.314991e-07 6.468533e-07 9.005592e-07 9.519163e-07 7.866648e-07 9.3247786e-07
8.6325866e-07 7.655402e-09 3.783997e-07 2.5424274e-06 2.9303044e-08 6.9419326e-07 2.827624e-06 5.8987467e-08
6.1997684e-07 1.6482487e-06 1.6980124e-06 2.0732493e-06 1.7905354e-06 2.1769442e-06 2.2856905e-06 1.749373e-06
2.0978111e-06 1.8219127e-06 1.1010994e-06 9.388067e-07 1.1817906e-06 8.957115e-07 7.295207e-07 9.962864e-07
9.532584e-07 3.9479846e-07 6.5253715e-07 7.490126e-07 2.3631934e-07 2.564995e-07 2.762648e-07 5.042608e-07
5.8866266e-07 7.1350723e-07 9.078368e-07 1.1260671e-06 1.1058522e-06 6.431026e-07 8.144538e-07 9.67649e-07
8.904756e-07 1.0606944e-06 1.1020604e-06 9.771907e-07 1.254267e-06 1.2010107e-06 5.5139225e-07 1.0742057e-06
2.059659e-06 3.6385038e-07 8.099687e-07 1.9561528e-06 3.5824402e-07 8.1922326e-07 2.238108e-06 3.2362316e-06
3.849705e-06 4.1302446e-06 4.533914e-06 5.6489957e-06 4.930981e-06 5.2310097e-06 5.683645e-06 4.499078e-06

exp_avg f4 [16]
00000000: 7bc5 ed38 8332 cfb7 5866 e038 d7e6 6e39
00000010: 5864 9eb7 0400 0000 baaa d5b6 90e8 cab9
00000020: f3aa e238 7c27 333a 97be d538 b05b bab8
00000030: d168 2139 6e4c fa38 7610 36b9 dfb6 4339
0.00011337824 -2.4699844e-05 0.00010700215 0.00022783443 -1.8881794e-05 6e-45 -6.36777e-06 -0.00038701715
0.000108083615 0.0006834192 0.000101921316 -8.886249e-05 0.00015393204 0.00011935165 -0.00017363005 0.00018664774

exp_avg_sq f4 [16]
00000000: 99aa 1a37 c38f 3a36 7910 f436 5ae5 a837
00000010: 475d f136 50ea ab1e 146a ca36 5105 7537
00000020: e6fb bc36 77b8 5837 46b8 0837 a5bb 0037
00000030: d353 b136 11f7 9937 87e2 5537 5fee a737
9.218836e-06 2.779984e-06 7.2736843e-06 2.013396e-05 7.1932186e-06 1.8202239e-20 6.0324182e-06 1.4604376e-05
5.6321614e-06 1.2917552e-05 8.149136e-06 7.673084e-06 5.2847695e-06 1.835407e-05 1.2748532e-05 2.0018952e-05
