09-Autoencoders/lightning_logs/version_5/checkpoints/best_model_val_loss=0.48126134276390076.ckpt (torch, 72488 bytes, 39 tensors)

model.encoder.conv1.weight f4 [16, 1, 3, 3]
0	0xbe79d785	-0.2439862
1	0xbe932e65	-0.28746334
2	0x3e81b819	0.25335768
3	0x3e7c22dc	0.24622673
4	0xbdcae2e8	-0.0990656
5	0x3ce4e9e1	0.027943553
6	0xbe9c9600	-0.3058319
7	0x3e4aa856	0.19790778
8	0xbe9ad791	-0.3024259
9	0xbe7e5eb0	-0.24840808
10	0x3d6ae694	0.057348803
11	0xbe213201	-0.15741731
12	0x3ddfdafd	0.109304406
13	0xbd9a6f47	-0.07540756
14	0x3e50c91c	0.20389217
15	0x3df1f28d	0.11813841
16	0x3dc9d2f4	0.09854689
17	0xbe7adb5a	-0.24497738
18	0x3d17c234	0.03705044
19	0x3e20746b	0.1566941
20	0x3ce3d43d	0.027811164
21	0xbe47488f	-0.19461273
22	0x3e94b40a	0.2904361
23	0x3e248ea0	0.16070032
24	0x3e035cb1	0.12828328
25	0xbe179a18	-0.14804876
26	0x3db986cb	0.09058913
27	0x3e061c2a	0.13096681
28	0xbe35b615	-0.1774524
29	0xbde249b6	-0.110492155
30	0xbe9d9a18	-0.30781627
31	0xbe8fd8e0	-0.2809515
32	0xbe55ae36	-0.20867237
33	0xbe428d80	-0.1899929
34	0xbe80b0a6	-0.25134772
35	0x3ca21694	0.019786157
36	0x3e968209	0.29396084
37	0x3e9eb870	0.3100009
38	0x3e9a206a	0.30102855
39	0xbdd64272	-0.10461892
40	0x3d587642	0.052847154
41	0x3e8eabc3	0.2786542
42	0x3dce182b	0.100632034
43	0x3e766c88	0.24064839
44	0x3d20be3a	0.039243914
45	0xbe5e9cd1	-0.21739508
46	0x3e8b0eb1	0.27159646
47	0x3e13cfe2	0.1443477
48	0xbe6a6728	-0.22890913
49	0xbd82bc01	-0.06383515
50	0x3e75628e	0.23963377
51	0x3cd052e2	0.025430147
52	0xbe1ea5b0	-0.15492892
53	0x3d6fa5ff	0.058507916
54	0x3dccfeb1	0.10009516
55	0x3dd1432c	0.1021789
56	0x3ad7e51d	0.0016471479
57	0xbd3453a9	-0.044025097
58	0x3e1a65a0	0.1507783
59	0xbe7f7cd0	-0.24949956
60	0x3e2083ad	0.1567523
61	0xbe929dd0	-0.28636026
62	0xbdf493a2	-0.11942221
63	0xbe378f1e	-0.17925689
64	0xbe82d6d4	-0.25554526
65	0xbea2c10a	-0.31787902
66	0x3db6dc5e	0.089287505
67	0x3e93c07f	0.288578
68	0xbe6163d2	-0.22010735
69	0x3e5ec770	0.21755767
70	0xbd8ff9b3	-0.07030048
71	0xbe8df985	-0.2772943
72	0x3e63a26c	0.22229928
73	0xbe91dff0	-0.28491163
74	0xbe34f3de	-0.17671153
75	0x3e6e0416	0.23243746
76	0x3e1b1081	0.15143014
77	0x3d5f7578	0.054555386
78	0xbc8d2314	-0.01722864
79	0xbcd1b1bd	-0.025597448
80	0xbe935a9b	-0.28780064
81	0x3e532fb3	0.20623665
82	0xbe7edbc3	-0.2488852
83	0xbd2bd97d	-0.04195546
84	0x3dc01dbd	0.09380672
85	0xbd440728	-0.047858387
86	0xbdd0e25e	-0.10199426
87	0xbdfc2eff	-0.12313651
88	0x3e416269	0.18885197
89	0xbe1a868f	-0.15090393
90	0xbe75f55f	-0.24019383
91	0xbdf11108	-0.117708266
92	0xbd5b60e3	-0.053559195
93	0xbd184d60	-0.037183166
94	0xbd07d106	-0.033158325
95	0x3dc494cb	0.095986925
96	0xbe9de430	-0.30838156
97	0xbda51c1f	-0.08062004
98	0x3df56f63	0.11984136
99	0x3db4018c	0.087893575
100	0xbcf2229d	-0.02955752
101	0xbde5ec08	-0.1122666
102	0x3ca92eb7	0.020652158
103	0xbe044860	-0.12918234
104	0xbe979d18	-0.2961204
105	0xbe4a60d9	-0.19763507
106	0xbe803deb	-0.2504724
107	0x3e2152c2	0.15754226
108	0x3e1e803a	0.15478602
109	0x3d87d3f1	0.066322215
110	0x3ddcf524	0.10788944
111	0xbe811584	-0.25211728
112	0x3e704e76	0.2346743
113	0xbe696f3c	-0.22796339
114	0x3e804e08	0.25059533
115	0xbe723241	-0.23651983
116	0x3e32abe3	0.17448382
117	0x3e1106d6	0.14162764
118	0x3e880279	0.26564386
119	0xbe4b32ff	-0.19843672
120	0x3e9c79cd	0.30561677
121	0x3ceaf24d	0.028679991
122	0x3e30ea39	0.17276849
123	0x3e9b8db2	0.30381542
124	0x3e6c618e	0.23084089
125	0x3d2288b5	0.039681155
126	0xbd89b66a	-0.06724246
127	0x3d70a806	0.05875399
128	0xbe75d158	-0.2400564
129	0x3e818152	0.25293976
130	0xbe8a63d8	-0.270293
131	0x3e5b5792	0.21420124
132	0x3eb1ea98	0.34749293
133	0xbe243cba	-0.1603879
134	0xbc332e7a	-0.010936374
135	0x3dce49fc	0.10072705
136	0x3e945119	0.28968123
137	0x3db53945	0.08848814
138	0xbcb5a501	-0.022173407
139	0xbe03d1ce	-0.12873003
140	0xbdbb664c	-0.09150371
141	0xbdd61530	-0.1045326
142	0xbe9f2d3c	-0.310892
143	0xbdb43a1a	-0.088001445

model.encoder.conv1.bias f4 [16]
0	0x3e9d3437	0.307039
1	0xbe89c381	-0.2690697
2	0xbe9424c4	-0.289343
3	0xbe132cdc	-0.14372581
4	0x3e1d2c76	0.15348992
5	0xbe54b76c	-0.20773095
6	0x3e24505b	0.16046278
7	0xbe0b4591	-0.13600756
8	0x3e6788c8	0.22610772
9	0xbe33a664	-0.17543942
10	0x3e207c17	0.15672337
11	0x3e7a67b9	0.2445363
12	0x3e04bce0	0.12962675
13	0x3d774d3e	0.0603764
14	0xbe8ea710	-0.27861834
15	0x3ea318cd	0.3185486

model.encoder.conv2.weight f4 [8, 16, 3, 3]
0	0x3d5dffc7	0.054199006
1	0x3da3e1b3	0.08002033
2	0xbd80192b	-0.062548004
3	0x3cfffad6	0.031247538
4	0x3da88b30	0.08229673
5	0x3c5e1b1d	0.013556269
6	0x3d14d5b7	0.036336627
7	0xbc40b350	-0.011761501
8	0x3c5d9e82	0.013526561
9	0xbd4cee28	-0.05003181
10	0x3c14a0e1	0.00907156
11	0xbd998c16	-0.074974224
12	0xbb4a112c	-0.003083299
13	0xbc107841	-0.008817733
14	0xbcbb0b6e	-0.022832599
15	0x3ce180bd	0.027527208
16	0x3d308d1a	0.043103315
17	0xbd425de1	-0.04745281
18	0x3d262722	0.040564664
19	0x3d5a86fa	0.05335138
20	0xbb8964f6	-0.0041929437
21	0xbd826bfe	-0.06368254
22	0x3d4907f4	0.04907985
23	0x3d846bae	0.06465851
24	0x3d4e87a0	0.05042231
25	0xbdd229a0	-0.102618456
26	0x3cfe339e	0.031030472
27	0xbda20939	-0.07911915
28	0x3ccb2f87	0.024802936
29	0x3cefba0f	0.029263524
30	0xbdabbb4f	-0.08385336
31	0xbd469552	-0.048482247
32	0xbd63bce2	-0.055600055
33	0x3d6f9510	0.058491766
34	0xbbe57076	-0.007001932
35	0x3cc2ac21	0.023763718
36	0x3d0181a5	0.03161778
37	0x3d3ab0ee	0.04557889
38	0x3bcc954e	0.0062433844
39	0x3d1a3257	0.037645664
40	0xbdcb9f75	-0.099425234
41	0x3c055a0a	0.008139143
42	0xbcd6e562	-0.026232425
43	0xbd651cbc	-0.055935606
44	0xbc068351	-0.008210019
45	0x3d4cabaa	0.0499684
46	0x3d14e6e8	0.03635302
47	0x3cb28064	0.021789737
48	0xbd4da4cd	-0.050205994
49	0xbd80d0ae	-0.062898025
50	0x3cc1ef77	0.023673756
51	0xbca8c9eb	-0.020604094
52	0x3d46c66e	0.04852908
53	0x3d8bfae0	0.0683496
54	0xbd3e2dff	-0.046430584
55	0x3ac1340d	0.0014740244
56	0x3d9c5d22	0.07634951
57	0x3d811b7b	0.063040696
58	0x3cc4adf2	0.024008725
59	0x3c30e569	0.010796883
60	0x3d3ab0c9	0.04557875
61	0xbd82aa3d	-0.063801266
62	0x3cddc8b1	0.027073236
63	0xbd99f8ae	-0.07518135
64	0x39c71c15	0.0003797716
65	0xbcdbb2b5	-0.026818613
66	0xbbce4509	-0.0062948507
67	0xbc1f4930	-0.009722039
68	0xbc3d2d17	-0.011546395
69	0x3d29411a	0.04132185
70	0xbca5313a	-0.020165075
71	0x3db293b4	0.087195784
72	0x3ca97ae3	0.02068848
73	0x3d80787c	0.062729806
74	0xbc6f0a78	-0.014589898
75	0x3c9224c1	0.017839791
76	0xbd946323	-0.07245471
77	0xbd827a5d	-0.06370995
78	0x3d22b8ec	0.039727136
79	0x3cfb4cf9	0.030676352
80	0x3cef14f3	0.029184794
81	0xbdd24b34	-0.1026825
82	0x3d8aefa3	0.06783988
83	0x3ceb73ac	0.02874168
84	0xbd0b3333	-0.033984374
85	0xbc02396f	-0.007948264
86	0xbd374209	-0.04474071
87	0x3c753dd3	0.014968353
88	0xbd679f64	-0.05654849
89	0xbd051849	-0.032493863
90	0xbd164284	-0.036684528
91	0xbd29f13d	-0.04148983
92	0x3d8f4105	0.06994823
93	0x3dbb0263	0.091313146
94	0x3c77bd6e	0.015120847
95	0x3dba1398	0.090857685
96	0xbd14ebda	-0.036357738
97	0x3dad91de	0.084750876
98	0xbd6ccea6	-0.057814263
99	0xbd14ab0b	-0.03629593
100	0x3cda21e8	0.026627496
101	0xbb828071	-0.0039825966
102	0x3c067b74	0.008208144
103	0x3db72d36	0.0894417
104	0xbd9835c3	-0.07432129
105	0x3d09eb62	0.033671744
106	0xbcae9f44	-0.021316178
107	0xbd4e87cc	-0.050422475
108	0x3d9740b6	0.073853895
109	0xbd8e95f6	-0.069621965
110	0x3da7d4f5	0.08194915
111	0x3c33a329	0.010964193
112	0x3ca7ff83	0.02050758
113	0x3c23c57b	0.0099958135
114	0xbd843d36	-0.064569876
115	0x3d200aef	0.039072927
116	0x3d186eb0	0.037214935
117	0xbcaea539	-0.021319019
118	0xbdacf78d	-0.08445654
119	0x3c33ef45	0.010982339
120	0x3cc1df91	0.023666175
121	0xbcc56257	-0.024094744
122	0xbd9132cc	-0.07089767
123	0x3c1742e7	0.009232259
124	0xbd81cb84	-0.06337646
125	0x3c71fd9a	0.014769936
126	0xbd5ab799	-0.05339775
127	0xbc858d5a	-0.016302753
128	0x3c966b8a	0.018361825
129	0x3d66d7b5	0.056358058
130	0xbd8a8165	-0.06762961
131	0xbd9001db	-0.07031604
132	0xbd7e0204	-0.06201364
133	0xbd08994a	-0.033349313
134	0xbd278f2b	-0.04090802
135	0x3b75c9e8	0.0037504379
136	0xbd50ddc9	-0.05099276
137	0x3da0d77a	0.07853599
138	0x3daa84f4	0.0832614
139	0xbcf60fe4	-0.030036874
140	0xbd67f3e7	-0.056629088
141	0x3cb42c00	0.021993637
142	0xbce889cb	-0.028386017
143	0x3b9e62b8	0.0048335455
144	0x3d2a916d	0.041642595
145	0xbc441924	-0.011968885
146	0xbc47d5e5	-0.0121969925
147	0x3d6dee95	0.058088858
148	0x3d9ff939	0.07811207
149	0x3d0a4508	0.03375724
150	0xbce9ad74	-0.028525092
151	0x3cb13a3c	0.021634214
152	0x3dad51b3	0.084628485
153	0x3db76589	0.08954913
154	0xbd3ac816	-0.045600973
155	0xbc1b83cd	-0.009491873
156	0x3dc2f0b7	0.09518569
157	0x3cdfc698	0.027316377
158	0xbcdc0513	-0.026857888
159	0xbd74f6b4	-0.059805587
160	0xbce58cfb	-0.028021326
161	0xbd53323a	-0.05156157
162	0x3d82792f	0.0637077
163	0xb9444450	-0.00018717465
164	0xbd034e1e	-0.03205692
165	0x3d866688	0.06562525
166	0xbbcfe0af	-0.006343923
167	0x3db9f265	0.09079436
168	0x3da57a7a	0.08080001
169	0x3a7a87ab	0.0009556959
170	0xbd1dca54	-0.038523033
171	0xbd6eae50	-0.058271706
172	0xbd4089b4	-0.047006324
173	0xbd67315d	-0.05644356
174	0x3d482635	0.048864562
175	0x3d805c7c	0.0626764
176	0x3d1dba19	0.038507555
177	0xbda22801	-0.079177864
178	0xbd2b3450	-0.041797936
179	0xbd96574f	-0.073408715
180	0xbb471d59	-0.0030382483
181	0x3b0643bd	0.0020487153
182	0x3dca2016	0.09869401
183	0x3c88fe50	0.016722828
184	0x3d3581e4	0.044313326
185	0x3d3d36f8	0.046195
186	0xbd0875b5	-0.03331538
187	0xbcc33b79	-0.02383207
188	0x3c0d1c8e	0.008612765
189	0x3d08404c	0.033264443
190	0xbc452149	-0.012031862
191	0x3d17bb23	0.0370437
192	0xbadef609	-0.001701058
193	0x3d24597b	0.040124398
194	0x3d49a078	0.0492253
195	0xbc119db9	-0.008887702
196	0x3d63c14e	0.05560427
197	0x3dc1afcb	0.09457358
198	0x3dae306f	0.08505332
199	0x3d9b3025	0.07577542
200	0x3d78af0a	0.060713805
201	0x3d589083	0.052872192
202	0x3d90b145	0.070650615
203	0xbd3fcf5f	-0.046828624
204	0x3d947156	0.072481796
205	0x3cedcde2	0.029028837
206	0xbc7d8d52	-0.015475588
207	0xbc52eeb4	-0.012874294
208	0x3c914105	0.017731199
209	0x3d81685d	0.06318734
210	0xbcc50e01	-0.02405453
211	0x3c8aae52	0.016928826
212	0xbceaf35d	-0.028680498
213	0x3b24a893	0.0025124892
214	0x3dc7f577	0.097636156
215	0x3d99832f	0.074957244
216	0xbd3ba2b9	-0.04580948
217	0x3d843223	0.06454875
218	0x3d0e0a87	0.03467801
219	0x3d92dea5	0.07171372
220	0x3d8ef1a2	0.069796816
221	0x3d850af6	0.06496231
222	0xbd6a5eff	-0.0572195
223	0x3d9b9999	0.07597656
224	0x3ad8fc05	0.00165546
225	0xbcf31c8c	-0.029676698
226	0xbd275159	-0.040849064
227	0xbc7885a5	-0.015168582
228	0xbd0583d8	-0.03259644
229	0xbd2df6f7	-0.042471852
230	0x3d51c233	0.051210593
231	0x3d0c0c7c	0.034191594
232	0x3ce0adea	0.027426679
233	0x3dac36a9	0.08408863
234	0x3d2ae511	0.04172236
235	0xbc4a4015	-0.01234438
236	0xbd734762	-0.059394248
237	0x3dc86494	0.09784809
238	0xbc9ca377	-0.019120915
239	0x3d9a8913	0.07545676
240	0x3c654d71	0.013995514
241	0x3d4d91a4	0.05018772
242	0xbd23c1c8	-0.039979726
243	0x3d30247e	0.04300355
244	0x3d9bc63a	0.07606168
245	0xbd79b9ee	-0.060968332
246	0xbcbb9768	-0.022899345
247	0xbb18c305	-0.00233096
248	0x3cb895f1	0.022532435
249	0xbd63e47b	-0.055637818
250	0x3d8c7cfd	0.06859777
251	0xbd78b190	-0.06071621
252	0x3d0587f3	0.032600354
253	0x3bd6379c	0.006537391
254	0x3d778292	0.060427256
255	0x3dbf496c	0.09340176

model.encoder.conv2.bias f4 [8]
0	0x3d5b6a84	0.053568378
1	0xbbde8b8d	-0.006791538
2	0x3a9d0db5	0.0011982234
3	0x3d6d41ee	0.057924204
4	0x3db30c4e	0.08742581
5	0xbb1f642c	-0.0024321182
6	0x3dbcbbfe	0.09215544
7	0x3d9f5723	0.07780292

model.encoder.conv3.weight f4 [8, 8, 3, 3]
0	0x3dc3fff2	0.09570302
1	0xbc683bd8	-0.014174424
2	0x3a50bfdd	0.000796316
3	0xbd69b800	-0.05706024
4	0xbdcf79fc	-0.101306885
5	0xbbca47e5	-0.0061731213
6	0x3d01e091	0.031708304
7	0xbd9df8e5	-0.077134885
8	0x3d3c8797	0.046027746
9	0xbddfe192	-0.10931696
10	0xbde4c8c4	-0.111711055
11	0x3dd53e92	0.10412325
12	0xbd94c12e	-0.072634086
13	0x3c593d86	0.013259297
14	0xbcc335ba	-0.02382933
15	0x3d8a49f0	0.06752384
16	0x3d10bd58	0.035336822
17	0xbd12fbd7	-0.035884704
18	0xbd8e905d	-0.06961129
19	0xbdca4c2d	-0.098778106
20	0xbd04acb7	-0.032391276
21	0x3d88b692	0.066754475
22	0xbb3aa7b0	-0.0028481297
23	0xbd9bc14c	-0.07605228
24	0x3d1d073a	0.03833697
25	0xbdca8699	-0.09888954
26	0xbdabfad5	-0.08397452
27	0x3d89424d	0.06702099
28	0xbde6eea1	-0.112759836
29	0xbbb67449	-0.0055680615
30	0xbd8409e7	-0.06447201
31	0x3dd6b541	0.1048379
32	0xbd867b6c	-0.065665096
33	0xbdc39fc7	-0.095519595
34	0x3dd1eb94	0.10250011
35	0x3c5e2407	0.013558394
36	0xbdc69876	-0.09697048
37	0x3d5d730b	0.05406479
38	0xbdd90cd3	-0.10598149
39	0x3d3d48b2	0.046211906
40	0xbd0bd2cd	-0.034136582
41	0x3d905b43	0.07048657
42	0x3daf2972	0.08552827
43	0x39bee78f	0.0003641215
44	0x3de6ecd4	0.1127564
45	0x3c6cc93f	0.014452278
46	0xbc260a4c	-0.010134291
47	0x3dc8e8c9	0.09810025
48	0x3d9ff788	0.07810885
49	0xbd3b891f	-0.045785066
50	0x3d6fe82e	0.058571033
51	0xbd565ea1	-0.05233634
52	0x3cb0040d	0.021486307
53	0xbdace652	-0.084423676
54	0x3d8eee6b	0.06979068
55	0xbdeea506	-0.116525695
56	0xbce7dfda	-0.028304983
57	0x3d9bf38d	0.07614813
58	0xbd05ecca	-0.032696523
59	0x3dff7f34	0.12475434
60	0x3d3b29e7	0.045694258
61	0x3c0d2b4a	0.008616278
62	0x3d874f3f	0.06606912
63	0xbdb44db0	-0.0880388
64	0x3d621ab4	0.055201247
65	0xbdf6d19b	-0.12051698
66	0x3d3c92fb	0.04603861
67	0xbbf49463	-0.007463978
68	0x3ddba4e1	0.107248075
69	0xbc3ce80b	-0.011529933
70	0x3ccadf02	0.024764542
71	0xbdc969d0	-0.09834635
72	0x3dd064cc	0.101754755
73	0xbdb86060	-0.09002757
74	0x3db04562	0.08606984
75	0x3d6c8b81	0.05775023
76	0x3df0d4be	0.11759327
77	0x3e065279	0.13117398
78	0x3d01dd59	0.031705234
79	0xbd963746	-0.07334761
80	0x3dfed69f	0.124432795
81	0xbd2a3031	-0.041549865
82	0xbd9ca365	-0.076483525
83	0x3d9fa15d	0.077944495
84	0xbd08ffe1	-0.03344715
85	0x3dd70139	0.1049828
86	0x3dd9c8ed	0.10634027
87	0xbc83c646	-0.016085755
88	0x3c4af136	0.012386611
89	0xbc0a4a92	-0.0084406305
90	0xbc4faaf1	-0.012675033
91	0xbd891076	-0.06692593
92	0xbbed4561	-0.0072409366
93	0x3e0e12a5	0.138743
94	0x3dbe722c	0.0929912
95	0x3d605f21	0.054778222
96	0xbd81c17b	-0.063357316
97	0x3d8c31f1	0.06845463
98	0x3c19a0b9	0.009376698
99	0xbd0d48f5	-0.034493405
100	0x3d89b619	0.067241855
101	0xbd31d446	-0.04341533
102	0x3c3f763c	0.011685904
103	0xbcc35d66	-0.023848247
104	0xbdbe44f2	-0.09290494
105	0x3dae465b	0.08509513
106	0x3bc203dd	0.0059208707
107	0x3d8bc9da	0.068256095
108	0xbc58a499	-0.013222837
109	0x3cfad53e	0.03061926
110	0xbd32af1e	-0.043624036
111	0x3dc6b6f3	0.097028635
112	0xbd14f90c	-0.036370322
113	0x3d2c2e74	0.04203649
114	0x3e03f7ff	0.12887572
115	0xbdaa705b	-0.08322211
116	0xbd15a242	-0.036531694
117	0x3da0a1b4	0.078433424
118	0x38aebf76	8.332629e-05
119	0xbcea1499	-0.028574275
120	0xbde6a795	-0.112624325
121	0x3e005f9c	0.12536472
122	0x3d9a0e48	0.07522255
123	0x3be63fc2	0.0070266435
124	0x3d04832f	0.03235167
125	0x3db0e2e0	0.08637023
126	0x3e093a8e	0.13401243
127	0xbd10eab0	-0.035380065
128	0xbd529cb8	-0.05141899
129	0xbd882aa5	-0.06648759
130	0xbd8cc184	-0.06872848
131	0x3db42548	0.08796173
132	0xbdae4224	-0.08508709
133	0x3deaec2e	0.11470829
134	0x3e00e2fd	0.12586589
135	0xbd8f4b48	-0.06996781
136	0x3df3a388	0.118964255
137	0x3dd61962	0.1045406
138	0xbdbc4ed2	-0.09194721
139	0xbc8f374f	-0.017482428
140	0x3db00d20	0.085962534
141	0xbc0756f7	-0.00826048
142	0xbc8147f6	-0.015781384
143	0xbad6d118	-0.0016389219
144	0x3dce450d	0.10071764
145	0xbd830579	-0.06397528
146	0xbc83c7a6	-0.01608641
147	0xbd05d320	-0.032672048
148	0x3d49d7a8	0.04927793
149	0xbd31d02c	-0.04341142
150	0xbd8f4220	-0.06995034
151	0xbc69018a	-0.014221558
152	0x3d103c35	0.035213668
153	0x3d840243	0.06445744
154	0xbd56b8a8	-0.052422196
155	0xbdc457ad	-0.09587035
156	0xbdacbbca	-0.084342554
157	0x3dc7c837	0.09754985
158	0x3d52acab	0.0514342
159	0xbd604752	-0.054755516
160	0xbcb415e3	-0.021983093
161	0xbdb41f40	-0.08795023
162	0xbda0319e	-0.07821964
163	0x3cbddb7d	0.02317595
164	0xbd68b707	-0.056815173
165	0xbc684ed2	-0.0141789485
166	0xbd71d88b	-0.059044402
167	0x3d964cc4	0.07338861
168	0x3d418a2f	0.047250923
169	0xba36e988	-0.0006977548
170	0x3af6cc88	0.0018829266
171	0x3d5e668f	0.054297026
172	0x3d933193	0.0718719
173	0x3d5e2909	0.054238353
174	0xbd5b9828	-0.053611904
175	0x3caaa4ff	0.02083063
176	0x3dcd8b66	0.10036354
177	0x3d1a2a3a	0.037637927
178	0xbdf1d053	-0.11807313
179	0x3ca9bbf3	0.020719504
180	0xbdb64d5c	-0.08901474
181	0x3ddbd5c0	0.10734129
182	0x3d7e3393	0.062060904
183	0xbd249eef	-0.040190633
184	0x3e05bee0	0.13061094
185	0x3dafb6c8	0.08579785
186	0x3d534366	0.051577948
187	0x3da1b1b6	0.07895224
188	0x3d2afa1e	0.041742437
189	0xbca4a6cd	-0.020099068
190	0xbcd6d8df	-0.02622646
191	0xbdc13265	-0.0943344
192	0x3d4d7019	0.050155733
193	0x3d872713	0.0659925
194	0x3d2c06d2	0.04199869
195	0xbd741e4f	-0.059599217
196	0xbd915986	-0.07097153
197	0xbd98f2e4	-0.07468203
198	0x3c045741	0.008077444
199	0x3c3b02bf	0.011414229
200	0xbd9416ef	-0.07230937
201	0x3d75a820	0.05997479
202	0x3d9dc090	0.07702744
203	0x3d89fffd	0.06738279
204	0xbd7b2d1b	-0.061322313
205	0x3ce910b8	0.028450355
206	0x3dd68ec9	0.10476453
207	0x3b191e16	0.002336388
208	0x3d45268e	0.04813247
209	0x3d972109	0.07379348
210	0xbc515142	-0.012775721
211	0x3e070cc1	0.13188459
212	0x3db2fe15	0.087398686
213	0xbc825070	-0.015907496
214	0xbd1638ea	-0.03667537
215	0x3c934392	0.017976556
216	0x3e046ef7	0.12932955
217	0x3d8412d6	0.06448905
218	0xbdad9f4e	-0.084776506
219	0xbd941809	-0.07231147
220	0xbdca3542	-0.09873439
221	0x3d065bdc	0.032802448
222	0xbd205f50	-0.039153397
223	0xbd7762d3	-0.06039698
224	0xbd3762b2	-0.044771858
225	0x3d60141a	0.05470667
226	0xbc9dd146	-0.019264828
227	0x3ddbeb91	0.1073829
228	0xbd7bdf38	-0.061492175
229	0xbd38fe91	-0.04516465
230	0xbd8cd415	-0.06876389
231	0xbd9b7956	-0.07591502
232	0xbca9c8d5	-0.020725647
233	0xbe07ffc8	-0.13281167
234	0x3cef96b8	0.029246673
235	0xbd9fb9ba	-0.077990964
236	0xbcc073c9	-0.02349271
237	0x3d6fda3d	0.058557738
238	0x3de1ecae	0.11031471
239	0xbcac97ae	-0.02106842
240	0xbda87df3	-0.08227148
241	0xbdd14a19	-0.10219211
242	0xbdac0308	-0.08399016
243	0xbcff3fa6	-0.03115828
244	0xbdb12a88	-0.0865069
245	0x3ce28467	0.027651025
246	0x3dba774a	0.09104784
247	0xbd9f9ebd	-0.07793949
248	0x3c88cc49	0.016698973
249	0x3dd82dc0	0.10555601
250	0xbdaab7d6	-0.08335845
251	0x3dbce2a8	0.09222919
252	0x3d7899b3	0.060693454
253	0xbd9e8331	-0.077398665
254	0x3db7592b	0.08952554
255	0x3ca26e2f	0.01982793

model.encoder.conv3.bias f4 [8]
0	0xbccec233	-0.025239086
1	0xbb6df0db	-0.003630689
2	0xbdbee1f8	-0.09320444
3	0x3d527e23	0.051389825
4	0x3cd744e0	0.02627796
5	0xbcc3413b	-0.023834815
6	0x3c4a0256	0.0123296585
7	0xbd9fa545	-0.077951945

model.decoder.conv1.weight f4 [8, 8, 3, 3]
0	0x3df34fd5	0.11880461
1	0x3d4c9761	0.049949054
2	0xbd685724	-0.05672373
3	0x3d27ce45	0.0409682
4	0xbd9650a2	-0.07339598
5	0xbd0600b7	-0.032715525
6	0xbd57b14a	-0.05265931
7	0x3c050418	0.008118652
8	0xbd53364a	-0.051565446
9	0xbd45e93b	-0.04831813
10	0xbd85064e	-0.06495343
11	0x3d48b740	0.049002886
12	0x3db90eac	0.090360016
13	0xbc402cb6	-0.01172941
14	0x3c671fc3	0.014106694
15	0x3d08197b	0.033227425
16	0x3b1f0cf4	0.0024269195
17	0x3dff66ae	0.124707565
18	0x3d9980f3	0.07495298
19	0xbdc4f242	-0.096165195
20	0xbd1577d1	-0.03649122
21	0x3c25946b	0.010106186
22	0x3ca95a24	0.020672865
23	0xbda36076	-0.07977383
24	0x3db501dd	0.08838246
25	0x3e0b150b	0.13582246
26	0xbb1bc42f	-0.0023768058
27	0xbd4fdc73	-0.050747346
28	0xbc9be9d3	-0.019032395
29	0x3d25f4da	0.04051671
30	0xbda4df6b	-0.08050426
31	0x3daaac3c	0.08333632
32	0x3d956898	0.0729534
33	0xbdaa93ea	-0.083289936
34	0x3d11ab24	0.035563603
35	0xbd5f5505	-0.05452444
36	0x3cbe707f	0.023247002
37	0x3cb51628	0.022105291
38	0xbd716a6d	-0.058939386
39	0x3d820183	0.063479446
40	0xbc6630a7	-0.014049686
41	0x3a408f6a	0.0007345589
42	0xbd4ea73c	-0.050452456
43	0x3bb3ce2c	0.005487224
44	0x3d8f094d	0.06984196
45	0x3d76ea85	0.06028225
46	0xbda23164	-0.07919577
47	0xbb247f96	-0.0025100461
48	0xbd484bfa	-0.048900582
49	0xbd062a15	-0.032754976
50	0x3ddeb3ae	0.10874115
51	0xbd98ddbb	-0.07464167
52	0xbcc1bd37	-0.023649795
53	0xbda0f169	-0.07858545
54	0xbd5bda19	-0.05367479
55	0xbd1487fb	-0.036262494
56	0x3dc79ebe	0.097470745
57	0x3c1c9613	0.009557265
58	0xbd93c2e5	-0.072149076
59	0x3d861798	0.06547469
60	0x3de38874	0.11110011
61	0xbcb650ce	-0.022255328
62	0x3d834e31	0.06411398
63	0xbd56133d	-0.05226444
64	0xbc1e4fae	-0.009662552
65	0xbd6557a0	-0.05599177
66	0xbda50bb0	-0.0805887
67	0x3dd63675	0.104596056
68	0x3ddd4155	0.10803477
69	0x3dff1d99	0.12456817
70	0x3dee14c4	0.116250545
71	0x3dc39410	0.09549725
72	0xbc530720	-0.012880117
73	0x3daaf576	0.08347599
74	0x3d5494ad	0.0518996
75	0x3d928ecb	0.07156142
76	0xbd0c25db	-0.03421579
77	0xbdcbca3a	-0.09950681
78	0xbd9f6a31	-0.07783926
79	0xbdce7edb	-0.100827895
80	0x3d08502a	0.033279575
81	0x3d0b0554	0.03394063
82	0xbd191528	-0.03737369
83	0xbdb719b2	-0.08940448
84	0x3c042a34	0.008066703
85	0x3d40a1ff	0.04702949
86	0xbdcfd425	-0.10147885
87	0xbd916fa8	-0.07101375
88	0x3cc42b78	0.023946509
89	0x3dd7deb1	0.10540522
90	0x3d334a70	0.04377216
91	0xbdd1aa07	-0.10237508
92	0x3d8bad91	0.068202145
93	0x3d197a27	0.03747001
94	0xbd655682	-0.055990703
95	0xbd31b0a0	-0.043381333
96	0x3da22a65	0.07918242
97	0x3e009aaa	0.12559
98	0x3c351220	0.011051685
99	0xbdc1d2db	-0.094640456
100	0xbd87738b	-0.06613835
101	0xbdd1f7ff	-0.102523796
102	0xbd9ae907	-0.07563978
103	0x3db588c8	0.088639796
104	0x3dafdedf	0.08587431
105	0x3da5fe29	0.08105118
106	0xbc2805bd	-0.010255274
107	0xbd960e94	-0.07326999
108	0xbd30c89d	-0.04316007
109	0xbc7c7adb	-0.01541015
110	0x3df8c563	0.121470235
111	0x3dff4165	0.12463645
112	0x3d4ea26f	0.050447877
113	0x3c9de697	0.019274993
114	0x3df765de	0.120799765
115	0x3d2dfd06	0.04247763
116	0xbc98970b	-0.01862671
117	0x3d0996bb	0.033591013
118	0x3dbe425b	0.0929
119	0x3daef1ea	0.08542235
120	0x3d5eda0e	0.054407172
121	0xbd85412f	-0.065065734
122	0x3d8885ff	0.06666183
123	0x3cb50919	0.022099065
124	0x3caacdf0	0.020850152
125	0xbcfca7df	-0.030841766
126	0x3dc03476	0.09385006
127	0xbd0e650c	-0.034764335
128	0xbdcc2875	-0.09968654
129	0xbd79dd55	-0.061002094
130	0x3dbda58d	0.09260092
131	0x3da2ad47	0.07943206
132	0xbdab8613	-0.08375182
133	0xbd604e9f	-0.05476248
134	0x3d5f5ef4	0.054533914
135	0x3d840b0b	0.06447419
136	0xbc914b0e	-0.017735984
137	0x3d371800	0.044700623
138	0x3dd66d9a	0.104701236
139	0x3ccb0e6f	0.024787156
140	0xbd9646c5	-0.07337717
141	0xbd286aea	-0.041117586
142	0x3de732e8	0.112890065
143	0xbd22427d	-0.03961419
144	0x3b9a0101	0.0046998267
145	0xbd04e9af	-0.03244942
146	0x3dce9b58	0.10088223
147	0xbd8ad8da	-0.067796424
148	0x3d51600a	0.05111698
149	0xbdc3260e	-0.09528743
150	0x3dc7a7d4	0.097488075
151	0xbdd98d99	-0.10622711
152	0x3cec7f18	0.028869197
153	0x3d7c7e74	0.061644033
154	0xbd51faa0	-0.051264405
155	0x3d0dc65c	0.034613
156	0xbd9b55d0	-0.07584727
157	0x3daed9cc	0.08537635
158	0xb9001869	-0.00012216125
159	0x3d8ceb82	0.06880857
160	0xbdf5fbef	-0.12010943
161	0xbdd5da2b	-0.10442003
162	0x3dc2440f	0.094856374
163	0x3d7eae5b	0.062177997
164	0xbc600b90	-0.013674632
165	0x3d6d4b1f	0.05793297
166	0x3d0d2846	0.034462236
167	0x3dc4ecd6	0.09615485
168	0xbda633e5	-0.08115367
169	0x3d593a9c	0.05303441
170	0x3dbd09f7	0.09230416
171	0x3c279217	0.010227702
172	0xbdb7f778	-0.08982748
173	0x3dbd7831	0.0925144
174	0x3d9db2d2	0.07700123
175	0x3d9310a1	0.07180906
176	0x3d2231ae	0.03959816
177	0x3cf0118d	0.029305244
178	0x3cb88b83	0.022527462
179	0xbe0219ba	-0.12705126
180	0xbd7a3ef2	-0.061095186
181	0x3aa7035a	0.0012742088
182	0xbdb88686	-0.09010033
183	0x3dcb7ce4	0.0993593
184	0xbd691739	-0.056906912
185	0xbdc56206	-0.09637837
186	0x3c8bf5a3	0.017084902
187	0xbda4ac1b	-0.08040639
188	0xbe09e034	-0.13464433
189	0xbdf18d0b	-0.1179448
190	0xbe043162	-0.12909463
191	0xbdd0ea99	-0.10200996
192	0x3d4f2ab1	0.050577823
193	0x3dc2ebe2	0.09517647
194	0xbc8eb21d	-0.017418915
195	0x3d553d5b	0.052060466
196	0xbd08ea42	-0.03342653
197	0x3b59d2bf	0.0033237187
198	0x3d97edcf	0.07418405
199	0xbb500fa5	-0.0031747606
200	0x3bed6b37	0.007245447
201	0x3dc5ddb7	0.096614294
202	0x3b8e04e3	0.0043340786
203	0xbde0ae5e	-0.10970758
204	0x3d4eaf41	0.050460104
205	0x3d9c9dc0	0.07647276
206	0xbdbb8ead	-0.091580726
207	0x3d6bcca6	0.057568215
208	0xbd1a3c89	-0.037655387
209	0xbd643cff	-0.055722233
210	0xbd71afe2	-0.059005626
211	0xbd4a9099	-0.049454305
212	0x3dc83e39	0.09777493
213	0x3d9dc571	0.077036746
214	0x3d02c905	0.03192999
215	0x3dc59869	0.096482106
216	0x3d60ed0e	0.054913573
217	0x3d1bdb52	0.038050957
218	0xbd0a01f0	-0.033693254
219	0x3ccf49e5	0.02530379
220	0xbab23e4e	-0.001359889
221	0xbc23d526	-0.009999549
222	0x3b7542de	0.003742389
223	0x3c044e4e	0.00807531
224	0xbdc5f419	-0.096656986
225	0xbd98b9c3	-0.07457306
226	0x3de810f8	0.113313615
227	0xbdc25578	-0.09488958
228	0x3cb3136d	0.021859849
229	0x3d138367	0.036013987
230	0xbcabc7b2	-0.020969246
231	0xbd0f1c53	-0.03493912
232	0x3db6fa08	0.089344084
233	0x3de11578	0.10990423
234	0xbdc32dfc	-0.09530255
235	0x3d3e39a1	0.046441678
236	0xbdaf2fce	-0.0855404
237	0xbd325b60	-0.043544173
238	0x3d6cc392	0.057803698
239	0x3d2ebe14	0.04266174
240	0x3e0a4a40	0.13504887
241	0x3d9c3a82	0.07628347
242	0x3e042427	0.12904416
243	0xbd81d36f	-0.06339156
244	0x3d384235	0.044985015
245	0xbd30578b	-0.043052237
246	0xbca6ccb7	-0.020361288
247	0xbdb60673	-0.08887949
248	0x3df351c0	0.11880827
249	0x3dff2218	0.12457675
250	0x3e0961e8	0.13416255
251	0xbd0d65ed	-0.034521032
252	0x3de51bd7	0.11186951
253	0xbd8cdf0e	-0.06878482
254	0xbd35bb15	-0.04436787
255	0x3d659b78	0.05605647

model.decoder.conv1.bias f4 [8]
0	0x3d5b7728	0.053580433
1	0xbd804b11	-0.06264318
2	0xbdd1528e	-0.10220824
3	0x3de6aaf4	0.112630755
4	0x3ccb4dd0	0.024817377
5	0xbdcb1698	-0.09916419
6	0xbda5e2c0	-0.0809989
7	0x3df9b9ad	0.12193618

model.decoder.conv2.weight f4 [8, 8, 3, 3]
0	0x3dcd2599	0.10016937
1	0xbdf6d6a3	-0.120526575
2	0xbdb063fa	-0.08612819
3	0x3c4e1367	0.012577868
4	0xbd9a745c	-0.07541725
5	0xbc0dfc82	-0.00866616
6	0x3aa09b2e	0.0012253278
7	0x3dccfb16	0.10008828
8	0xbcabc666	-0.020968627
9	0x3d7e1080	0.062027454
10	0x3c0d6a43	0.008631292
11	0x3ddcbadc	0.10777828
12	0x3c9732d8	0.018456861
13	0xbddcc919	-0.10780544
14	0x3d5f9523	0.054585587
15	0xbdddb853	-0.10826173
16	0xbbd41f91	-0.0064734896
17	0x3d8205aa	0.063487366
18	0x3d4bf51f	0.049794313
19	0x3dad38f4	0.084581286
20	0x3d05b314	0.032641485
21	0xbdc70742	-0.09718181
22	0x3da9cd2f	0.08291089
23	0xbd8a6904	-0.067583114
24	0xbd80e76d	-0.06294141
25	0x3d9d9d1b	0.07695981
26	0xbdf257a5	-0.11833123
27	0xbd47754b	-0.048695844
28	0xbcea2551	-0.028582247
29	0x3dd4b88d	0.10386763
30	0xbd751e0d	-0.05984311
31	0xbd6b7f00	-0.057494164
32	0xbd2b1792	-0.041770525
33	0xbd949097	-0.07254141
34	0xb9c23d55	-0.0003704826
35	0xbdbce9d1	-0.092242844
36	0xbd442d6d	-0.047894884
37	0x3dced5f0	0.10099399
38	0x3d21e3d4	0.039523914
39	0x3c03712c	0.008022588
40	0xbdacbeaa	-0.08434804
41	0x3dc779ee	0.09740053
42	0xb96838ae	-0.00022146359
43	0x3c9f3865	0.01943607
44	0x3d1ee5c4	0.03879334
45	0xbd83d4f3	-0.06437101
46	0xbd0a806d	-0.033813883
47	0x3d167d9f	0.036740895
48	0x3dd7d412	0.10538496
49	0x3db9542d	0.090492584
50	0x3cc42190	0.023941785
51	0x3c8e827f	0.01739621
52	0xbd27dd39	-0.04098246
53	0x3ce6f4da	0.028192926
54	0xbdcc5784	-0.0997763
55	0x3d5e8327	0.054324295
56	0x3db11b4a	0.08647783
57	0xbd079503	-0.033101093
58	0x3d0026bf	0.03128695
59	0x3ca62bbb	0.020284524
60	0xbdc2318d	-0.09482107
61	0x3d4e67af	0.05039185
62	0xbd4603f8	-0.04834363
63	0x3d53dbbd	0.05172323
64	0x3dc6851f	0.096933596
65	0x3d51b005	0.051193256
66	0xbdc273e6	-0.09494762
67	0xbc3478ee	-0.01101516
68	0x3d2a18ef	0.041527685
69	0xbd2accbe	-0.041699164
70	0x3c2bfba5	0.010497008
71	0x3dcf2e45	0.10116247
72	0xbd463ed7	-0.048399772
73	0xbd20fd27	-0.039303925
74	0x3dac40e9	0.08410818
75	0xbd5bb3fa	-0.053638436
76	0x3d23e671	0.040014688
77	0x3dfbc07b	0.12292572
78	0xbd53b820	-0.051689267
79	0xbd5d7d7a	-0.054074742
80	0x3dc1e5d2	0.09467663
81	0xbda62d0b	-0.0811406
82	0xbc04079f	-0.008058458
83	0xbc6e3137	-0.014538101
84	0x3de81a7d	0.11333177
85	0x3b64cb02	0.003491104
86	0x3d4a6e64	0.049421683
87	0x3ddf4aef	0.10902964
88	0x3d56fe28	0.052488476
89	0x3cf2aa18	0.029622123
90	0xbbe48188	-0.006973449
91	0xbdad114f	-0.08450567
92	0x3db1d663	0.08683469
93	0xbd99a1dc	-0.07501575
94	0xbda08902	-0.07838632
95	0x3d99c4aa	0.07508214
96	0x3be74ed6	0.0070589585
97	0x3a82c1c5	0.0009975961
98	0xbdb88aef	-0.090108745
99	0xbcf0ecc9	-0.029409783
100	0x3ca6c519	0.020357655
101	0xbc85fcbd	-0.016355867
102	0x3d3a0b42	0.045420893
103	0x3e05db58	0.13071954
104	0xbadb6942	-0.0016739743
105	0x3e0dd2e1	0.13849975
106	0xbcae1268	-0.021249011
107	0x3dbc2cef	0.09188258
108	0xbcfe7b36	-0.03106461
109	0x3c42f721	0.01189974
110	0x3cd93d41	0.026518466
111	0x3db957ed	0.09049974
112	0x3d1ced8a	0.038312472
113	0xbd7b34c0	-0.061329603
114	0x3d52533c	0.05134891
115	0xbdb47ffa	-0.08813472
116	0xbd98ae1d	-0.074550845
117	0xbda7e2df	-0.08197569
118	0x3c98a0e5	0.018631408
119	0x3d790aad	0.060801197
120	0x3d01e029	0.031707916
121	0x3dd40d5b	0.1035411
122	0x3d86dd09	0.06585128
123	0xbdc9fd8e	-0.09862815
124	0x3db26b3d	0.0871186
125	0x3d77f096	0.060532175
126	0x3d7acdfc	0.0612316
127	0x3d81ff28	0.06347495
128	0xbcdff731	-0.02733955
129	0xbd890970	-0.06691253
130	0xbd96eb0a	-0.07369049
131	0xbd4ee781	-0.050513748
132	0xbda6ad9d	-0.08138583
133	0xbc3ea85c	-0.01163682
134	0x3dda663b	0.1066403
135	0xbd9f2f4e	-0.077726945
136	0xbc32eee8	-0.0109212175
137	0x3d9702dd	0.07373593
138	0x3dd76fa3	0.1051934
139	0x3d6ee6f1	0.05832571
140	0x3d462d2d	0.048382927
141	0x3d2b0eec	0.041762277
142	0x3e0f4123	0.13989691
143	0xbcb0cb04	-0.02158118
144	0xbd7e92f0	-0.06215185
145	0x3d3276e2	0.043570407
146	0xbc94de11	-0.018172296
147	0xbdc40398	-0.09570998
148	0xbdb64efe	-0.08901785
149	0xbda8b6e9	-0.08238012
150	0x3c942d46	0.018087994
151	0xbdeb414d	-0.114870645
152	0x3d3d0329	0.046145592
153	0x3dbe4b29	0.092916794
154	0xbddb6179	-0.10711951
155	0x3df5cc01	0.12001801
156	0xbcd96703	-0.026538378
157	0x3dc3859d	0.09546969
158	0xbbd6d2c3	-0.0065558865
159	0x3deb7f22	0.11498858
160	0x3ce5964c	0.028025769
161	0x3dee9527	0.11649542
162	0xbbec8654	-0.0072181616
163	0xbdd84e4c	-0.10561809
164	0x3da0daca	0.07854231
165	0xbdb42b58	-0.0879733
166	0x3ce70836	0.028202157
167	0x3cd1284c	0.02553191
168	0xbdace1e6	-0.08441524
169	0xbc907635	-0.01763449
170	0x3dd59074	0.10427943
171	0x3d57208b	0.05252127
172	0xbc602731	-0.013681219
173	0x3d1376d4	0.036001995
174	0x3bc8cb57	0.0061277556
175	0xbdbacf27	-0.091215424
176	0xbdf41333	-0.119177245
177	0x3dc5d3c2	0.0965953
178	0xbd3ebacd	-0.046564866
179	0xbdc47abd	-0.09593723
180	0xbdab15ff	-0.08353805
181	0xbdf47ae4	-0.11937502
182	0xbd67cee5	-0.056593794
183	0xbc63e38c	-0.013909232
184	0xbdf819ec	-0.12114319
185	0x3c4c0540	0.012452424
186	0xbd2fb0c0	-0.04289317
187	0xbd0e285e	-0.034706466
188	0x3d1f48d5	0.038887817
189	0xbdee0602	-0.1162224
190	0x3d9f0a0f	0.077655904
191	0x3d0c72ff	0.034289356
192	0x3b0145c7	0.0019725428
193	0x3c414e93	0.011798519
194	0xbdef7205	-0.116916694
195	0x3dd7bb5a	0.10533781
196	0xbda170c4	-0.078828365
197	0x3db7192e	0.089403495
198	0xbd0861cd	-0.033296395
199	0x3d2871db	0.041124206
200	0x3d20f4ad	0.03929584
201	0xbc80a4e9	-0.015703635
202	0x3d3b3d2d	0.04571264
203	0xbb8c3f3b	-0.0042799986
204	0x3d19dcc0	0.03756404
205	0xbd167031	-0.036728088
206	0x3dbaf832	0.09129371
207	0x3c0fc452	0.008774834
208	0xbddd93f4	-0.108192354
209	0xbd63fd1c	-0.055661306
210	0xbd39c0e7	-0.04534998
211	0xbdc470f0	-0.095918536
212	0xbde96f52	-0.11398186
213	0x3d4a0690	0.049322665
214	0x3ad7b98b	0.0016458494
215	0xbdc76d58	-0.097376525
216	0xbd91a32a	-0.07111199
217	0x3dcbab9e	0.09944843
218	0x3da0fdb9	0.07860894
219	0x3ba5a6fe	0.0050553074
220	0x3dcea500	0.10090065
221	0x3dc77f29	0.09741051
222	0xbcba94d1	-0.02277604
223	0x3d844187	0.06457811
224	0x3dab6177	0.08368199
225	0x3dd97c80	0.106194496
226	0x3d24d32f	0.040240463
227	0xbda2ef15	-0.079557575
228	0xbc91a05d	-0.017776662
229	0xbd967714	-0.07346931
230	0x3d59a071	0.053131524
231	0x3d238b83	0.03992797
232	0xbd6a9b98	-0.057277292
233	0x3dcbd0ce	0.09951936
234	0x3c9f611a	0.019455481
235	0x3bac825c	0.0052645635
236	0xbd3d1812	-0.046165533
237	0xbd8e90c9	-0.06961209
238	0x3d4f74d3	0.05064852
239	0xbd0fc238	-0.03509733
240	0x3d651d2a	0.055936016
241	0x3c80edbc	0.01573836
242	0x3d398a9f	0.045298215
243	0x3dc3bacd	0.09557114
244	0xbbf1d4f5	-0.007380123
245	0x3876a113	5.8800983e-05
246	0xbc230787	-0.009950525
247	0x3d488633	0.048956107
248	0xbc07b510	-0.008282915
249	0x3c0186ef	0.007905706
250	0xbd0c0475	-0.034183938
251	0xbca22108	-0.019791141
252	0xbd655aeb	-0.05599491
253	0xbdbd59ba	-0.092456296
254	0x3d909dde	0.07061361
255	0xbda8f877	-0.08250516

model.decoder.conv2.bias f4 [8]
0	0xbd8dca81	-0.0692339
1	0x3d96b693	0.07359042
2	0x3dcc5046	0.099762484
3	0xbddbbdae	-0.10729538
4	0xbdeab897	-0.11460989
5	0x3d9da6f9	0.07697863
6	0xbd05d217	-0.03267106
7	0x3d954e89	0.0729037

model.decoder.conv3.weight f4 [16, 8, 3, 3]
0	0x3decb435	0.11557809
1	0x3dad0d98	0.084498584
2	0x3c6dddc8	0.014518209
3	0xbd3d3f95	-0.046203215
4	0xbd0edae1	-0.034876708
5	0x3c282173	0.010261881
6	0x3ce3d14b	0.02780976
7	0x3daa6897	0.0832073
8	0x3db800bc	0.08984515
9	0x3cbc20ae	0.022964802
10	0xbcef3e50	-0.029204518
11	0x3df6c759	0.12049741
12	0xbd8d1283	-0.068882965
13	0xbdb568c1	-0.08857871
14	0x3bfa518e	0.0076391166
15	0x3d7ee580	0.062230587
16	0x3cb4ac7f	0.022054909
17	0xbc9b120a	-0.0189295
18	0x3d8f376c	0.06992993
19	0xbdb900f6	-0.090333864
20	0x3c0285e8	0.007966496
21	0x3da30fa9	0.07961971
22	0xbc9fde50	-0.019515187
23	0x3de8152f	0.113321654
24	0xbd6658f6	-0.056237184
25	0xbd9d7e25	-0.07690076
26	0x3dd4c204	0.10388568
27	0x3ccc86c8	0.024966612
28	0xbdbaabda	-0.09114809
29	0xbd2248b1	-0.039620105
30	0x3d576564	0.052586928
31	0xbd052ae7	-0.032511618
32	0x3dda9326	0.106725976
33	0xbde099f7	-0.109668665
34	0x3d808178	0.06274694
35	0xbd226e36	-0.039655887
36	0xbde724a4	-0.112862855
37	0xbda1842e	-0.078865394
38	0x3d9e4ac2	0.07729103
39	0xbd086627	-0.033300545
40	0xbdcdda35	-0.10051385
41	0x3dee91da	0.11648913
42	0x3d1592e8	0.036517054
43	0x3dbd7c74	0.09252253
44	0xbd9fda4d	-0.078053094
45	0xbd87a3d4	-0.066230446
46	0x3dc5d7f3	0.0966033
47	0x3dd30417	0.103035145
48	0x3a08bb7c	0.00052159256
49	0xbd8419ad	-0.0645021
50	0x3d757af3	0.059931707
51	0x3b373cdc	0.002795986
52	0x3d94ecb2	0.072717085
53	0xbde08523	-0.10962894
54	0xbd75206d	-0.059845377
55	0x3ddaad3a	0.106775716
56	0xbbcec884	-0.0063105244
57	0x3de128dc	0.109941214
58	0x3c617d5c	0.013762798
59	0x3d8375c4	0.064189464
60	0x3d6d3b62	0.05791796
61	0x3c62fa74	0.013853658
62	0x3dc64f5d	0.09683106
63	0x3ba0a273	0.004902178
64	0x3daca3da	0.0842969
65	0xbd4a241a	-0.049350835
66	0x3da9fa0a	0.08299644
67	0xbd82d89d	-0.06388972
68	0xbd093de6	-0.033506297
69	0xbbb64920	-0.0055629164
70	0xbd087c5d	-0.033321727
71	0x3d78c98b	0.06073908
72	0xbdcf771d	-0.10130141
73	0x3bdbb7df	0.0067052688
74	0x3d56cfee	0.05244439
75	0x3da039d4	0.0782353
76	0x3d05e714	0.032691076
77	0xbdbadd3f	-0.091242306
78	0x3d278000	0.040893555
79	0x3cd3a468	0.025835231
80	0xba16de2c	-0.0005755152
81	0xbd9fc41a	-0.07801075
82	0xbd7d76f6	-0.061881028
83	0xbd24dc1c	-0.040248975
84	0xbd2a9c9a	-0.041653253
85	0xbdb5a09a	-0.08868523
86	0xbdbc25f3	-0.09186926
87	0x3d58b88b	0.05291037
88	0x3cc24259	0.023713278
89	0x3d78b0ba	0.060715415
90	0xbd7a2279	-0.061068032
91	0x3d79c872	0.060982175
92	0x3d279d15	0.04092129
93	0xbd9a4821	-0.07533289
94	0xba3481e6	-0.00068858115
95	0xbd63ac87	-0.055584457
96	0x3b3d2d46	0.0028866096
97	0x3d81bf2d	0.06335292
98	0xbd8072da	-0.06271906
99	0x3da6857b	0.08130928
100	0xba775bc5	-0.0009435977
101	0xbb7dc004	-0.0038719187
102	0x3c1c3503	0.009534123
103	0xbbcfdaf7	-0.0063432413
104	0xbca6a55f	-0.020342527
105	0x3ca18f2d	0.019721592
106	0xbddab391	-0.10678781
107	0xbdc3a944	-0.09553769
108	0x3c06f22c	0.008236449
109	0xbd11ee2d	-0.035627533
110	0x3d18540a	0.03718952
111	0x3c3cdef6	0.011527767
112	0x3d865ddd	0.06560872
113	0x3dd9b11b	0.10629483
114	0xbd7cee1b	-0.061750513
115	0x3ae1598b	0.0017192824
116	0x3d7610ef	0.060074743
117	0xbde40c10	-0.11135113
118	0x3d139b6f	0.036036905
119	0x3d5cc918	0.053902715
120	0xbb0d3f8e	-0.0021552774
121	0xbda6bf16	-0.081419155
122	0x3dc93bc5	0.09825853
123	0xbcd6823d	-0.02618515
124	0x3dbe11d1	0.09280742
125	0xbd86045a	-0.06543799
126	0xbd6a276b	-0.0571665
127	0x3dae2a6d	0.08504186
128	0xbd38986b	-0.045067232
129	0x3daa4099	0.08313102
130	0x3d188031	0.037231628
131	0xbd963510	-0.073343396
132	0x3ddbccc0	0.10732412
133	0xbc0b1288	-0.008488305
134	0x3bbd72ec	0.005781522
135	0x3d93dbc8	0.07219654
136	0x3dcadb7c	0.099051446
137	0xbdf0b529	-0.117533036
138	0xbb30d536	-0.0026982552
139	0xbc84625c	-0.016160183
140	0xbd84bcb4	-0.06481305
141	0xbdeee525	-0.116647996
142	0xbb8077e4	-0.003920542
143	0xbdbe1b26	-0.09282522
144	0x3b416b02	0.0029513245
145	0xbdc33e33	-0.09533348
146	0xbd8ce248	-0.06879097
147	0x3dacd982	0.08439924
148	0x3deef069	0.11666948
149	0xbd9b49ac	-0.07582411
150	0x3dcd9484	0.10038093
151	0xbdb23bc2	-0.08702804
152	0x3ceb8e94	0.02875451
153	0xbd11d85a	-0.03560672
154	0xbdb838ba	-0.08995195
155	0xbd49e762	-0.04929293
156	0xbd4da30c	-0.05020432
157	0xbda5f59f	-0.08103489
158	0xbd22f974	-0.03978868
159	0xbc97638b	-0.018480083
160	0xbd87d54d	-0.06632481
161	0xbd06ca2e	-0.032907657
162	0xbce9d9e3	-0.02854628
163	0xbd89e5c6	-0.06733279
164	0xbd86779e	-0.06565784
165	0x3cbdea97	0.02318315
166	0x3d5dc202	0.0541401
167	0x3cd57d17	0.026060624
168	0xbd0a83b1	-0.033816997
169	0xbe025cab	-0.12730663
170	0xbbac8c2e	-0.005265734
171	0xbc10856a	-0.008820871
172	0xbdaf5678	-0.085614145
173	0x3d9598c0	0.073045254
174	0xbdc1e2e9	-0.09467108
175	0x3dc0a1b4	0.094058424
176	0xbc02707f	-0.0079613915
177	0xbccc035c	-0.024903946
178	0x3da2acf6	0.07943146
179	0x3d72835f	0.059207316
180	0x3dd97aba	0.10619111
181	0x3d4047f8	0.046943635
182	0xbd5f196a	-0.054467596
183	0x3dc6b695	0.097027935
184	0x3d2403de	0.04004275
185	0x3d1b1e03	0.03787042
186	0xbdcb4fd1	-0.09927333
187	0xbc12702b	-0.008937876
188	0xbc964eed	-0.018348182
189	0x3d7fc568	0.06244412
190	0x3d9b5694	0.07584873
191	0xbdd0fe0c	-0.102047056
192	0x3dc40330	0.095709205
193	0xbcadcb16	-0.021215003
194	0xbded2755	-0.115797676
195	0xbd054ff0	-0.032546937
196	0xbd125dd2	-0.035734005
197	0xbd3fe6a2	-0.046850808
198	0xbc3dd5e0	-0.011586636
199	0x3d8c702c	0.068573326
200	0xbd7e9c37	-0.062160697
201	0xbd649b0b	-0.055811923
202	0x3ddb03bb	0.10694071
203	0xbd605bc8	-0.05477503
204	0xbdf734a7	-0.120705895
205	0x3d440356	0.047854744
206	0x3dcdced7	0.10049217
207	0x3da25ccd	0.079278566
208	0xbdb0e35a	-0.08637114
209	0xbd52e8e0	-0.05149162
210	0xbdb05718	-0.08610362
211	0x3c5b3df9	0.013381475
212	0xbbcb9fe5	-0.0062141293
213	0xbdba13c0	-0.09085798
214	0x3dbd827f	0.09253406
215	0x3d69a3ec	0.057041094
216	0xbb8cead2	-0.0043004537
217	0xbd21c812	-0.039497443
218	0xbd3fd1cc	-0.046830937
219	0xbdb6f4b1	-0.0893339
220	0x3d196050	0.037445366
221	0x3cd0d10a	0.025490303
222	0xbdbb955a	-0.09159346
223	0xbd6c8f56	-0.057753883
224	0x3ce23948	0.027615204
225	0xbd937d9f	-0.07201695
226	0x3d1e04c3	0.03857876
227	0x3bcb4ad7	0.00620399
228	0xbce0abc8	-0.027425662
229	0x3de13d5e	0.10998033
230	0x3dd6f8a4	0.10496643
231	0x3d2656f7	0.04061028
232	0xbd1348c6	-0.035958074
233	0xbd940e90	-0.0722934
234	0x3d72b8a0	0.059258103
235	0x3c89065c	0.016726665
236	0x3d03e8aa	0.032204308
237	0xbddce90c	-0.10786638
238	0xbd838a22	-0.06422831
239	0xbd82174f	-0.06352102
240	0x3dd01f31	0.10162199
241	0xbd124f14	-0.035719946
242	0x3d36cb35	0.044627387
243	0x3dda6d4e	0.106653795
244	0x3ca56a61	0.020192327
245	0xbbb9a75c	-0.0056657027
246	0xbdc6f621	-0.09714914
247	0xbdea03d1	-0.11426509
248	0xbd9a1877	-0.075241975
249	0xbddb6be4	-0.10713938
250	0x3d9f2fb6	0.07772772
251	0x3cddc257	0.027070208
252	0x39c0f1c4	0.00036801223
253	0x3dd39ad3	0.10332265
254	0xbd98c562	-0.07459523
255	0x3dd23987	0.10264879

model.decoder.conv3.bias f4 [16]
0	0xbd86427d	-0.065556504
1	0xbd9e71a4	-0.07736519
2	0x3d843d3c	0.06456992
3	0xbd7e15b7	-0.062032428
4	0x3c88fdef	0.016722647
5	0x3db6cb9f	0.089255564
6	0x3e007d12	0.1254771
7	0x3dfbe0e7	0.12298756
8	0xbdb43da4	-0.088008195
9	0x3c38b048	0.0112724975
10	0x3c927a19	0.017880486
11	0xbb732b37	-0.0037104615
12	0x3dd90275	0.10596172
13	0x3db877c5	0.09007219
14	0xbdd418d5	-0.10356299
15	0x3dca8f0b	0.098905645

model.decoder.conv4.weight f4 [1, 16, 3, 3]
0	0x3d9504bf	0.07276296
1	0xbd8d4375	-0.06897632
2	0xbd978ace	-0.07399522
3	0x3d7da53d	0.06192516
4	0xbd007640	-0.031362772
5	0xbd9157ab	-0.070967995
6	0x3cf6150e	0.030039337
7	0x3ab2361a	0.0013596446
8	0x3d3a4eb6	0.04548522
9	0xbd700c78	-0.05860564
10	0x3d9bf006	0.0761414
11	0xbce5866b	-0.028018197
12	0xbd4adc28	-0.049526364
13	0x3cfaf430	0.030634016
14	0xbd8af410	-0.067848325
15	0xbd87b40b	-0.06626137
16	0xbc8141ab	-0.015778383
17	0x3be8242b	0.0070843897
18	0xbd3c3e5c	-0.045957908
19	0xbcb66e2c	-0.02226933
20	0xbdc06d6e	-0.09395872
21	0x3d2e61dd	0.0425738
22	0xbcc21b69	-0.02369471
23	0xbb5e34a0	-0.0033905879
24	0x3d0c1b4c	0.03420572
25	0x3ce8a00f	0.028396634
26	0x3d57486e	0.05255931
27	0x3d2c2e10	0.042036116
28	0x3c86e189	0.016464965
29	0xbd63603f	-0.05551171
30	0x3d5bf76b	0.053702753
31	0xbcb340be	-0.021881457
32	0x3cfea03f	0.03108227
33	0x3d98d1a4	0.07461861
34	0xbd58b279	-0.05290458
35	0xbc6a47da	-0.014299357
36	0xbda7d41e	-0.08194755
37	0xbcf475af	-0.029841272
38	0xbd358f0c	-0.044325873
39	0xbda6fd31	-0.08153761
40	0xbd509ce4	-0.050930873
41	0x3c04a431	0.008095787
42	0xbdac63ee	-0.084174976
43	0xbd076d87	-0.033063438
44	0x3d183ae9	0.037165556
45	0x3d51b4ab	0.05119769
46	0xbdc9347d	-0.098244645
47	0x3d017099	0.031601522
48	0xbbe3d485	-0.0069528245
49	0x3c00f1d1	0.0078701535
50	0x3d065c22	0.03280271
51	0x3d425649	0.04744557
52	0xbd77f483	-0.06053592
53	0x3d4192c6	0.047259115
54	0xbcdb2f4c	-0.026755951
55	0xbc162944	-0.009165112
56	0x3bc1ae82	0.0059106955
57	0xbdc6c2a0	-0.097050905
58	0xbd76b2a1	-0.060228948
59	0xbdd815c5	-0.10551027
60	0xbc05be12	-0.008162992
61	0x3ca71724	0.020396776
62	0xbd633f84	-0.055480495
63	0xb9582003	-0.0002061129
64	0xbd16f279	-0.036852334
65	0xbd434f5b	-0.0476831
66	0xbda53c78	-0.08068174
67	0x3c012f74	0.007884849
68	0xbcf6cab0	-0.030125946
69	0x3c61ae40	0.013774455
70	0x3d64c2ac	0.055849716
71	0xbdb43181	-0.087985046
72	0xbc6fc1b7	-0.014633588
73	0xbd09bffb	-0.033630352
74	0x3d2d0af9	0.042246792
75	0x3d820764	0.06349066
76	0x3d71559f	0.058919545
77	0xbc5bcd22	-0.013415607
78	0x3c7f330a	0.0155761335
79	0xbd210a9e	-0.039316766
80	0xbdbb21c2	-0.09137298
81	0xbdaa18a2	-0.083054796
82	0x3cf774db	0.030207088
83	0xbd7d8e63	-0.06190337
84	0xbd458b7e	-0.048228733
85	0x3cc7c0f6	0.024384003
86	0xbd985e62	-0.07439877
87	0x3d57a9a8	0.05265203
88	0x3d6f56c6	0.058432363
89	0xbbaade56	-0.005214493
90	0x39e21f00	0.00043129176
91	0x3d034818	0.032051176
92	0x3c037cd8	0.008025371
93	0xbdd38ec8	-0.10329968
94	0x3bf44882	0.0074549327
95	0xbdd9f1c5	-0.10641817
96	0xbd9860e3	-0.07440355
97	0xbdd9a868	-0.10627824
98	0xbd8c1cd4	-0.06841436
99	0xbc994862	-0.018711273
100	0xbc4d070d	-0.012513888
101	0xbc517095	-0.012783189
102	0xbc691d26	-0.014228141
103	0xbdb4ed9d	-0.08834384
104	0xbb08cc15	-0.0020873595
105	0xbd2e76a0	-0.0425936
106	0x3d0dc80f	0.03461462
107	0x3d5b5104	0.05354406
108	0xbca9a592	-0.020708833
109	0xbc0db6d0	-0.008649543
110	0xbd815816	-0.06315629
111	0x3ca1baa7	0.019742323
112	0x3d5c8caa	0.053845085
113	0x3bc1b920	0.005911961
114	0x3bfa488a	0.007638042
115	0xbc9dbf7c	-0.019256346
116	0xbd903907	-0.07042127
117	0xbd138557	-0.036015835
118	0xbd9f6c21	-0.07784296
119	0x3d30b9ff	0.04314613
120	0xbd902cbd	-0.07039783
121	0xbdb004d7	-0.08594673
122	0xba67ec03	-0.0008847119
123	0xbd565d5c	-0.05233513
124	0xbd0e55b2	-0.034749694
125	0x3d7105d7	0.05884346
126	0x3d299a0c	0.041406676
127	0x3d81b881	0.063340195
128	0xbca2d60e	-0.01987746
129	0xbcd23049	-0.02565779
130	0xbd65d255	-0.05610879
131	0x3c91f8d9	0.017818855
132	0x3d676342	0.056491144
133	0xbd532f57	-0.05155882
134	0xbcf2368a	-0.029567022
135	0x3d50f9ec	0.051019594
136	0xbd422886	-0.047401927
137	0x3cc53e01	0.024077417
138	0x3d3fd5a7	0.046834614
139	0x3d1a9a79	0.037744973
140	0xbd7adf27	-0.06124797
141	0xbc838227	-0.016053272
142	0x3d331a82	0.04372645
143	0x3d7b06fb	0.061285954

exp_avg f4 [16, 1, 3, 3]
0	0xba97fb4c	-0.0011595278
1	0xbac2145a	-0.0014807091
2	0xbb524f38	-0.0032090675
3	0xbadc6fe9	-0.001681802
4	0xbb00e5ad	-0.0019668147
5	0xbb35593e	-0.00276716
6	0xbab74705	-0.0013982957
7	0xbb06fcd8	-0.0020597484
8	0xbafd4e96	-0.0019325789
9	0xb2538418	-1.2311851e-08
10	0xb396e868	-7.027194e-08
11	0xb46122c3	-2.0967404e-07
12	0xb5f28ae8	-1.8070832e-06
13	0xb6069643	-2.005502e-06
14	0xb6124359	-2.1794897e-06
15	0xb6024558	-1.9411873e-06
16	0xb5bf49b1	-1.4252056e-06
17	0xb52a331d	-6.3404315e-07
18	0xbaa81e40	-0.0012826398
19	0xbb17f07e	-0.0023184116
20	0xbb25312d	-0.0025206313
21	0xbabaf992	-0.0014265052
22	0xbb2bdce5	-0.0026224193
23	0xbb2ab16f	-0.00260457
24	0xbaca20d0	-0.0015421156
25	0xbafb708e	-0.0019183324
26	0xbaf2931f	-0.001850698
27	0x32bebcb3	2.2204722e-08
28	0x2d36edeb	1.0398331e-11
29	0x00000000	0.0
30	0xa8f992de	-2.7708247e-14
31	0x00000000	0.0
32	0x00000000	0.0
33	0x00000000	0.0
34	0x00000000	0.0
35	0x2fe758ae	4.2081666e-10
36	0xbb4c0e22	-0.0031136354
37	0xbb6eb7a2	-0.0036425372
38	0xbb5a4392	-0.0033304435
39	0xbb45c9d5	-0.0030180116
40	0xbb6df6c0	-0.0036310405
41	0xbb5fa39d	-0.003412462
42	0xbb3ddffd	-0.0028972619
43	0xbb55bac3	-0.003261254
44	0xbb39b5b8	-0.0028337073
45	0xb99df024	-0.00030124292
46	0xba9c58c0	-0.0011928305
47	0xbae1ff6e	-0.0017242262
48	0xb93fa02c	-0.00018274848
49	0xba7c08e5	-0.00096143625
50	0xbad28b91	-0.0016063323
51	0xb9bf9581	-0.00036541748
52	0xba4e2a3f	-0.00078645715
53	0xba9aa732	-0.0011799096
54	0xbb7dc2a1	-0.0038720744
55	0xbb732b35	-0.003710461
56	0xbb263a9b	-0.0025364521
57	0xbb51749f	-0.003196038
58	0xbb158867	-0.0022816898
59	0xba6681cf	-0.00087931467
60	0xbb25d473	-0.0025303632
61	0xba78a46f	-0.0009484952
62	0xb9f01e7a	-0.00045799074
63	0xb88a5a95	-6.597225e-05
64	0xb7954daa	-1.779835e-05
65	0xb59949db	-1.1420883e-06
66	0xb92e8800	-0.00016644597
67	0xb8ab84e3	-8.1786675e-05
68	0xb6e80216	-6.9143816e-06
69	0xb969aa8d	-0.00022284147
70	0xb8e02a03	-0.000106889776
71	0xb7356b63	-1.0813444e-05
72	0xbb8840f0	-0.004158132
73	0xbb35e9f2	-0.002775785
74	0xbb01775b	-0.001975498
75	0xbb8cf96f	-0.0043021957
76	0xbb4fd1e6	-0.0031710803
77	0xbb0b1aed	-0.0021225766
78	0xbb4bf749	-0.0031122735
79	0xbb0d8de0	-0.0021599457
80	0xbaabe81c	-0.0013115439
81	0xb994e37f	-0.00028398258
82	0xb7ff2dcf	-3.04197e-05
83	0xb4cd1ef1	-3.8206738e-07
84	0xb981600e	-0.00024676364
85	0xb894cba4	-7.095121e-05
86	0xb5d40a4d	-1.5798229e-06
87	0xb924ef71	-0.00015729458
88	0xb8fc9d64	-0.00012045613
89	0xb79aa9b5	-1.8437257e-05
90	0xb892982b	-6.990166e-05
91	0xb913c78f	-0.00014093354
92	0xba197647	-0.00058541115
93	0xb7f791fd	-2.9512676e-05
94	0xb95f5ee9	-0.00021302294
95	0xba5d7f41	-0.0008449443
96	0xb87d959a	-6.0459228e-05
97	0xb9d2e29d	-0.0004022316
98	0xba85c403	-0.0010205511
99	0xbadc19ec	-0.0016792393
100	0xba51ae46	-0.0007998686
101	0xba0dd3f4	-0.00054103066
102	0xba506190	-0.0007949108
103	0xb91b4cef	-0.00014810612
104	0xb99090a2	-0.0002757358
105	0xb9b54647	-0.0003457537
106	0xb93f39cc	-0.0001823671
107	0xba69af56	-0.0008914372
108	0xbb189af6	-0.0023285723
109	0xbb3002e8	-0.00268572
110	0xbb19d2eb	-0.0023471664
111	0xbafdf653	-0.0019375779
112	0xbb114f29	-0.0022172427
113	0xbac8338b	-0.001527415
114	0xbb0ee5d5	-0.002180447
115	0xbad269d6	-0.001605327
116	0xbade88dd	-0.0016978044
117	0xbb950b2b	-0.0045484505
118	0xbb9e2507	-0.0048261913
119	0xbb5f2a50	-0.003405232
120	0xbba5c045	-0.0050583207
121	0xbb9fd0f0	-0.004877202
122	0xbb6ba32c	-0.0035955412
123	0xbb961ffa	-0.0045814486
124	0xbb8b012d	-0.0042420835
125	0xbb44ed31	-0.0030048604
126	0xba48b188	-0.0007655849
127	0xb9d57ac6	-0.00040718
128	0xb848b722	-4.785427e-05
129	0xba8bb35f	-0.0010658315
130	0xb9ca6f7a	-0.000386115
131	0xb95d87e5	-0.00021126827
132	0xba8e8e67	-0.001087618
133	0xb9da3eba	-0.00041626935
134	0xb98a1269	-0.00026335128
135	0xbafe534f	-0.001940349
136	0xbb09c23e	-0.0021020318
137	0xbadbce46	-0.0016769848
138	0xbab05823	-0.0013454001
139	0xba6c7430	-0.0009019999
140	0xba4066c3	-0.00073395314
141	0xba380b37	-0.0007020714
142	0xb96b2d4b	-0.0002242822
143	0xb9aec34d	-0.00033333377
